Model/model.pth (torch, 287092 bytes, 6 tensors)

net.0.weight f4 [256, 16]
000000 2e 76 9b 3e 74 9c 7e c0 5e 57 4d c0 8f fa 59 c0
       0.303636 -3.9782991 -3.2084575 -3.405918
000010 77 84 ec bd 87 7d f3 bd ac f7 73 be a2 7d 0d bf
       -0.11548703 -0.11889177 -0.23824948 -0.55269825
000020 ca 36 15 be 80 7e 08 3e e8 62 1c 3e c9 ff 98 be
       -0.14571682 0.13329506 0.15272105 -0.2988265
000030 3b 16 09 bb ae d4 90 3d b5 60 01 3d b5 fa ca 3d
       -0.0020917791 0.070718154 0.031586368 0.099111
000040 84 96 04 ba e1 da 79 bd e9 0b 62 3e 11 67 6b bd
       -0.0005057829 -0.060999755 0.22074856 -0.05747134
000050 87 71 0c 3e bb 94 2b 3d fc 47 e3 be d4 c2 8e be
       0.13715182 0.041889887 -0.44390857 -0.27883017
000060 ec ca 6d 3b dc ab c9 3d 6c b0 97 bd c4 79 2f be
       0.003628428 0.09847233 -0.07406697 -0.17136294
000070 ce 41 f9 bb c7 9d e2 3d 6a cc 83 3e ae e8 1f 3e
       -0.0076067215 0.1106525 0.25741893 0.15616104
000080 b5 13 54 3d 36 b9 7a bc c6 8d d0 3a 67 cc 26 3d
       0.051776607 -0.015302947 0.0015911392 0.040722277
000090 c5 bb 9c 3b be 93 01 3e 63 95 9e 3d 9f d3 37 bf
       0.004783126 0.12654015 0.07743337 -0.71807283
0000a0 f6 13 af 3d 95 3a 02 bc a9 6d 42 c0 44 00 c9 be
       0.08548729 -0.007948537 -3.0379431 -0.39258015
0000b0 fd cb 24 3d 13 0e 95 3d 6c 06 1a c0 07 38 60 bf
       0.0402336 0.07278075 -2.406642 -0.8758549
0000c0 6d fd 23 3d a1 da 60 3e 4a 9e 4f c0 26 d9 22 c0
       0.040036608 0.219584 -3.2440362 -2.5445037
0000d0 12 41 59 3d 07 8b e6 3d 5b 87 e8 be 42 d9 ef 3d
       0.05304057 0.11256986 -0.45415768 0.117113605
0000e0 cd 47 fc 3c df 4b f8 bc e8 91 c3 bd b5 3c cb 3d
       0.030795956 -0.030309616 -0.09549314 0.09923688
0000f0 3e d4 36 bc b9 7e ad 3d 91 07 49 3d 5a e9 c2 3c
       -0.011159001 0.08471436 0.04907948 0.023792911
000100 fd 41 8a bf 86 9b 00 c0 61 20 42 3c e9 8e 4c 3d
       -1.0801388 -2.0094924 0.01184854 0.049940977
000110 5a bd 06 be 28 58 12 3d 74 09 dd 3c 3f b5 38 3d
       -0.1315817 0.035728604 0.026982047 0.045094725
000120 5f 12 fc 3b bf 5b c3 bd 43 1d 65 3d 14 4b 0a 3d
       0.0076926197 -0.095389836 0.05593611 0.033763006
000130 a4 45 ee bf 7a 5a bd bf a4 13 9b 3b a8 68 fd 3c
       -1.8615003 -1.4793236 0.004732566 0.030933693
000140 37 5a 92 3d b5 cd 01 3b 8c d7 b2 3d 86 9f ae 3d
       0.07146113 0.001980645 0.087325186 0.085265204
000150 53 16 03 be 20 37 22 3d 77 39 43 3e da 81 93 3d
       -0.12801485 0.039603353 0.1906489 0.072025016
000160 41 20 57 bf 56 33 9c 3c 78 1a d5 3d 7d 46 b0 3d
       -0.8403359 0.019067448 0.10405439 0.086071946
000170 50 dc 5f 3e e7 f2 35 bf 8a 3c 86 be b2 71 da bf
       0.21861386 -0.71073765 -0.26218063 -1.7065947
000180 03 af 82 be f5 bc 39 bf 89 61 8b bf 59 b4 33 bf
       -0.25524148 -0.7255395 -1.088914 -0.70197064
000190 36 32 e7 be 80 5d 0d 3f e6 43 2b 3e ff 99 9d bd
       -0.45155495 0.55220795 0.1672512 -0.07695388
0001a0 ca ca 49 bd 2c c7 21 3e c8 8e d4 3d e1 9e 8b bd
       -0.04926566 0.15798634 0.10378796 -0.06817413
0001b0 a2 20 e2 3d 98 23 e2 bd 8f 38 d3 3d 0c b6 ef 3d
       0.110413805 -0.11041945 0.10313522 0.117046446
0001c0 0f fc a0 bf 2e d2 51 bf dc eb 10 be 49 ef d7 be
       -1.2576922 -0.81961334 -0.14152473 -0.42174748
0001d0 bc 7c 01 3f 30 67 fc 3e 3e b5 0b be 3f aa 7a be
       0.50580955 0.49297476 -0.13643357 -0.24479006
0001e0 ea 98 16 3d 8c 61 f7 3c 5e 20 38 3d 62 42 07 3d
       0.036766924 0.030197881 0.044952743 0.033022292
0001f0 36 21 4b bd 14 e4 59 3d 51 50 f3 3c 3f 98 a8 bc
       -0.04959222 0.053196028 0.029701384 -0.02058041
000200 2d 39 30 3d 5b 9c 03 bf 8e 1a 51 bf ee a1 34 bf
       0.043023277 -0.51410455 -0.81681144 -0.70559585
000210 aa c3 d9 3e c6 b4 b7 bd c3 3d 0e be e4 7d e0 3d
       0.42532092 -0.08970027 -0.13890748 0.10961512
000220 81 08 dd bd b7 f9 e1 be a2 c6 be bb 88 54 33 3e
       -0.107926376 -0.4413583 -0.0058220187 0.17512715
000230 23 c8 70 3d 65 6d 71 bf d5 3b fa bc 81 ed 56 3e
       0.058784615 -0.9430755 -0.030546108 0.20989038
000240 f7 f2 21 3d 68 8e 85 3e 75 ba d4 3e 39 16 cf be
       0.03953835 0.2608521 0.41548505 -0.40446642
000250 34 32 f2 bd da b3 96 be 33 6c 6b bf 14 00 9b be
       -0.11825982 -0.2943409 -0.91961974 -0.30273497
000260 f0 ba 04 3e e1 a2 bb 3d bc fd c3 3e c4 ea c2 3d
       0.12961936 0.09161926 0.3827952 0.09517434
000270 dc 96 8c bd 8e 81 5b 3d cf d6 a9 3d d3 96 ea 3b
       -0.06864712 0.05359035 0.082929246 0.007159093
000280 99 e0 98 bb b2 84 3d bd 58 52 31 3d 34 1c 9b bd
       -0.004665446 -0.046269126 0.04329142 -0.07573739
000290 87 60 a5 bc d4 6b 2f 3b a7 98 84 3d bb 9e 24 bd
       -0.02018763 0.0026767151 0.064744286 -0.04019044
0002a0 7b fb 1a 3d 53 42 14 3d ea a1 1f 3f b6 68 0f c0
       0.037837487 0.036196064 0.62356436 -2.240766
0002b0 20 75 5e bd e5 6e 31 bd 52 70 e1 3b b4 67 09 3d
       -0.054310918 -0.043318648 0.0068798447 0.033546165
0002c0 9a 7a 03 3e 89 f5 b1 3e 80 b4 33 bd 21 a7 9d bf
       0.12839738 0.3475764 -0.04387331 -1.2316629
0002d0 a1 80 48 bf ce cd 2a c0 8f 1a 84 be 2e 69 41 3e
       -0.7832127 -2.6688113 -0.25801513 0.18887779
0002e0 fb ae 74 bf 15 d0 13 bc 9e ca 19 3d c3 80 22 bc
       -0.955795 -0.009021779 0.037546746 -0.0099183945
0002f0 8f d3 33 3e 74 9d 56 3c 69 c4 21 3b 4f 46 17 3e
       0.17561172 0.013099063 0.002468372 0.14772914
000300 a9 d7 29 3d 3a c8 f6 3c bd d2 d6 3c 9d 14 a9 3c
       0.041465435 0.030124772 0.026223535 0.020639712
000310 a0 2c 1e bc f5 58 a4 3c 99 34 1c 3c b5 b9 14 3d
       -0.009654194 0.02006195 0.009534025 0.036309917
000320 e5 fa a1 bd f0 18 fa bc 6d a6 32 3c 16 f1 b9 3f
       -0.079091825 -0.03052947 0.010903937 1.4526699
000330 31 8c a9 be ff 77 c4 bd 5d 7e a7 3d c0 98 cb bf
       -0.3311477 -0.095932 0.08178399 -1.5905991
000340 22 62 8e bf 8c ba 18 bf 3c ae ce be 0a d3 53 be
       -1.1123698 -0.5965965 -0.40367305 -0.20685974
000350 3c 24 09 3f 1e 2a ec bc 0a 4e 66 3e b9 0a 85 bf
       0.53570914 -0.028828677 0.22490707 -1.0393897
000360 61 0c 1f 3d e5 ae 01 3d c1 0d 59 3d 37 56 61 bd
       0.038830165 0.031660933 0.052991632 -0.05501386
000370 48 3d f1 3d fe 25 e3 3b fe 18 8a 3b 51 9c 36 3d
       0.117792666 0.0069320193 0.004214405 0.04458267
000380 22 32 9e bd bf a4 24 3e bb 2a b1 bc 63 4f 71 3d
       -0.07724406 0.1607847 -0.02162682 0.0589136
000390 6b d6 a4 3e 16 d1 87 3d 4b f4 ec 3b 72 67 a0 3e
       0.32194838 0.06631677 0.0072312704 0.31328923
0003a0 48 25 bd be 6c 99 28 3e d5 c8 da be 6a d9 c4 be
       -0.36942506 0.16464776 -0.42731348 -0.38447124
0003b0 75 4b a0 bf c3 f6 af bf 0b ca 00 bf b5 81 88 bd
       -1.2523028 -1.3747181 -0.50308293 -0.06665365
0003c0 cb 45 a5 bf f4 0b f1 3d 85 09 38 be 97 2b 89 3d
       -1.2911924 0.11769858 -0.17972381 0.06697767
0003d0 b1 06 2e 3e f1 8b 1f c0 7f 0b 6a 3e b6 4a c9 3b
       0.1699474 -2.4929163 0.22855948 0.0061429394
0003e0 e2 e7 0d 3d 6d c6 96 3e da ec 93 3c a2 48 61 bd
       0.03464497 0.29448262 0.018057276 -0.05500091
0003f0 73 fc 97 3c 3d 58 12 bc f5 97 2f bc f7 71 93 3d
       0.018552994 -0.00893217 -0.010717382 0.071994714

net.0.bias f4 [256]
000000 64 79 13 3f c8 ec 3c bf 15 ef 18 3f 7c 53 3c 3f
       0.576071 -0.737988 0.5973981 0.7356489
000010 a8 a8 a1 3f f2 65 a9 3d 9e 64 36 3d 23 9b c2 be
       1.2629595 0.08271398 0.04452955 -0.38008985
000020 e5 31 e0 3e a8 6a 2b bf b6 30 18 be e4 3c f0 bd
       0.43788067 -0.6695962 -0.14862332 -0.11730364
000030 ff 60 f7 bd cc 33 08 bf 34 fe 94 be a2 3c 12 3e
       -0.120790474 -0.53204036 -0.29100192 0.14280942
000040 00 f3 d5 3d 35 94 17 bf fb 80 35 bf 84 09 f6 3e
       0.10446739 -0.5921052 -0.70899934 0.48054135
000050 4d 67 98 3e 16 f0 5c be 5e 34 c7 be 69 b7 79 bc
       0.29766312 -0.2157596 -0.3890714 -0.015241482
000060 ea 15 d6 3e 37 ed d5 bd f3 71 21 3f a0 3d bc 3d
       0.41813594 -0.10445636 0.630645 0.091914415
000070 b0 51 1a 3f 18 0f 09 bd 9b c8 4f 3f 0d 1d 93 3e
       0.60280895 -0.03346166 0.81165475 0.287331
000080 8c 84 c3 3f ef d9 7c bd 2a 38 bf bd 72 89 e9 bc
       1.5274825 -0.061731275 -0.09336884 -0.028507922
000090 25 8f a9 be 3c ed 85 3f 56 f2 a6 bd f9 3a 05 3d
       -0.33117023 1.0463023 -0.08151691 0.032526944
0000a0 fc 8b 10 3c e5 3e 20 3d 73 44 84 be 7c 94 da bd
       0.008822437 0.03912248 -0.25833473 -0.106728524
0000b0 24 85 08 3f 86 ab a4 3d 55 d0 ab be 7e 7f 80 3e
       0.53328156 0.08040528 -0.33557382 0.2509727
0000c0 16 ae 87 3e 9c 68 d5 3e 7e e1 46 3f 30 19 a1 3f
       0.26500005 0.41681373 0.77687824 1.2585812
0000d0 84 e3 6e 3f fe e6 0a 3f f2 bf 97 be 1b ed 4e 3f
       0.9331591 0.54258716 -0.2963863 0.80830544
0000e0 36 3e ab be 0d c0 af bc 9f a9 87 3f 57 59 d7 be
       -0.334459 -0.021453882 1.0598639 -0.42060348
0000f0 48 3f 17 3f 0d 4b 87 3f 1c 8e e2 be 8f fd 17 bd
       0.59080935 1.0569779 -0.44249046 -0.037107047
000100 80 d4 03 bf 61 a0 db be 64 7d 3d bf f5 d3 47 3f
       -0.51496124 -0.42895797 -0.74019456 0.78057796
000110 63 ff fc 3e 56 8c 16 3d c7 3f 34 bf b7 8e f7 3e
       0.49413595 0.03675493 -0.70409817 0.4835107
000120 ea fb 68 bf 20 15 9d 3c ed b3 96 3e 8b ea 1c bf
       -0.9100939 0.019175112 0.29434147 -0.61295384
000130 80 4a db 3e a8 7c 83 3f 5e 11 35 3f 68 a7 35 3c
       0.42830276 1.0272417 0.70729625 0.011087276
000140 85 58 a7 bd d5 1f 3b 3e 8a 21 c7 bc 77 84 d7 bc
       -0.08171181 0.18273862 -0.024307985 -0.026308281
000150 a2 b9 4b bf a2 37 fe 3e 6f 66 06 3f 60 c5 25 3d
       -0.7958013 0.4965182 0.5250005 0.040471435
000160 54 f3 3f 3f 1f 80 bb be 59 01 7e 3c 41 ee ae bd
       0.74980664 -0.36621186 0.015503251 -0.08541537
000170 4a d2 11 3f f2 64 9e 3d f5 f9 53 bf f1 5b fe 3e
       0.569615 0.077340975 -0.8280328 0.4967952
000180 87 aa a3 3d fb f4 3b 3f 2b 04 08 bf 0d bc 27 be
       0.0799151 0.73420686 -0.5313136 -0.1638033
000190 3b d5 60 be 36 5d ad bd 74 1a 00 3f 84 03 48 3f
       -0.21956341 -0.08465044 0.50040364 0.78130364
0001a0 f4 4f 7e 3e ea 8d b9 3f 53 c9 68 be c8 69 2d bf
       0.24835187 1.4496434 -0.22733049 -0.67739534
0001b0 80 47 c4 bc 41 6c af 3d a7 26 fd be 1e 10 89 3b
       -0.023959875 0.0856557 -0.49443552 0.0041828295
0001c0 29 ac 41 3f 90 e9 cd 3e 8a e5 70 3d c4 59 89 3f
       0.7565332 0.40217257 0.058812656 1.0730519
0001d0 f2 41 25 be 3f f5 ba 3f 32 71 5c 3f 93 19 0f 3e
       -0.16138437 1.4606093 0.8611022 0.139746
0001e0 e1 92 c8 3e 17 9e ad bd 0e 60 a5 3e f8 82 45 3f
       0.3917456 -0.08477419 0.32299846 0.7715297
0001f0 de 7d da bd 19 45 ae bd ab c1 8d 3f 9b a8 9b 3f
       -0.106685385 -0.08509273 1.1074728 1.2160829
000200 ea 78 20 3e 8b b9 9d bd d7 c9 3d 3f cb be 0c 3f
       0.15671125 -0.07701405 0.7413611 0.54978627
000210 04 5c e6 3e 48 2d c0 3f e6 6c 77 3f 35 03 68 3f
       0.44992077 1.5013819 0.9665054 0.90629894
000220 b9 7b 28 3f c5 d3 10 3f 6a 45 67 3e 8b f4 08 bf
       0.65813786 0.56573135 0.22585073 -0.5349814
000230 e7 ca 79 3e 1f f9 1e 3f 14 e0 c0 be 69 f3 e0 3e
       0.24393807 0.6209888 -0.37670958 0.43935707
000240 fc 9e ca be 68 7b a1 bf ab 06 2f bf c3 8d 39 bf
       -0.3957442 -1.2615786 -0.6836955 -0.72481936
000250 75 13 4f 3d 88 e8 27 be 25 97 9c 3f ca 52 08 bf
       0.050555665 -0.16397297 1.2233626 -0.53251326
000260 ed f2 d7 be dd 60 e9 3e 47 27 cb 3d 11 37 01 3d
       -0.42177525 0.45581713 0.09919601 0.031546656
000270 32 58 3a 3f 75 05 d9 bd df 58 dd bd 4a 29 82 be
       0.72790825 -0.10596744 -0.108079664 -0.25422126
000280 1a 26 6b bf 03 77 25 be 7a 47 fb 3e 7a cd 19 3d
       -0.91855013 -0.1615868 0.4907797 0.037549473
000290 48 31 00 bf 75 77 f4 3e b5 7f 4e 3f 66 c2 45 3f
       -0.500752 0.47747388 0.80663615 0.77249753
0002a0 c6 7a 3f 3f 9f 44 e0 3d 58 71 8b 3f c0 f5 83 bd
       0.7479671 0.109505884 1.0893965 -0.064433575
0002b0 26 7c c6 be ed 5f 88 3e 88 33 f8 3e ba 5e 60 bd
       -0.38766593 0.26635686 0.48476815 -0.05477784
0002c0 17 40 81 3e e2 3d 8a be 78 bd 1c 3f f0 da dc 3e
       0.2524421 -0.27000338 0.61226606 0.43135786
0002d0 60 8d a2 bd 2b 7a 96 3e 85 a3 4a 3e 11 35 17 3e
       -0.079371214 0.29390082 0.1978894 0.14766337
0002e0 49 a8 14 3f 9d ac 84 3c ab f8 ce be 24 36 dd 3e
       0.5806928 0.01619559 -0.40424094 0.4320537
0002f0 88 98 f8 3d a0 e9 e5 3d 7c 12 af be dd c0 8e 3c
       0.12138468 0.11226201 -0.3419379 0.017425949
000300 6a 36 cf 3d e2 89 94 3e 9f c4 c3 be 96 90 21 3f
       0.101178005 0.29011446 -0.38235947 0.63111246
000310 81 30 a9 3e fa 2b b0 bd f4 1b 90 3e 89 e3 25 3e
       0.33044818 -0.08602138 0.28146327 0.16200079
000320 e8 1c f6 be 9f ba 10 3f d6 31 82 bf 7f d2 b9 be
       -0.4806893 0.5653476 -1.0171459 -0.36293408
000330 7a ea 01 3f 07 12 95 3e 0c b9 74 bd e7 c4 82 3f
       0.5074841 0.29115316 -0.059746787 1.021634
000340 2c dc 2a 3f 81 c8 8a be df 96 49 bf 58 b5 2c 3f
       0.66742206 -0.27106097 -0.78745836 0.6746421
000350 c1 a5 b2 bd 03 1c d4 3e af 45 f4 3e 0d 91 91 3f
       -0.08723021 0.4142762 0.47709414 1.1372391
000360 92 6c de 3e 39 f1 ab 3e 08 6d 90 3e c6 e0 c6 3e
       0.43442208 0.33582476 0.28208184 0.38843364
000370 1c 8e 2a bf df 61 88 3f 92 8b 3b bc 62 14 3e bd
       -0.6662309 1.0654868 -0.01144685 -0.046406157
000380 f2 3b 99 3e 32 a5 bd 3d 0a 3e bf 3e 7b 91 14 bf
       0.29928547 0.09260024 0.3735202 -0.58034486
000390 26 64 87 3e 7c d4 05 3f 97 5a 22 3f 4b e1 17 bf
       0.26443595 0.5227735 0.6341948 -0.59328145
0003a0 86 b1 4f 3f dc cb 1e 3f bc f4 96 3b f7 98 18 3f
       0.81130254 0.62029815 0.0046068113 0.59608406
0003b0 8d bb 3e 3e 7d c9 87 3b 58 60 6f 3e 96 1d 38 bf
       0.18626232 0.0041438923 0.23376596 -0.71920145
0003c0 c7 cd ee be 8b 87 30 3f 76 29 7d be c0 d3 15 3f
       -0.4664137 0.6895682 -0.24722847 0.5852623
0003d0 9a 64 6c 3f 60 9b 93 3f 99 48 4a 3e 12 71 ab bd
       0.92341006 1.1531792 0.19754256 -0.08371176
0003e0 44 3f b1 3f ce ca ca 3c 19 ea 13 3f fd ff 1e bf
       1.3847432 0.024754908 0.5777908 -0.6210936
0003f0 92 8e 77 3d e4 c3 f1 bd c1 51 35 3f 1c 94 1f bf
       0.0604387 -0.11804941 0.7082787 -0.6233537

net.2.weight f4 [256, 256]
000000 34 e4 e8 3d cb 82 72 3e 4d 53 1b be ea dc d8 bd
       0.11371651 0.23682706 -0.15168495 -0.10589011
000010 fb b3 25 3f e1 df 45 be bc e5 4c bf b0 9a 20 be
       0.64727753 -0.19323684 -0.80038047 -0.15684009
000020 a6 9e bf be b9 88 78 3e 5d f2 83 be 65 6c ce 3e
       -0.37425727 0.24270906 -0.25770846 0.40317073
000030 7a d5 57 be 5f b3 d1 bd 5c fb c5 bd d1 68 10 bf
       -0.21077529 -0.102392904 -0.096670836 -0.5640994
000040 6f 17 6c be 19 7b c2 be 27 b8 8c 3d 98 0e d8 3e
       -0.23055814 -0.3798454 0.06871062 0.42198634
000050 c6 59 4f be ef 0c 5c 3e 6f 7d 58 3e a1 08 aa 3d
       -0.2024909 0.21489309 0.21141599 0.08302427
000060 fd 8d 96 be 3e 0e 15 3d 06 6e ef be 51 74 17 be
       -0.29405203 0.036390536 -0.4676363 -0.14790465
000070 68 21 53 be fc 79 34 be ca b6 27 3f 55 aa c2 be
       -0.20618212 -0.17624658 0.6551329 -0.38020578
000080 06 23 1b bf 42 e6 86 3e dd 88 48 be cd c0 64 3e
       -0.60600317 0.26347548 -0.19583459 0.22339173
000090 86 03 55 be 12 fc 60 be d1 af 00 3d 40 d1 a5 3d
       -0.20802125 -0.21971157 0.03141767 0.08096552
0000a0 23 0f fe bd 8d 29 44 3c cf 1d 27 3d a3 d1 a2 bd
       -0.12405231 0.011972797 0.040799912 -0.07950141
0000b0 72 3a c6 3c fe 4f e7 bd 11 09 34 3e d5 81 bd bd
       0.02419779 -0.11294554 0.17581584 -0.09253279
0000c0 7a 43 9c be 13 21 13 3f 48 81 34 be 50 94 ea be
       -0.3052023 0.5747234 -0.17627442 -0.45816278
0000d0 41 99 37 3c d0 a8 f5 be db 25 0a be 2a a1 e0 bd
       0.011205972 -0.47980356 -0.13491003 -0.109682396
0000e0 15 7e 43 be bd e2 05 bc 56 7a c2 3e 64 7e 60 be
       -0.19091065 -0.008171734 0.3798396 -0.21923214
0000f0 05 1e d2 be d8 71 40 3e 9d 16 0b 3c fe 47 9f 3e
       -0.41038528 0.18793428 0.008489278 0.31109613
000100 59 57 3c be 73 fd 2c 3d 54 34 e6 3c c3 12 fa be
       -0.18392695 0.042233896 0.028101124 -0.4884244
000110 9e 81 21 be 6b 0a 53 3e ab 74 4b 3e 1d 8d 44 3c
       -0.15772101 0.20609443 0.19868724 0.011996535
000120 e4 e6 e2 3c 26 4b cd be d1 4c e8 3d 1c 00 31 be
       0.027697988 -0.40096396 0.113427766 -0.17285198
000130 7c a3 25 3d 2a 44 20 3e 73 f3 a5 be cd 67 67 be
       0.040439114 0.15651003 -0.324123 -0.2259819
000140 0c 19 69 3d 59 c6 80 be ea 4c bb bd d1 fa 3f 3e
       0.056908652 -0.25151327 -0.091455296 0.18748023
000150 23 ad fc 3e bc 25 39 3d 18 bf c6 bc 71 de 7d be
       0.49350843 0.045202002 -0.024261042 -0.24791886
000160 d4 b2 20 be 1a 55 9c 3e 2f 5c 79 be bc 07 2b 3e
       -0.15693218 0.30533677 -0.24351572 0.16702169
000170 56 b7 02 bf d7 63 91 be 0d b6 34 3e 28 32 0b bf
       -0.51061 -0.28396484 0.17647572 -0.5437341
000180 7d 3c 2b 3d 25 c3 86 3e e6 9b 61 3e a7 02 80 be
       0.041805733 0.26320758 0.22032127 -0.25002024
000190 67 85 ca be 40 d4 4a 3e 2d 68 ce 3e f0 4d 30 bd
       -0.39554903 0.1980753 0.40313855 -0.043043077
0001a0 91 68 6e 3d 1c 45 34 3f f7 40 8b be 06 b9 55 3d
       0.05820519 0.7041795 -0.27198002 0.052178405
0001b0 25 c8 5e be 5c b9 96 bd fe f2 03 3e 52 8d 4a bd
       -0.21756037 -0.07359573 0.12885663 -0.04945118
0001c0 ef 09 1f 3f 15 28 6d 3e cd 7d eb be c8 97 8c 3e
       0.6212453 0.23159821 -0.45994416 0.2745955
0001d0 c3 5e fe be fe 02 ca be 77 8b 85 bd 91 da db 3d
       -0.49681672 -0.39455408 -0.065207414 0.107350476
0001e0 dc 21 a9 be 46 b3 b3 be 9a a4 62 3a c7 76 51 be
       -0.33033645 -0.35097712 0.00086457434 -0.20455466
0001f0 14 04 20 bd ff 04 57 3d 17 f7 81 3e b1 8b b6 3e
       -0.03906639 0.052495 0.25383827 0.3565345
000200 ca 3a 47 bf 26 36 6c be 32 9a 85 3e d6 0e a0 be
       -0.7782408 -0.23067531 0.26094204 -0.3126132
000210 c9 0b bb 3d 35 98 e2 3d 8d d2 d2 3c a7 c3 0e 3d
       0.09133107 0.110641874 0.025735164 0.034854557
000220 44 3c 24 be 1c 7f c2 3b 0d 82 b8 3e 3c e7 f5 bc
       -0.16038615 0.005935563 0.3603672 -0.030017488
000230 8f f7 29 3e 5f a2 7d be a3 66 d8 3e 66 de 2d be
       0.16598342 -0.24768971 0.42265806 -0.1697937
000240 f0 a0 5c be 72 b5 07 3d a5 8c b7 3e 50 4f 46 be
       -0.21545768 0.033132024 0.3584949 -0.19366193
000250 28 35 c8 bd 9d 0a 0a 3e 96 84 52 be ed 8d 93 3e
       -0.09775764 0.13480611 -0.2055839 0.28819218
000260 b5 f5 e7 3d 1d ce 0d bf b0 fb 5b bc 30 03 54 be
       0.11326162 -0.5539263 -0.013426706 -0.20704341
000270 86 7f 0e 3e ec 72 c1 be a8 0c f3 3d 17 66 c3 3d
       0.13915834 -0.3778299 0.11867648 0.095409565
000280 94 27 17 3d 5c 2e 05 3d 11 d2 4b 3e 9b 96 12 be
       0.03690298 0.032514915 0.19904353 -0.14315264
000290 52 25 aa be 7b 97 02 be db 6a 7d 3e 15 84 7b bf
       -0.33231598 -0.12753098 0.24747793 -0.98248416
0002a0 14 b3 64 bf ab 50 61 3d b0 26 f3 be 43 a7 96 be
       -0.8933575 0.05500857 -0.47490454 -0.29424486
0002b0 74 47 e9 bc a2 af db bd de 1f 9b 3e 8a 90 30 3c
       -0.028476454 -0.10726859 0.3029775 0.010776648
0002c0 75 98 d8 3e e7 5e ee 3b b1 5c b8 3e 16 d8 1c 3d
       0.42303815 0.007274497 0.36008218 0.038292013
0002d0 f1 05 9d bd de 81 89 bd 66 b0 c9 be 60 8d ad 3e
       -0.07667149 -0.06714223 -0.39392394 0.33896923
0002e0 5b 8b f4 bd 3f ff a1 be ca 5c 23 be b0 af 86 3e
       -0.119406424 -0.3164005 -0.15953365 0.26305914
0002f0 49 0b a7 bd 00 48 a8 be 7e 10 0b be d7 c5 6a be
       -0.08156449 -0.32867432 -0.1358051 -0.22927032
000300 21 0d 97 3e 06 37 11 be 94 7c 40 3e f7 2d 0d 3e
       0.29502204 -0.14181146 0.18797523 0.13787065
000310 36 29 2e bf b9 e3 ad be 8c 99 13 3e a6 66 70 3e
       -0.6803163 -0.339628 0.14414042 0.23476657
000320 39 aa 01 bf c7 7e 92 be 22 80 ea 3e d7 80 0f bd
       -0.50650364 -0.28612348 0.45800883 -0.03503498
000330 e2 b5 b1 be 3e 46 17 3d 6e 95 0f bc e0 1b d4 3e
       -0.34709078 0.036932223 -0.008763654 0.41427517
000340 a4 7f 73 be 2c 29 c6 bd 0a 15 b7 bd 9e 35 d0 be
       -0.2377916 -0.09675822 -0.0893956 -0.40665907
000350 6e ab 1a 3e 0a 09 cb 3d a8 d2 01 3c 69 bf b5 3e
       0.15104458 0.099138334 0.0079237595 0.35497597
000360 f4 2c 2f be 93 11 d8 be 1c 19 97 bc 32 7c c9 be
       -0.17106992 -0.42200908 -0.01844459 -0.39352566
000370 71 3b 9d be 53 0f 25 be fa 6b df 3e 13 e6 8b bd
       -0.30709413 -0.16119127 0.43637067 -0.068309925
000380 9a d7 7d 3e af 1c c4 bd 6d c2 24 bf d5 07 53 3d
       0.24789277 -0.095757835 -0.6435917 0.05152114
000390 ab 48 18 be df 56 4e bc 55 a2 23 be 9b 9f 0c be
       -0.1487147 -0.012593954 -0.15979894 -0.1373276
0003a0 e4 43 91 be f6 87 f7 3e 98 57 85 3e 9d ae 52 be
       -0.2837211 0.48345917 0.2604339 -0.20574422
0003b0 af c5 0b 3e e7 1a 1a bf 66 f6 bd be 71 e4 47 bd
       0.13649629 -0.601973 -0.3710205 -0.048801843
0003c0 be df 14 3e a3 50 28 be 3e 01 bd be c3 46 9f be
       0.14538476 -0.1643701 -0.3691501 -0.31108674
0003d0 8d 9b 0f 3e ee 2a 70 3e b2 e4 d6 bd 68 79 02 3e
       0.14024182 0.23453876 -0.10492839 0.12741625
0003e0 89 42 38 3d d2 a8 14 bd 65 cd c9 3e b7 d4 96 be
       0.044985328 -0.036293812 0.39414516 -0.29459164
0003f0 7d fa 04 be 9f 20 29 bf e0 2c e1 3c 41 e2 4a be
       -0.12986179 -0.660654 0.027487218 -0.19812872

net.2.bias f4 [256]
000000 97 7b 94 be fb b8 03 bf 00 f0 ea 3e d2 b9 bd 3e
       -0.29000542 -0.5145413 0.4588623 0.37055832
000010 0d 64 10 3f ba 76 e6 be fd 2f c1 bb fd 75 b6 bd
       0.56402665 -0.45012456 -0.005895613 -0.08909223
000020 2a 61 a6 be a0 d6 84 3a f1 cb b4 bd 4b ed 7b bd
       -0.32496005 0.0010134764 -0.08827961 -0.061505597
000030 f1 89 a6 be ac b9 fb bd 03 bc 0c bf 83 c5 08 3e
       -0.32527116 -0.122912735 -0.54974383 0.13356595
000040 96 65 26 3e e8 ec 5d 3e fe 44 b1 bd 1e e2 8e be
       0.1624969 0.21672404 -0.08655737 -0.2790689
000050 ce ae 8b bd 21 af e0 3e c6 18 07 bf 42 38 8b 3d
       -0.06820451 0.43883613 -0.52772176 0.0679784
000060 e0 ad ce bd ff 40 f0 3d bc b7 a3 3e 69 80 4b bc
       -0.10091758 0.11731147 0.31976116 -0.012420752
000070 77 58 53 3d ae 4e 5b be 0a 7c a4 bc 0a f5 df 3d
       0.05159804 -0.21416733 -0.020078678 0.10935409
000080 27 cf 22 3d 58 ec af be ce 71 c8 bd 35 c3 78 bf
       0.039748337 -0.34360003 -0.097873315 -0.9717286
000090 8a d6 f5 bd 49 dc f2 be 56 53 89 3d c1 7b 26 be
       -0.12003811 -0.4743369 0.06705348 -0.16258146
0000a0 b3 a4 07 bf 00 05 4f bf 4c 6f b8 be 10 46 a2 be
       -0.52985686 -0.80867004 -0.36022413 -0.31694078
0000b0 da 44 ea bc c3 67 1a 3f 00 c8 77 be bf bb 99 be
       -0.028597284 0.6031458 -0.24197388 -0.3002605
0000c0 80 2e 7d be b7 1c ee be 4d 54 1f 3d 5d 26 b0 bd
       -0.2472477 -0.46506283 0.038898755 -0.08601067
0000d0 6e d5 ca bd e6 9f 02 be 4f 07 28 3f ff d5 2b bf
       -0.0990399 -0.12756309 0.6563615 -0.6712341
0000e0 11 fa ed bc 5f a8 26 be 6e 3d 8a bc 05 10 80 3f
       -0.029049905 -0.16275166 -0.016874995 1.0004889
0000f0 7a 55 09 bf 30 06 27 3f 1f 3d e0 3c 3d 05 84 be
       -0.5364605 0.65243816 0.027372895 -0.25785246
000100 4b 1c 27 bf c0 6f c3 bd 1d bb 85 be 65 4c 26 be
       -0.65277547 -0.09542799 -0.2611932 -0.1624008
000110 69 6e b7 3b 1c ca e1 be eb 4d ca bd 53 12 03 3f
       0.0055978787 -0.4409951 -0.09878143 0.51199836
000120 02 e3 1c 3e 65 53 0b be 26 cc cd bd cc 2d 18 3f
       0.15320972 -0.13606031 -0.10048704 0.5944488
000130 29 73 2b be d6 72 61 be 85 f8 a5 3e ee ac c2 3b
       -0.16743149 -0.22016463 0.32416168 0.005941025
000140 4c 72 e8 3e 2f c5 39 bf fc b2 f6 bd 3a 55 14 3e
       0.45399702 -0.72566503 -0.12045857 0.14485636
000150 9c 14 ec 3e 48 23 92 be d8 44 15 bf 81 ba de 3c
       0.46109474 -0.28542542 -0.5830817 0.027188541
000160 3b 5b dd bd 9d 1f d2 be c5 4f d9 3e 0d 2d d5 bd
       -0.108084165 -0.41039744 0.42443672 -0.104089834
000170 c3 19 0a be e8 42 87 bd bd b7 44 bd 52 a6 ab bd
       -0.1348639 -0.06604558 -0.04802679 -0.083813325
000180 1b 79 21 bf 4c a2 f0 bd c6 a8 37 3e b2 14 46 3f
       -0.6307542 -0.11749706 0.17935476 0.7737533
000190 46 f6 1c be 2f f4 02 3e a2 0f 68 bc 12 82 55 3e
       -0.15328321 0.12788461 -0.014163883 0.20850399
0001a0 58 8f 9d 3e 07 05 3d 3e 9a ca f2 3e cc fe a2 be
       0.30773425 0.18458949 0.47420198 -0.3183502
0001b0 21 b8 11 3d c1 f8 97 be b5 af 32 3d d4 4b 0d bd
       0.03557599 -0.29681972 0.0436246 -0.034496143
0001c0 59 f8 3e bf a9 1d 57 3f fb 14 56 3e 51 82 37 3f
       -0.745977 0.8402963 0.20906441 0.7168322
0001d0 bb ae 7f 3e c2 03 bc be b3 4b 02 be c5 31 40 be
       0.24968998 -0.36721617 -0.1272419 -0.18768986
0001e0 09 ab a2 bc 26 5f 47 3e a6 75 c2 be 51 7d f8 3e
       -0.019856947 0.1946989 -0.37980384 0.4853311
0001f0 6d 2e 05 bf 0c 47 11 bf 4a a8 07 be 27 0a 89 be
       -0.52023965 -0.56749034 -0.13247791 -0.26765558
000200 76 54 e9 bd a4 39 86 3d 75 64 7c 3f 62 f4 7f 3e
       -0.11393063 0.06553963 0.98590785 0.24995568
000210 e5 7b 0b be c3 20 1c 3f 89 01 3d 3f 23 37 c9 3e
       -0.13621481 0.6098749 0.7383047 0.39299878
000220 8b 91 07 3f 78 b5 ea be ae ad c9 be 3e b6 5b be
       0.52956456 -0.45841575 -0.3939032 -0.21456239
000230 4f 68 23 bf 14 ad c2 be 5a 49 2e 3d db a6 4c bd
       -0.6383104 -0.38022673 0.042550422 -0.049963813
000240 93 dc 62 3e ef c4 58 bd 29 0e 5f 3e 66 ac 7d 3f
       0.22154455 -0.052922186 0.21782745 0.99091184
000250 6a 27 0c bf 64 d7 b7 bc 01 7b 1c 3c 2a e0 2f bf
       -0.5474764 -0.022441573 0.009550811 -0.6870142
000260 74 fd 1c 3c 2d f8 cc bd 73 88 bd be 11 c2 a6 3e
       0.009581912 -0.10008273 -0.37018165 0.32569936
000270 25 b3 05 bd ab 27 0c bf ba 8d f3 be c9 45 ba be
       -0.03264155 -0.5474803 -0.47569066 -0.36381367
000280 d7 64 9f be 03 e0 4a bf 25 3b b7 be b1 5b d9 be
       -0.31131622 -0.79248065 -0.3578731 -0.42452767
000290 f0 cd 47 3e f9 96 6e bf fd b7 5a bd 48 e4 29 3f
       0.19512153 -0.93199116 -0.05339812 0.66363955
0002a0 cf f9 cb bd 1a 20 d1 3e e5 f5 e5 bd 8b 80 2d be
       -0.099597566 0.40844804 -0.11228541 -0.16943567
0002b0 47 37 3b bf 53 a1 74 bd 32 94 32 3f b6 fc e7 3e
       -0.7313122 -0.059724163 0.6975738 0.4530999
0002c0 dc d5 4d 3e 6c 61 48 3e 89 62 7a 3d 14 72 3b 3e
       0.20101112 0.19568413 0.061129127 0.18305236
0002d0 e9 8f 0a be 62 20 46 bd af 4b 07 3f d1 7a 0d bf
       -0.1353146 -0.048370726 0.5284986 -0.5526553
0002e0 4a 52 71 3e f8 2c 54 3f 4f ad ff bd 9b 83 e7 bd
       0.23566547 0.82881117 -0.12484228 -0.113043986
0002f0 69 5a 92 be 69 23 d2 bd d8 04 e6 be bd 39 ce be
       -0.28584602 -0.1026066 -0.4492557 -0.40278426
000300 8b 06 9f be 1f 64 0d bf 0e 11 06 3e ca b6 01 be
       -0.3105968 -0.552309 0.13092443 -0.12667385
000310 97 59 0d bf 00 18 c3 be 60 a4 35 3f 3d ea 2d bd
       -0.5521483 -0.38104248 0.7095394 -0.042459715
000320 ed ee b0 be f5 b5 fd bd dc cd 8b be 2d 50 09 3f
       -0.34557286 -0.12388221 -0.27305496 0.53637964
000330 32 39 1f bf 56 ee 27 be 47 ff 0e 3f 61 96 9d be
       -0.6219665 -0.16399512 0.5585827 -0.30778793
000340 27 80 ae be b1 f9 65 be 31 29 b7 be 47 ef 83 be
       -0.34082147 -0.22458531 -0.35773614 -0.25768492
000350 bd e9 b9 3e 6a 76 93 be 78 ef d3 bd 0f 2c 65 be
       0.3631114 -0.2880128 -0.103484094 -0.22380088
000360 74 7d 46 3e af 96 ec bd 55 6d 78 be 6f 91 d1 bd
       0.19383794 -0.11552178 -0.24260457 -0.102328174
000370 6d e7 f1 bd 1b e3 b3 3e a4 37 cc bc 10 28 3c 3e
       -0.11811719 0.35134205 -0.024928875 0.18374658
000380 0f 01 ab 3e e8 44 8b 3e 38 7c 9c bd 54 98 24 3f
       0.33399245 0.2720101 -0.0764088 0.64294934
000390 1a 50 57 3e c8 b4 7a 3e 0a be e9 3e 63 17 47 3e
       0.2102665 0.24483025 0.456528 0.19442515
0003a0 ab 31 95 be c1 2f 7e 3d d3 7d c6 3e 21 d3 d4 bd
       -0.29139456 0.06205726 0.3876787 -0.10391832
0003b0 0e bc 62 be 6a fe 44 3e 44 b4 e9 be 0c 36 0f be
       -0.2214205 0.19237676 -0.45645344 -0.13985461
0003c0 26 03 67 3e ea de 42 bd c4 c4 24 3e 9f 9c 97 3e
       0.22559795 -0.04757587 0.16090685 0.2961168
0003d0 21 70 93 bd 86 3e 02 bd e9 a7 97 bc 03 78 48 3d
       -0.07199121 -0.03179791 -0.018512683 0.048942577
0003e0 82 92 ac be 84 91 2c 3e 7e 67 7e bd 7e 6b b1 be
       -0.33705527 0.16852385 -0.062110417 -0.34652323
0003f0 25 e8 57 bf 01 ef fa 3e aa 22 0e 3c 2a f2 3a 3e
       -0.843386 0.4901047 0.008675257 0.18256441

net.4.weight f4 [4, 256]
000000 8b 32 aa 3d 81 db 39 be 4e ec ce be 4b c0 17 be
       0.083104216 -0.1815014 -0.4041466 -0.14819448
000010 8b 42 72 3e ee ad 31 bd 3d ea c0 3d 3c 90 1b be
       0.23658197 -0.043378763 0.094196774 -0.1519174
000020 eb ad 5d bd d8 92 5f be b0 e7 6a bc 7c a4 28 3a
       -0.05412094 -0.2183336 -0.014337465 0.00064332015
000030 04 ca 64 3d 80 cc cc bb 2d 6a 21 bb ac a4 ce be
       0.05585672 -0.0062499642 -0.0024629936 -0.4036001
000040 e8 e4 0a be 83 90 b5 bd fd ea 0b 3e ae 0f 83 3d
       -0.13563883 -0.08865454 0.1366386 0.06399475
000050 40 85 1c bd da 38 5c be f7 11 47 be 1d e8 6c be
       -0.038213015 -0.21506062 -0.19440447 -0.23135419
000060 55 47 33 3b 92 df d4 be 14 4e 12 bc cf a7 d6 be
       0.002735575 -0.4157682 -0.008929748 -0.41924903
000070 aa 6b 7d bd 48 7c d3 be c1 eb 02 be 28 36 d6 be
       -0.061870255 -0.41305757 -0.12785245 -0.41838193
000080 44 21 93 3d 16 01 2d bf c8 ed 08 be b9 69 67 be
       0.07184079 -0.6757978 -0.13371956 -0.22598924
000090 e2 e4 13 3d d6 76 c4 3d 98 1d 02 3e cf 6f 1d be
       0.03610695 0.09592979 0.12706602 -0.15374683
0000a0 12 ee 43 be 22 7e 00 3e 45 44 cc bd 26 b0 ec 3d
       -0.19133785 0.12548116 -0.09973959 0.11557035
0000b0 b2 d9 fb 3d 7c bb 7b 3e 8a 8f 7d 3e 10 5e 4a 3d
       0.122973815 0.24583238 0.24761787 0.04940611
0000c0 16 a6 8c be be 39 e4 3d 15 fc b6 bc 46 c0 0c bf
       -0.27470464 0.11143826 -0.022336999 -0.54980886
0000d0 04 74 61 3e 41 f6 1d bf c3 6a 4c bd 6a 23 79 be
       0.22016913 -0.6170388 -0.049906503 -0.24329916
0000e0 21 00 70 3e a6 20 99 bc 33 d8 99 be df ee 86 3e
       0.23437549 -0.018692326 -0.3004776 0.2635412
0000f0 4a 13 85 3e 6b b8 96 be 64 ec fa 3d 54 1c 64 be
       0.2599128 -0.29437575 0.12252119 -0.22276431
000100 b0 57 60 be 91 cf 77 3d a7 34 44 3e 87 0b 0e 3d
       -0.2190845 0.060500685 0.1916071 0.034678962
000110 7f d0 a7 3d 79 4c 28 3e 80 4b 09 3e 9f b6 4f be
       0.08194064 0.16435422 0.13407707 -0.20284508
000120 8a 65 61 3d 11 b1 5d be 69 44 c1 3d 15 8e 09 be
       0.055028476 -0.21649577 0.09436876 -0.13433106
000130 71 1d 86 3e 93 26 30 be 9b 6c 07 3d 9f b5 33 be
       0.26194337 -0.17202215 0.03306256 -0.17549752
000140 97 ce 86 3d ac cb 93 be 7c 68 5b 3e d2 93 ac 3e
       0.06582373 -0.28866327 0.21426576 0.33706528
000150 b0 b8 94 bd ec 59 0b 3d 57 c7 9e be d5 04 9e be
       -0.07261789 0.034021303 -0.3101146 -0.30863062
000160 86 07 84 3e 34 db b1 bc 1e 95 08 bf 5b 6e 44 bc
       0.2578699 -0.02171097 -0.53352535 -0.011989201
000170 6a 50 88 3c 24 a0 78 bc 7a bb 82 3d 0f 21 bd 3d
       0.016639907 -0.015174899 0.063834146 0.09234821
000180 72 fc 3c bd b2 b7 2b 3d f5 b6 d4 3c e3 2a 08 be
       -0.046139188 0.041923232 0.025966147 -0.1329761
000190 04 e4 0b be 7a 9e 6a bf 8b a1 5f 3d 82 62 3e 3e
       -0.136612 -0.91648066 0.05459742 0.18592265
0001a0 75 fd e2 bd e9 c5 2b 3e 2b 08 13 be e0 c1 d2 3d
       -0.11083499 0.16774715 -0.14358585 0.10290885
0001b0 fc ae 0a 3d cd 8f 36 be 14 e8 8c be 94 4c fb 3d
       0.033858284 -0.17828293 -0.27520812 0.122704655
0001c0 47 64 9c be 8c f8 dc 3c 12 bc 27 3e b5 cf 90 3d
       -0.30545256 0.026973985 0.16380337 0.07070867
0001d0 15 d4 92 be 76 f9 24 3c 30 9a a2 3b fb ec 79 3e
       -0.2867743 0.010069242 0.0049622282 0.24406807
0001e0 32 cd 83 3c 82 75 a5 bd 67 fb 05 bd 27 aa 86 bd
       0.016089056 -0.080790535 -0.03271046 -0.06575423
0001f0 5a 72 49 3e de 3d c7 be cf ee 56 3d 86 f7 9b ba
       0.19672528 -0.38914388 0.05247384 -0.0011899329
000200 bf 57 27 3b 4e 39 90 3c 91 36 bb bd fc af 10 be
       0.0025534478 0.01760545 -0.09141267 -0.14129633
000210 c7 0f b3 3d 8d df 1f be 2b fa ee bb 5f bc 91 3e
       0.08743244 -0.15612622 -0.007293006 0.28464028
000220 b9 b5 15 bd ee 16 88 bd 46 0d d2 3e cf a8 11 bd
       -0.036550257 -0.066449985 0.41025752 -0.03556138
000230 81 6b 88 3e 08 38 a8 3e 4d fe 88 3d 59 b3 49 be
       0.2664452 0.32855248 0.06689129 -0.19697322
000240 d8 44 a6 3b 65 14 20 bd 15 98 f6 bc 8a b0 54 be
       0.005074125 -0.03908195 -0.030101815 -0.2077047
000250 fa dd 72 3d d6 fc 19 3d 59 9a b8 3e 01 0e a5 3e
       0.059293725 0.03759464 0.36055258 0.32237247
000260 55 4f 23 bf 38 68 df 3e 18 8d e8 bd aa f9 54 be
       -0.63792926 0.436342 -0.113550365 -0.20798364
000270 ef 53 82 bd a4 fb 67 3d f1 84 9b 3d 8d 42 9a 3d
       -0.06363665 0.056636468 0.07593716 0.07532225
000280 c9 b7 78 be 71 34 31 3d 2f d2 e2 3c 59 10 81 be
       -0.24288858 0.043262903 0.027688114 -0.25207785
000290 57 bb 91 bb 16 77 55 bf ad 0e b6 bb f0 a4 ec bd
       -0.0044473815 -0.83384836 -0.0055559487 -0.11554897
0002a0 ed 4b 32 3d c4 6a b2 bd 6b e9 27 be 14 49 97 3a
       0.04352944 -0.0871177 -0.16397636 0.0011542165
0002b0 24 bf 60 bf 4d e4 04 be 88 0c c3 bd cc 7a e9 3d
       -0.8779166 -0.12977715 -0.095238745 0.11400375
0002c0 52 22 06 3e 7f ee e7 3d 34 af 5f be 00 02 c1 be
       0.1309903 0.113247864 -0.21844178 -0.37696838
0002d0 85 58 43 3e f8 9c 14 3e 81 fc bb 3d 50 86 35 3d
       0.19076736 0.14513004 0.09179021 0.044317544
0002e0 6f f5 e2 b9 a2 83 e1 3d cf a7 59 bd 73 e5 09 3c
       -0.0004328894 0.11011435 -0.05313855 0.008416521
0002f0 9b 86 1d 3e bd 96 e2 3d 71 c9 84 3d 76 da 5f be
       0.15383379 0.11063907 0.064837344 -0.2186068
000300 15 a5 9d bc 2a 76 77 3d b4 a3 a7 3d 22 f3 29 3e
       -0.019243756 0.060415424 0.08185521 0.16596654
000310 f4 7b c2 bf e3 7f e9 be 7c 66 2e 3d c0 a6 ea bc
       -1.5194077 -0.45605382 0.042578205 -0.028643966
000320 69 b5 06 3d 90 15 16 3e b6 31 51 3d c1 c2 4b 3e
       0.03288785 0.14656663 0.0510728 0.19898511
000330 c9 7c 33 be 30 a5 26 3e ef 07 04 3e 1e 4a 3a be
       -0.1752807 0.16273952 0.12893651 -0.18192336
000340 e6 87 3a 3e e6 ff 42 be 61 e1 80 3d e1 54 97 be
       0.18215904 -0.1904293 0.062929876 -0.29556945
000350 02 66 24 3e 13 39 70 3d c2 13 50 bd bd 02 6b be
       0.16054538 0.05864818 -0.050800093 -0.22950263
000360 1c 43 f7 bd c4 bd 88 3c b0 11 07 3d 41 71 f9 bc
       -0.12073347 0.01669205 0.032975852 -0.030449511
000370 4f db ec 3d 99 c2 f2 3d cb a1 d8 bd 2c 9c 68 3e
       0.11565267 0.11853523 -0.105777346 0.22715825
000380 8d 7f 55 bd d8 f8 a3 3d 12 0b 08 3c 96 e8 43 3e
       -0.052123595 0.080064476 0.008303421 0.19131693
000390 16 ac 95 3d 58 56 96 3d af 56 fc bd 41 00 28 bf
       0.073082134 0.073406875 -0.12321221 -0.6562539
0003a0 9f 7f 31 3d e2 60 db bd a4 33 d1 3c 2c 16 29 bd
       0.0433346 -0.10711838 0.02553732 -0.04128091
0003b0 9d 91 e6 3d a0 26 bd bd 42 2a 2c 3e fc 27 9e 3d
       0.11258242 -0.09235883 0.16812995 0.0772247
0003c0 89 26 28 be 88 5f 61 be 3d 4e 1e 3c 28 a6 61 3e
       -0.1642095 -0.22009099 0.009662208 0.2203604
0003d0 ea 1d 4a 3d b6 f6 22 be 7a c4 e4 3d d3 79 6b be
       0.049344935 -0.15914425 0.111702874 -0.22995691
0003e0 35 6e aa 3d 2c 7c 48 3e 4b a5 a9 bd 69 6b 88 bd
       0.083218016 0.19578618 -0.0828348 -0.06661112
0003f0 ac be 2d 3d c3 f6 d8 bc c3 9b 08 3e 3a 07 02 bc
       0.042418167 -0.026484853 0.13340668 -0.007936293

net.4.bias f4 [4]
000000 5f 81 c2 39 fb da 2a 3d c9 a9 51 3d f2 6a ac bd
       0.00037098952 0.041712742 0.05118731 -0.08418836
