Game/best_model.pth (torch, 287092 bytes, 6 tensors)

net.0.weight f4 [256, 16]
000000 5f 44 6c be 89 ae b5 3e 3a 17 40 bf ee 1c 10 bf
       -0.23072957 0.35484722 -0.7503544 -0.56294143
000010 6b 45 d4 be 93 59 c5 3d eb c3 0a 3e 55 52 af be
       -0.41459212 0.096362256 0.135513 -0.34242502
000020 9f a6 b7 3d e8 42 ba 3d 6a 66 99 bc c5 d4 37 3e
       0.08967327 0.090947926 -0.018725593 0.17952259
000030 46 ec 78 3d b3 c8 95 bb b0 56 12 3b 84 9a fd 3d
       0.060772203 -0.0045710444 0.0022329502 0.12382987
000040 bd ad 9d be 38 d3 4b bf c9 c4 8d 3d 6f 23 82 3e
       -0.30796614 -0.7961917 0.069222994 0.2541766
000050 f6 56 bd bd 9c 16 85 be e2 db 61 3a fa f6 4c 3d
       -0.09245102 -0.25993812 0.0008615834 0.050040223
000060 07 0d 38 bd 23 b7 be 3e e3 8b 09 3c dd c7 28 be
       -0.0449343 0.37249097 0.008395168 -0.16482492
000070 6a 7f cd bd 41 c3 3c bd b5 13 60 bd 14 b4 13 be
       -0.10034068 -0.046084646 -0.054706294 -0.14424163
000080 4b 9e b1 3e 42 d8 b4 bc 71 71 70 3d 7e b8 14 3e
       0.3469108 -0.022075776 0.058701936 0.14523503
000090 6d 0b d0 bf 53 a9 60 bd d2 7d 99 3b 09 46 8a bd
       -1.6253487 -0.05484898 0.0046841884 -0.067516394
0000a0 fb f3 0d 3f 10 e9 63 3d 34 e7 f8 3c fe 97 15 bd
       0.5545041 0.055642188 0.030383684 -0.036521904
0000b0 ee 3f ad 3d 2a df d0 3c 2d 4a 3c 3d 9b 40 14 3d
       0.08459459 0.025497038 0.045969177 0.036194425
0000c0 dd 30 34 3e fc 16 cc be a6 cd 37 be 30 f8 83 bf
       0.17596765 -0.39861286 -0.17949542 -1.0310116
0000d0 27 6f 82 3d 89 ef 6f bd 98 4c 0f 3e a2 f9 2e 3d
       0.06368857 -0.058578048 0.13994062 0.042718537
0000e0 26 b5 9e 3e b0 c6 ca be 3b 09 44 be 50 f4 f0 3d
       0.3099758 -0.39604712 -0.19144146 0.11765349
0000f0 2d 14 35 bf 84 96 85 3e 30 45 05 3e 2d ef a1 3d
       -0.7073391 0.26091397 0.13014674 0.07906947
000100 a2 4b 88 3d 44 24 6f 3a 7e b1 88 3b cb a2 bd 3d
       0.06655051 0.00091225305 0.0041715493 0.09259566
000110 3c 4a d9 3d df 5b 35 bc c2 a9 d4 3c 13 39 aa 3d
       0.10609862 -0.011069267 0.025959853 0.08311667
000120 04 c8 4b c0 30 62 ce bc c1 4b 79 3d 41 14 10 be
       -3.184083 -0.025193304 0.06086326 -0.14070226
000130 ba 86 c0 3d 18 ad f6 3d bc be aa be 3c b5 68 bf
       0.09400697 0.12044734 -0.33348644 -0.9090154
000140 e6 50 99 bd 35 38 b4 3e a5 29 8d be fd 20 18 c0
       -0.07486133 0.35199133 -0.27570835 -2.3770134
000150 66 ec af 3d ec 94 c5 be 89 7a 44 be 08 77 91 be
       0.08590011 -0.3859018 -0.19187368 -0.28411126
000160 27 15 f9 be a0 9d 9c 3b 99 8f ca 3b 6e 7e bc 3e
       -0.4864895 0.0047795326 0.006181669 0.36815208
000170 d7 55 d0 3c c1 68 40 3e b8 46 80 3c fe 20 5a bd
       0.025431557 0.1878996 0.015658721 -0.05325412
000180 21 76 9d 3d ea 7b 82 3e 7f be 00 bc 9d 4f 9a bf
       0.07688547 0.25485164 -0.007857918 -1.2055546
000190 ef 00 ee bb 6a fa 98 bd ff fa 8a be 93 57 99 3e
       -0.007263295 -0.07469638 -0.2714462 0.29949626
0001a0 3f cb 95 3d fb b1 69 3c 81 ef 14 3d c5 6c 0c 3d
       0.07314157 0.014263625 0.03636122 0.03428342
0001b0 6e a4 1f 3e 74 d7 b9 be e6 0a 23 be 4e 99 f8 bd
       0.15590069 -0.3629719 -0.15922126 -0.121386155
0001c0 81 76 b9 3d ce fc 8f bf 0d 6f cc 3e 55 c2 8b bd
       0.09055806 -1.1249025 0.39928475 -0.06824175
0001d0 be 93 23 3e 4c 5c 55 3e 52 1c ef bc 0b 71 99 be
       0.15974328 0.2083599 -0.029188309 -0.29969057
0001e0 a8 54 73 bd ff 4f 3b 3e a3 5e 82 be 20 69 b7 be
       -0.059406906 0.18292235 -0.25462827 -0.35822392
0001f0 0d 7b a1 3d 4c bc 0e be 2e 27 dc bd b9 aa 16 bf
       0.07884798 -0.13939017 -0.107496604 -0.5885425
000200 8a 10 86 be 09 e7 c0 3a 28 9f 93 bf a6 16 aa bb
       -0.26184493 0.0014717291 -1.1532946 -0.005190688
000210 0a 55 66 3e 39 ad e0 3d a9 83 3a 3e 81 c2 60 3e
       0.22493377 0.109705396 0.18214287 0.21949197
000220 d6 0d 2b bd 1b 47 8a 3c b3 88 0c be c0 1e cf 3d
       -0.04176124 0.016879609 -0.13724022 0.10113287
000230 2f 20 aa be 5e f0 8a be 74 28 8b 3e 37 cd 21 bd
       -0.3322768 -0.2713651 0.271793 -0.03950235
000240 cf ed 65 bd dc 88 6b bf 77 bb de 3c 01 a9 13 3e
       -0.056134995 -0.92005706 0.027189 0.14419939
000250 9e cb f3 bc 11 dc 19 3f a9 8c d3 bd 8f 76 48 be
       -0.029760178 0.6010142 -0.10329563 -0.19576477
000260 bd 23 11 3d bb 33 24 3d 6d 42 e5 38 49 93 b2 bc
       0.035434473 0.040088397 0.00010931944 -0.021798747
000270 49 da 2b bd 7c c9 8f 3d 87 14 79 be 17 98 fb bd
       -0.04195622 0.07020852 -0.24324237 -0.12284868
000280 8d 41 6f 3d 99 2d 99 3d a2 7b 1b 3e 2c 75 10 3d
       0.058412123 0.074794 0.15183881 0.035267994
000290 41 4f 16 bf 73 52 3a bf 2f 40 b0 bc 40 43 a1 3d
       -0.5871468 -0.7278206 -0.02151498 0.07874155
0002a0 b9 d4 d5 3e e0 0a 09 c0 16 d9 b1 be e2 df c3 3c
       0.41763857 -2.1412888 -0.34735936 0.023910467
0002b0 e4 07 78 bf c2 09 8d bc 95 c8 0b c0 b3 76 85 3d
       -0.9688704 -0.017216567 -2.1841176 0.06516781
0002c0 dd 15 a6 be 6e ec 92 3d c9 cd 4a 3d 74 8f b0 3d
       -0.32438555 0.07174002 0.04951266 0.086211115
0002d0 fc 36 a2 3d ca 17 98 bb f8 bc 3b bc c2 de 23 3c
       0.07920644 -0.0046415078 -0.011458628 0.01000184
0002e0 42 8e d4 be c3 33 01 3f 99 2b 53 bd 49 7c 15 be
       -0.41514784 0.5046961 -0.05155525 -0.14598192
0002f0 d5 2a ee 3d ce b2 a8 bf a1 34 4c 3c 37 1a dd 3d
       0.11629263 -1.3179567 0.01246372 0.10796016
000300 9d d8 fb be 28 36 4e be b3 69 04 bf 64 8c 06 3e
       -0.491887 -0.20137846 -0.51723784 0.13139492
000310 b0 4a 19 be 87 3d 92 be 60 3f d6 be 98 4d 50 be
       -0.14969897 -0.28562567 -0.41845226 -0.203421
000320 d8 bb da bc 39 9b 49 be ff 6f 2f 3e 74 2e d1 bf
       -0.026700899 -0.19688119 0.17132567 -1.6342301
000330 bc 1e 20 3e dc fb 83 3e 49 6f 3e 3d 3d a6 52 3d
       0.15636724 0.2577809 0.04649285 0.05142807
000340 7b 23 99 bf 15 55 95 3d 4f 09 87 3d b0 62 35 c0
       -1.1963953 0.07291619 0.06593572 -2.8341484
000350 cc 13 17 bf dc 25 ad bd a5 bc c6 3d bf 52 79 bf
       -0.5901458 -0.08454487 0.0970395 -0.97391886
000360 3a 3c e8 3d bd c2 b9 3d 6c 67 a0 3d af d2 8e 3d
       0.11339612 0.090703465 0.07832226 0.069737785
000370 f6 55 bf 3c 1d ef dc 3c fd 71 ee 3d dd 54 5d 3d
       0.023356419 0.026969487 0.11642835 0.05403601
000380 3d 6f 56 bf c4 73 87 3f 38 a9 69 bf 0e e4 32 bb
       -0.83763486 1.0582204 -0.9127383 -0.0027296576
000390 65 b5 8e 3b f9 0a 77 bd f1 21 0f 3d 11 cf 8f 3c
       0.00435512 -0.0603132 0.03494448 0.017554792
0003a0 93 3e 59 bc 88 13 e9 bc 9f 18 da 3c cf 2f 77 3c
       -0.013259548 -0.028451696 0.026623068 0.015087082
0003b0 75 ec 6e 3c 94 a3 38 bd 13 e6 02 bd d4 39 d8 bc
       0.014582743 -0.045077875 -0.031957697 -0.026394762
0003c0 a4 b7 03 3d 97 56 d4 bb dc 50 1e bd c7 1c b7 3d
       0.032157555 -0.006480049 -0.038651332 0.08941036
0003d0 0b 28 b3 bc d3 a6 04 bc ff 4f 22 3d 27 30 1c 3d
       -0.02186968 -0.008096415 0.03962707 0.03813186
0003e0 00 bb ee bc 58 43 39 bd a0 17 2f 3d 04 98 b6 3e
       -0.029141903 -0.04523024 0.04274714 0.35662854
0003f0 5b 87 48 3d c4 43 6d ba 60 f6 68 3f 50 cb 06 c0
       0.04895721 -0.00090509304 0.9100094 -2.1061592

net.0.bias f4 [256]
000000 86 c0 cc be 13 26 a0 bd 92 4e 96 be eb 47 e9 bc
       -0.39990634 -0.07819762 -0.2935682 -0.028476676
000010 98 eb 58 3f 4b 07 25 3e 3e 52 bc 3d ee cb b1 3b
       0.8473449 0.16116063 0.09195374 0.0054259216
000020 87 ca 24 be 90 d7 2a be ab 11 0c 3f 46 c1 28 be
       -0.16092883 -0.16683793 0.5471446 -0.16479978
000030 f5 b7 89 bd 79 ba 0e 3e e8 24 6a 3e 5c 21 4a be
       -0.0672454 0.13938321 0.22865641 -0.19739288
000040 25 34 28 3e 20 a0 d1 bd 26 ef a3 bd 1d 8e 7a be
       0.16426142 -0.102356195 -0.08004598 -0.24468274
000050 51 c2 89 3e df b1 cf 3e 6c 3f 34 3f b0 29 03 bf
       0.26906064 0.40565392 0.70409274 -0.51235485
000060 7d b7 df bd 10 ba d2 3e a6 5a a0 3e b4 7b ea bd
       -0.109236695 0.4115758 0.3131916 -0.11449376
000070 75 76 9a be ac 1e 7b be 0b 3e e3 3e 0a df 28 be
       -0.301685 -0.24523419 0.44383273 -0.16491333
000080 ab 24 fe be 5f 3c 81 be 2e 0d 2b 3f 2d 96 54 3f
       -0.4963735 -0.25241372 0.66816986 0.8304165
000090 9d 12 5c be ac 4c 1b bf e0 be 5d 3e 53 b1 37 bc
       -0.21491475 -0.60663867 0.21654844 -0.011211711
0000a0 7e 34 0e 3f 7c 06 cd be 32 74 bd bd 47 78 8c 3c
       0.55548847 -0.4004401 -0.09250678 0.017147196
0000b0 86 33 03 3e 46 9e 91 3f 74 4d f8 3e c2 c3 72 bf
       0.12812623 1.1376426 0.48496592 -0.9482995
0000c0 a0 1d 2d bd cf 5f 9e 3e f9 d4 6c be 04 0f a4 3e
       -0.04226458 0.3093247 -0.23128118 0.32042706
0000d0 70 cb 7c be 8b c8 46 3d 17 a4 a7 3e d5 58 0b be
       -0.2468698 0.048531096 0.32742378 -0.13608105
0000e0 f7 de 26 3f 10 96 a6 bf ee 81 26 3f 68 56 d0 3e
       0.6518397 -1.3014545 0.65042007 0.40690923
0000f0 f9 7c a8 3e 51 5b a1 3b d0 96 b1 be ca 28 59 3e
       0.32907847 0.004924216 -0.34685373 0.21206966
000100 bd 2c 96 be 2f 9e ec be c8 3e 9e 3e ff cd fa be
       -0.29331008 -0.46214435 0.30907273 -0.48985288
000110 a8 94 ef 3e d4 de f5 3e ed bd 25 3f 26 dc 3c bb
       0.46793103 0.48021567 0.6474293 -0.0028817742
000120 80 63 a8 be 3c d7 9e be 37 da 56 be 9f 32 8c 3e
       -0.32888412 -0.31023586 -0.2098168 0.2738237
000130 b7 9a fc bd c7 09 53 be 58 13 05 3f 83 18 21 3d
       -0.12334197 -0.20609199 0.5198264 0.039330017
000140 b2 06 a5 3e 3c 95 24 bf 8a 95 42 be 50 d3 4d bd
       0.3223167 -0.64290214 -0.19002357 -0.05025035
000150 15 61 f4 3d ad 60 31 bf cd c5 03 bf 3d 4f 27 3f
       0.119325794 -0.6928814 -0.51473695 0.65355283
000160 b8 82 2d bf 65 0c 86 3e 0b c9 bf be 06 54 9b 3f
       -0.67777586 0.2618133 -0.3745807 1.2135017
000170 9d 15 8d 3c 3e bf c0 3d 5e 29 98 be e6 93 5d 3f
       0.01722222 0.094114766 -0.2971906 0.865538
000180 84 bf da be 30 ef 42 3d 4f 8d 6e 3e ea 47 96 3e
       -0.4272424 0.04759139 0.23296092 0.2935174
000190 42 fe 0e 3f b2 b3 97 3e cc cc 2a bf c3 d9 43 3f
       0.55856717 0.29629284 -0.66718745 0.76504153
0001a0 b3 cb 50 3e 41 f4 48 be fb b3 09 be 33 fe 82 3f
       0.20390205 -0.19624425 -0.13447563 1.0233825
0001b0 61 61 65 3e 55 83 e2 3e 81 ea 75 3f 59 05 a9 3e
       0.22400428 0.44240823 0.9606095 0.33011892
0001c0 57 7b 0e 3e 79 c3 3d bf 78 cb 96 3e 48 9a 4c 3f
       0.13914238 -0.7412639 0.2945211 0.79922915
0001d0 e0 db 3c 3d 7f 57 f3 bc eb db 89 be d5 7c 54 bf
       0.046108127 -0.029704807 -0.26925597 -0.8300298
0001e0 32 d9 4e 3c 8f 98 d2 3e 9f 93 78 bf e2 0e 40 3f
       0.012625026 0.41132018 -0.9710025 0.7502271
0001f0 ca b1 de 3d 64 5e 1f 3e aa 38 94 3f a3 53 08 bf
       0.10873754 0.15563351 1.1579792 -0.5325262
000200 22 0e cc be bc c5 68 be 8e aa 30 be de 1f 4f 3e
       -0.39854532 -0.2273168 -0.17252561 0.20227
000210 b2 da 2f be 32 2c 7d 3c e0 1d cd be d3 b6 a4 bd
       -0.1717327 0.0154524315 -0.40061855 -0.080426835
000220 93 2d d5 be 16 78 65 3e d8 f0 de bd ce 71 ec be
       -0.41636333 0.2240909 -0.10885781 -0.46180576
000230 2e ce a9 be f6 b9 ff 3e 1c d7 ae be a2 e9 ea 3c
       -0.33165115 0.49946564 -0.3414849 0.028675858
000240 7d a6 5f be f3 5f 58 bd 8f 37 13 3f 04 d9 f1 3e
       -0.21840854 -0.05282588 0.5750665 0.47235882
000250 75 87 3e 3e 8b 73 a8 bf 19 fc b8 3d a8 48 28 be
       0.1860636 -1.3160261 0.09032459 -0.16433966
000260 1a 0f c7 3e 63 09 09 3f 93 b2 63 be 8f 2e 5d 3e
       0.3887871 0.5352995 -0.2223609 0.21599792
000270 50 42 da be e2 9d be 3e 48 94 e3 3c d0 2d 11 3f
       -0.42628717 0.3722983 0.027780667 0.5671053
000280 24 57 0f bf 79 91 e2 be 15 ae d9 be 3b 57 c8 3d
       -0.5599234 -0.44251612 -0.42515627 0.09782263
000290 a2 79 84 3e b3 03 60 bd 72 3a 17 bf e0 42 ee bb
       0.25874048 -0.054691028 -0.59073555 -0.0072711557
0002a0 9c b2 e8 be 40 4e fc 3d 7e 40 93 be c2 a7 86 be
       -0.45448768 0.123196125 -0.2876014 -0.26299864
0002b0 26 60 3a 3d 48 dd 1f 3f 5f eb 2e 3f 1c 48 ed bd
       0.04550185 0.62447023 0.683279 -0.115860194
0002c0 27 80 82 3f b7 86 97 3f 84 3b 0a bf 17 b0 9e be
       1.0195359 1.1837987 -0.53997064 -0.3099372
0002d0 27 79 8f be eb cb 4f 3c cf 63 a7 3e 51 a6 4c 3e
       -0.2802212 0.012682895 0.32693335 0.1998532
0002e0 5e 19 a1 3d 24 86 e3 3e a6 77 14 3f 47 af 97 be
       0.078661665 0.4443828 0.5799507 -0.29625914
0002f0 14 57 d5 be a4 ff 31 3f 21 2f 96 3c 8b 1d 35 be
       -0.41667998 0.695307 0.01833302 -0.17687051
000300 ff c4 ab 3c 02 b8 49 3f 92 da 6c 3e ae af c7 3e
       0.020967958 0.787964 0.23130253 0.3900122
000310 70 ed 36 3f 91 33 cb 3e 50 0e 3e bf 3f 29 39 be
       0.7145605 0.3968778 -0.7424059 -0.1808214
000320 5b 09 e8 3e 51 1e 18 bc 27 9d 07 bc 48 4f 38 3e
       0.45319638 -0.009284572 -0.008277214 0.17998993
000330 86 e1 41 3f 92 74 55 3f 36 67 42 3f e6 13 0e be
       0.75734746 0.83381 0.7593874 -0.13874778
000340 d7 95 c0 be ca 37 66 be f7 13 be 3e 1b 70 9a bd
       -0.3761432 -0.2248222 0.37124607 -0.07540914
000350 1d a2 98 3e 34 f7 00 be 64 cb 9b 3c bb 40 80 be
       0.29811183 -0.125943 0.019017883 -0.25049385
000360 39 9f df bd fc a3 dd be a5 a7 98 3d 63 26 d0 bd
       -0.10919041 -0.43289173 0.07453851 -0.10163572
000370 42 92 00 3e 50 fc 51 3c 41 45 ef 3c 27 02 66 3e
       0.12555793 0.012816504 0.029207828 0.22461759
000380 b6 e2 11 3f b3 16 d2 3e 64 6c bc 3e da 7d c0 3f
       0.5698656 0.41032943 0.36801445 1.5038407
000390 01 66 70 bf 04 e8 1a be d1 2e fa 3e 6f e7 de 3e
       -0.93905646 -0.1512757 0.48863843 0.43535945
0003a0 8d a3 01 3f 95 4e 2c bd 2b 78 fd 3e b8 93 a9 be
       0.50640184 -0.04206713 0.49505743 -0.33120513
0003b0 6b 5e 95 3f 7d 88 41 3d e2 32 d4 bd 83 2c 9f 3f
       1.1669439 0.047249306 -0.103612676 1.2435459
0003c0 52 aa 79 be 5a 5c cb 3c 6b 7f 23 3f 0d 9b 86 3f
       -0.24381378 0.02482431 0.638663 1.0516068
0003d0 54 21 18 3d 14 8d 0d bd e5 45 38 3e d7 17 69 39
       0.03714116 -0.03455837 0.17995413 0.00022229493
0003e0 0d cb 8f be 49 2e bf 3d 53 84 cd bc 37 56 dc 3e
       -0.28084603 0.09335 -0.025087511 0.43034527
0003f0 99 ce 33 3f 68 5d 21 3f c4 71 1e be 67 67 dc 3d
       0.7023712 0.6303315 -0.15473086 0.1076191

net.2.weight f4 [256, 256]
000000 e0 86 a7 be df a5 2a 3e 30 cb 30 3d b7 85 7a be
       -0.3272009 0.16664837 0.043162525 -0.2446507
000010 07 78 95 3e 66 4a 9f be af 12 78 bd 66 f8 5c be
       0.29193136 -0.3111145 -0.060564693 -0.21579131
000020 e2 9e cd be a9 80 ac bd b4 51 ec bc a6 3c 6d be
       -0.4016028 -0.084229775 -0.028847553 -0.23167667
000030 bd f7 01 bf 80 41 af bd 26 19 61 3e b0 48 f2 be
       -0.50768644 -0.08557415 0.2198225 -0.4732108
000040 a6 34 81 bf 9c 7e 9d be 63 35 e2 3d 68 fa 19 be
       -1.0094192 -0.30760658 0.11045339 -0.15036929
000050 57 21 18 be f5 2b 8d bd dc 15 07 be 2d ab 95 3e
       -0.14856468 -0.0689315 -0.13191932 0.2923216
000060 17 0f 9a be 79 0e 60 be 11 f4 0e be d6 6f 2b 3e
       -0.30089638 -0.21880521 -0.13960291 0.16741881
000070 79 5f 30 bb 05 a2 66 3d cf 21 8e bc 01 70 63 bd
       -0.0026912375 0.056306858 -0.017350106 -0.055526737
000080 83 62 a5 bd cf 35 04 bf 45 92 59 3d e0 82 39 3e
       -0.0807543 -0.51644605 0.05311801 0.18116331
000090 b6 d8 0a 3d 65 d5 46 be 13 eb 71 3d 64 9f e4 be
       0.033898078 -0.19417341 0.059062075 -0.44652855
0000a0 6a 91 2b be bd c7 51 be f3 34 88 bd a5 fd 02 3e
       -0.1675469 -0.2048635 -0.06650724 0.1279207
0000b0 44 94 e0 bd 29 3b 22 3e 1f 93 39 3d 24 98 0a be
       -0.109657794 0.1584288 0.04530632 -0.135346
0000c0 9a 92 a1 bd 75 a8 e7 3a 66 44 62 be 5c 91 38 bf
       -0.0788929 0.0017674105 -0.22096404 -0.720968
0000d0 28 04 07 be 91 8d d7 3e 40 5d 09 be 00 27 83 be
       -0.13185179 0.42100194 -0.13414478 -0.25615692
0000e0 81 b7 86 be 01 55 b4 be 2e ee 15 bf c7 53 5d 3e
       -0.26311877 -0.35221103 -0.5856656 0.2161399
0000f0 ab 06 70 3e 7d 25 40 3e a6 b9 fd 3d d1 40 83 be
       0.23440044 0.187643 0.12388925 -0.25635388
000100 dc f3 86 3e 0a f3 8a bb 21 0d 6e bd 82 1e c6 be
       0.26357925 -0.0042403983 -0.05811799 -0.3869515
000110 5f 98 8e be ac 0a e6 3d 02 f1 a7 3e ea d9 66 bf
       -0.27850625 0.11232504 0.32801062 -0.9017626
000120 0b f0 46 3d 3c 4d 52 be 43 cc f2 be df 78 53 be
       0.048568767 -0.20537275 -0.47421464 -0.20651577
000130 83 d2 9c bd c2 a0 31 be 1a 27 1a bd 23 8c e8 bc
       -0.076573394 -0.1734648 -0.037634946 -0.028387135
000140 a5 41 18 3e 7d 92 c3 3d f5 bc be bd ab a6 4a bc
       0.14868791 0.09549425 -0.093133844 -0.012368838
000150 ca 48 83 3e 74 f6 3c 3f 61 ee c1 be ea 92 87 be
       0.2564147 0.7381356 -0.3787718 -0.26479274
000160 d3 d1 96 3d 91 06 cf be 60 09 6c be 39 c0 6a bd
       0.073642395 -0.40434697 -0.23050451 -0.057312224
000170 13 3d b7 bd 7f 18 e6 3e 21 eb 88 be 22 75 db bc
       -0.08947196 0.44940564 -0.2674189 -0.026789252
000180 bc d4 d6 bd 95 05 d6 3e 43 ec b2 bd 1a 57 0d bf
       -0.104897946 0.41801134 -0.087364696 -0.5521103
000190 b4 19 c8 3e 3d 1d 2e 3e 22 b7 4f be 4f d2 60 bf
       0.3908211 0.17003341 -0.20284703 -0.87820905
0001a0 82 9f 2d 3e 07 4d bd 3e 2f 7e b5 bd 64 78 56 3e
       0.16955379 0.3697283 -0.08861958 0.20944363
0001b0 d5 85 17 bd 34 da 35 bd 00 2c f2 be fd 11 22 be
       -0.036992867 -0.044397548 -0.47299194 -0.15827174
0001c0 d8 bc 96 3e a8 48 c6 bd 02 1f 84 bd 09 0b 25 bf
       0.2944095 -0.09681827 -0.06451227 -0.64469963
0001d0 dd 18 fa 3c 96 d8 e0 3d e7 d3 e4 3d 27 3a 86 be
       0.030529434 0.109788105 0.1117323 -0.26216242
0001e0 d8 5d cf 3e be 7f 96 be 39 08 bc 3b 6e 05 ae bd
       0.40501285 -0.29394335 0.005738285 -0.084971294
0001f0 45 63 ca bd db 61 84 bd 06 76 14 bf cd 2f 44 3d
       -0.098822154 -0.06463977 -0.5799259 0.04789715
000200 86 3e 3b 3b da 05 82 3e 8b d4 0f 3d dd 41 e2 3c
       0.0028571202 0.2539509 0.035114806 0.027619297
000210 1b 16 cb be d8 b6 08 be 4c ec a3 be ae 95 41 3e
       -0.39665303 -0.13351 -0.32016218 0.18904755
000220 08 f2 46 3d 7f e7 56 3e c2 68 6a 3e 5a 70 84 bd
       0.048570663 0.20986746 0.22891524 -0.06466742
000230 2a a1 b6 bb 3b 40 5b 3e 4c b0 8b be b5 70 b3 be
       -0.0055734115 0.2141122 -0.2728294 -0.35046926
000240 39 22 c7 3d de 57 a5 be 3e 8e c9 3d 17 81 e9 be
       0.09723324 -0.322936 0.09841584 -0.456063
000250 9b 15 99 be a3 63 13 be b2 48 3c be 71 8e 1e 3d
       -0.29899296 -0.14393477 -0.18387106 0.03871006
000260 31 5c 80 3e 45 eb 09 bd 29 09 8a 3e 22 61 98 be
       0.25070336 -0.033671636 0.26960114 -0.29761606
000270 9b bf c8 3d 3e 3c 53 3e 97 88 ea 3e 7b f0 77 3e
       0.09802171 0.2062845 0.45807335 0.2421283
000280 b3 0f 98 3d 73 02 ee be c8 69 0e be 66 0c 8b bd
       0.074248694 -0.46486244 -0.1390754 -0.06789474
000290 66 86 9d 3d 63 76 65 be 33 93 93 be 3c bd 79 be
       0.0769165 -0.22408442 -0.28823242 -0.24388593
0002a0 00 ae 1b 3e 3b 81 6d 3e df d9 70 3e 8d 07 c2 3c
       0.15203094 0.23193829 0.23520611 0.023685241
0002b0 f7 34 0c be 8d 2f 3c 3e d4 5e 80 3e 11 bf 01 bd
       -0.1369208 0.18377514 0.25072348 -0.031676356
0002c0 02 d4 05 3e f1 2b f0 3d 94 fc 08 bc 8c 38 3c bf
       0.13069156 0.11727131 -0.008361001 -0.73523784
0002d0 a5 bf ac be bd ea e5 3d dc a1 da bd 32 37 c0 be
       -0.33739963 0.112264134 -0.106754035 -0.3754211
0002e0 a9 86 df bd ba 9e cb 3d 6e 1d 75 be 05 62 24 3e
       -0.10914356 0.09942384 -0.23937008 0.16053016
0002f0 e6 8a 0e 3d f2 9c a6 be ef a3 5e 3e e4 c9 cd be
       0.034800433 -0.32541615 0.21742223 -0.40193093
000300 87 35 5f bd 21 91 0b be f8 2c 97 3d c5 bc d5 3e
       -0.054494407 -0.13629581 0.07381624 0.41745582
000310 95 ca 72 3e a2 11 ad 3e d7 1c 94 be 53 de 03 bf
       0.23710091 0.33802515 -0.28928253 -0.51511115
000320 e2 7e 0e be 9e cf 07 bf b4 82 4b bd 3a 73 03 be
       -0.1391559 -0.53051174 -0.049685195 -0.12836924
000330 0d ae 6f be cc 75 11 be 61 1c ec 3e ed bd cd bd
       -0.23406239 -0.14205092 0.461154 -0.10045991
000340 ff bf 0d be c4 11 38 3e 51 3d 04 3d 26 79 3d 3f
       -0.13842772 0.17975527 0.03228504 0.7401298
000350 0c 32 f3 3d 71 5f 19 be 2b 6b df bd ac b9 89 be
       0.1187478 -0.14977814 -0.109091125 -0.2689947
000360 25 ad 07 bf 68 1a de 3b 2d b1 07 3e 64 ff 7a bf
       -0.5299857 0.00677805 0.13251181 -0.98045945
000370 97 cb 45 3d 97 f2 08 3f 44 83 95 bc ad b1 48 bf
       0.04828986 0.5349516 -0.018251069 -0.7839611
000380 1e 03 86 be b6 d3 31 bf a1 69 a8 3c ae d2 8f be
       -0.26174253 -0.6946367 0.02055818 -0.28090423
000390 29 67 1b be f9 d9 16 bd c9 f7 bf be 21 be 65 3e
       -0.15176071 -0.03682897 -0.37493733 0.2243581
0003a0 fc a1 0c be be 5d 5d be f6 86 68 be fa b2 68 bf
       -0.13733667 -0.21617791 -0.22707734 -0.90898097
0003b0 ed bc dd 3e 52 af 65 bf 99 4c 02 3e d0 e6 2f 3e
       0.433082 -0.8972064 0.12724532 0.17177892
0003c0 95 ec 8f 3d ce 49 92 3d db fe 3d 3e 3d 80 e3 bd
       0.07027546 0.071429834 0.18554251 -0.11108444
0003d0 c5 a2 13 3e 3b 6d b8 be 79 f5 7a bc ef 86 be 3d
       0.1441756 -0.36020836 -0.015317314 0.0930308
0003e0 ca 07 0b bd 9f 71 06 be a4 03 8e be 0f d5 4a 3e
       -0.033942975 -0.1312928 -0.27737153 0.19807838
0003f0 de 16 20 3f f6 d2 38 3d 91 40 19 be e5 ab a5 3e
       0.6253489 0.045123063 -0.14966036 0.32357708

net.2.bias f4 [256]
000000 e7 3a 10 bd 8d 6f cd bd b6 2c b9 3d 29 4d 79 3d
       -0.035212424 -0.10031042 0.09041731 0.0608646
000010 61 b7 a1 be c0 6d 1f 3e 33 18 ac 3e ee 1c 24 3f
       -0.3158522 0.1556921 0.33612213 0.64106643
000020 f4 d6 c2 be f0 6e 89 3e 32 78 9f 3d 50 09 ca 3e
       -0.3805462 0.2684245 0.07786597 0.3946023
000030 e3 76 09 bd 37 0e 4b 3d de b6 05 bf 3b 78 cb bd
       -0.033560645 0.049574103 -0.5223216 -0.099350415
000040 1e 1a a7 be c6 b6 52 3d d5 4a 88 3e 32 b3 93 be
       -0.32637113 0.051443838 0.26619592 -0.28847653
000050 d9 fe f4 bd 27 df f0 bd 77 aa ab bc 17 9b c0 3e
       -0.11962671 -0.11761313 -0.020955307 0.37618324
000060 d0 2d 05 3e 0e de 0f 3e 79 47 06 bf 64 9b ed 3d
       0.13005757 0.14049551 -0.5245281 0.11601904
000070 e2 5d b5 be 0a 87 ca 3e 6e 72 18 bb 34 9c 2d 3f
       -0.3542319 0.39556152 -0.0023261565 0.6781647
000080 ce 48 f4 bd 9e b7 0e bd 3a 08 e6 3e ad c9 e8 bd
       -0.11927949 -0.03484308 0.4492815 -0.113665916
000090 15 d5 ed bd ce 81 28 be 7a d0 e9 3c fb e9 42 be
       -0.11612908 -0.16455767 0.028541792 -0.19034569
0000a0 cb c7 09 3e 9a 80 94 3d 0f 85 a8 bd 89 88 c6 bd
       0.13455121 0.07251091 -0.08228504 -0.09694011
0000b0 41 2d c1 bd bd 88 a5 3e 4f ed 25 bf 33 71 c1 bc
       -0.094324596 0.32330886 -0.6481523 -0.023613548
0000c0 35 31 84 be 5e 68 48 be c9 87 a3 3c 5d f0 93 be
       -0.25818792 -0.19571063 0.019962208 -0.2889432
0000d0 0e b4 19 bf a8 7d 9e 3e 8b a4 bf be 6c 65 ec bd
       -0.60040367 0.30955243 -0.37430224 -0.11542782
0000e0 5c 39 f1 be da ae 90 be bc cd 16 be 0d f4 22 bd
       -0.47114074 -0.282584 -0.14726919 -0.039783526
0000f0 8e ca 24 3e 7d d3 1d 3c b3 56 b4 3e db 62 60 3d
       0.16092893 0.009632942 0.35222396 0.054781776
000100 39 df fe bc ab 04 ca bd 5e 8e 07 bf 12 19 ce 3e
       -0.0311123 -0.098641716 -0.5295161 0.40253502
000110 74 b7 41 be a3 c5 43 3e 82 16 f2 3b 05 a5 6a bd
       -0.18917638 0.19118361 0.007387937 -0.05728628
000120 19 3f 7b 3e e3 04 b9 bd aa 22 97 3e cc f1 0b 3d
       0.24535789 -0.09034135 0.29518634 0.034166142
000130 f4 92 f7 3e 07 66 08 be 36 81 be 3d 6f a9 e2 bc
       0.48354304 -0.1332017 0.09301989 -0.027668683
000140 f3 41 81 3e ff e7 64 3f 8b e1 f5 3d 58 bc a7 be
       0.25245628 0.894165 0.120059095 -0.32760882
000150 4a 89 09 be 10 91 c3 bc df 0b 7a 3e 08 15 9d be
       -0.13431278 -0.023872882 0.24418591 -0.30680108
000160 ff 54 79 3c 73 13 8f bd b8 c1 37 3e fc dd 03 3c
       0.015218019 -0.069861315 0.17944992 0.008048531
000170 76 3d 3e bd 38 a8 6b 3e 68 5c 01 3e d3 d8 0b 3e
       -0.046445332 0.23013389 0.12632906 0.1365693
000180 dd 96 d7 3c d2 f3 2c be 2b 72 94 3d 25 06 06 3f
       0.026317054 -0.16889885 0.07248338 0.52353126
000190 d8 c6 51 bd 10 e1 a7 be 7b 66 28 be 17 fc 4c be
       -0.051215023 -0.32788897 -0.16445343 -0.2001804
0001a0 97 ee 57 bd ed e7 af be e8 b7 5a be f9 54 09 3e
       -0.05271777 -0.34356633 -0.21359217 0.13411321
0001b0 3f 10 1b be 8a 7b 0f 3f 39 15 75 be eb 4a 1d bd
       -0.15142916 0.5604788 -0.23933877 -0.038401525
0001c0 99 f6 85 bd f8 c5 d3 bd be 82 19 3e 60 d2 33 3e
       -0.065411754 -0.10340494 0.1499128 0.1756072
0001d0 29 d1 2d 3e 35 0b aa be d1 8a ee be 18 a5 36 3e
       0.1697432 -0.33211675 -0.46590284 0.17836416
0001e0 01 84 91 be 79 db 7d 3e dc f4 98 be 5e cb 99 be
       -0.28421023 0.24790753 -0.29874313 -0.3003797
0001f0 b6 cc 3e 3e 95 d6 d5 3d 0a 8b 45 3f f8 e0 c1 3d
       0.18632779 0.10441319 0.7716528 0.094667375
000200 16 5e 92 3e fc c3 ec bd 6d 0a 21 3c 72 a6 83 3c
       0.28587407 -0.115608186 0.009829146 0.016070578
000210 8c 42 94 3e 30 02 f9 be 90 2b 9c be 7e 6f 51 be
       0.2895702 -0.4863448 -0.30501986 -0.20452687
000220 32 c6 5d bf 49 36 70 3e e8 fb b9 3b 27 07 18 be
       -0.8663055 0.23458208 0.0056757815 -0.14846478
000230 62 8a 9e 3e 11 c8 72 bd 30 fe 3c bd 9e c3 a6 be
       0.30964953 -0.05927283 -0.04614085 -0.3257112
000240 f9 9f bf bc 22 63 4c bf 47 dd d6 3e 31 f9 54 3e
       -0.02339171 -0.79838765 0.41965696 0.20798184
000250 23 11 29 bf bb 66 c0 3d fd f5 d1 3d 69 18 51 3e
       -0.66041774 0.09394594 0.10251997 0.20419468
000260 ee 27 cb 3e d4 69 60 3d ec 0d 07 be 0c 1f 81 be
       0.396789 0.054788426 -0.13188905 -0.25219
000270 83 30 f4 bd 14 de 87 be 3e 93 15 3e 0a 95 69 bd
       -0.119233154 -0.2653662 0.1460695 -0.0570269
000280 0c 81 c7 bd 44 7d 99 3e a4 05 d1 bc 0b 83 98 3e
       -0.097414106 0.29978383 -0.025515385 0.29787478
000290 d2 1b 45 be ef b5 a7 3d 95 00 07 be 88 20 07 3f
       -0.19248894 0.08188998 -0.13183816 0.52784014
0002a0 cb fe a3 bd c4 17 e3 3e 95 a3 da bb 77 8d 90 be
       -0.08007582 0.4435407 -0.0066723325 -0.2823293
0002b0 97 fe 04 3f 62 58 1a 3f 8b 42 da 3e 41 3a ca bd
       0.51950973 0.6029111 0.42628893 -0.09874392
0002c0 3d 1a f9 3e b5 4e c4 3e 88 27 8e bd fe 49 3a 3d
       0.4865283 0.383413 -0.06941134 0.04548072
0002d0 77 d4 f6 bd fe 2c a1 3e 0a 8d 70 be 86 11 04 bf
       -0.12052243 0.3147964 -0.23491302 -0.5158924
0002e0 4d ce 25 bd 22 01 fe be 20 e1 3c bc d6 d7 4f be
       -0.040479947 -0.4961024 -0.011528283 -0.20297179
0002f0 41 14 ab 3e a0 89 0a bf 59 76 d1 3e 5d 9a 89 3d
       0.3341389 -0.5411625 0.40910605 0.067188956
000300 e8 fc c8 be 84 5c 05 be 9f 84 7b bc 7c 82 44 3e
       -0.39255452 -0.13023573 -0.015351444 0.19190401
000310 ce d0 fc be 83 5f 85 be 36 44 c3 bc a0 9c 27 be
       -0.49378055 -0.26049432 -0.023836236 -0.16368341
000320 33 8e ec 3d 7f cd a1 3d a4 a3 1c 3e 96 21 fd 3d
       0.1155056 0.079005234 0.15296799 0.12359922
000330 9b 94 bb bd c5 52 38 3e 08 5e d7 be ea 9d e4 be
       -0.091592036 0.18000324 -0.42063928 -0.4465173
000340 4f a6 07 3e 92 dc 30 be d7 00 45 3f 13 56 1b be
       0.13247035 -0.17271641 0.76954406 -0.15169553
000350 3f e1 ef bd 5e 9b d6 3c 3f 61 69 3d 57 71 03 3d
       -0.11712884 0.026197132 0.056977507 0.03209051
000360 ed 93 64 be e0 63 73 3e 30 53 52 3c a7 46 f6 3d
       -0.22322054 0.23768568 0.012837216 0.120251946
000370 fc 6e 6c 3e f0 ea 60 be c2 2c be 3e 54 22 98 3b
       0.23089212 -0.21964622 0.37143523 0.004642764
000380 68 ac b1 be 74 df 0d be 71 29 d2 bd c4 07 a9 be
       -0.34701848 -0.13854772 -0.102618106 -0.33013737
000390 8a 2a 9d 3e ad 58 ea bc 89 78 0f be bf d3 d5 bd
       0.30696517 -0.028606737 -0.14010824 -0.10440778
0003a0 21 db b1 3e b5 39 66 be d8 21 36 be 8f 7a 71 be
       0.34737495 -0.22482951 -0.17786348 -0.23581909
0003b0 37 96 88 be ac 3d 44 3d c9 6f d7 bd 6e 4b 03 be
       -0.26677105 0.047910377 -0.10519368 -0.12821743
0003c0 2a 75 4e bd d5 b1 38 3e 36 40 6c be f2 e4 d2 bc
       -0.050404705 0.18036588 -0.2307137 -0.025743935
0003d0 2b 18 77 bd 34 86 a3 3e 72 92 78 bd 89 33 bb be
       -0.060325783 0.31938326 -0.060686536 -0.36562756
0003e0 81 41 4e be 4b b8 77 be 1a 8d 05 bf a6 e8 8b be
       -0.20142175 -0.24191396 -0.5216843 -0.27325934
0003f0 6d 4a d3 be 79 bb b5 be 69 4c 30 bd ae fb 13 3f
       -0.4126772 -0.35494593 -0.04304162 0.5780591

net.4.weight f4 [4, 256]
000000 08 72 e7 bd 88 27 df 3d ae 50 5c 3d d8 df 28 3d
       -0.113010466 0.10896212 0.05378788 0.0412291
000010 6a 7a e4 3c 54 98 80 be bb fa fb be d1 06 d7 bd
       0.027890403 -0.25116217 -0.4921473 -0.10499347
000020 a5 21 80 3d c5 a2 8a 3e fb f2 29 bf 9a 76 21 bd
       0.06256417 0.27077308 -0.66386384 -0.039419748
000030 32 90 07 3e c0 46 7c 3e 8a d7 b8 bd 3e 83 06 3c
       0.132386 0.24636364 -0.09025486 0.0082100015
000040 48 57 88 3d cf d4 5d 3d 5e b8 01 3d ce 7f 47 3e
       0.066572726 0.05415803 0.031669967 0.19482347
000050 50 34 4f 3e 2e c9 4e 3d 54 04 b7 39 21 ef cc bd
       0.202348 0.05048483 0.00034907705 -0.10006548
000060 c9 24 ea 3c 97 3d 7c 3b 50 0f 81 be 49 89 89 3e
       0.028581994 0.003848886 -0.25206995 0.26862553
000070 19 fc 7c 3d 42 b9 e7 3a ba cf 1e 3e 19 cc 3f be
       0.061763857 0.0017679112 0.15508929 -0.18730201
000080 64 18 64 be f6 82 a2 3e 1b c7 b1 3d 1e d7 69 3e
       -0.2227493 0.3174054 0.086805545 0.22835967
000090 9d 19 34 bd b3 56 00 bd e6 f4 1b bd f0 a0 12 be
       -0.04396974 -0.031332683 -0.03807535 -0.14319205
0000a0 74 25 1a 3c 40 5e ee bd 84 34 af bb 9a 15 1d 3d
       0.009408344 -0.116390705 -0.0053468365 0.03835068
0000b0 f5 ce 32 be ae d5 2a 3d ff e0 4d 3d cc c7 03 3e
       -0.1746176 0.041707687 0.0502634 0.12869185
0000c0 0f 14 49 3e 6d 9d 92 be 38 03 8b be 4c 46 81 bd
       0.19636558 -0.2863573 -0.27150893 -0.06312236
0000d0 a0 b4 0d bd aa 83 15 be cb 22 c5 3e 9a 98 54 bc
       -0.034596086 -0.14601007 0.38503107 -0.012975836
0000e0 d6 90 26 be ec fb 87 3e 7a 60 1c 3d d1 8e fa 3c
       -0.16266188 0.2655939 0.038177945 0.030585678
0000f0 61 f6 48 be bd 5a a0 be 4e d2 02 3e d7 af b0 3e
       -0.19625236 -0.31319228 0.12775537 0.34509155
000100 e7 16 31 bd a9 eb df 3c 37 b7 51 3e 6d fa 8e bb
       -0.043234732 0.027334051 0.20480047 -0.004363349
000110 3b 14 3b 3e a3 51 06 3d 95 1f 17 c0 1f 2c 0e 3c
       0.18269436 0.0327927 -2.3613026 0.0086775115
000120 29 35 f0 3d d5 c7 98 be a2 43 09 bb 03 5c 00 bf
       0.117288895 -0.2983996 -0.0020944853 -0.501404
000130 cb da 2e be 05 6c 87 3d 67 fa 8a 3c 75 7b f4 bd
       -0.1707565 0.066124 0.016965104 -0.1193761
000140 ee 38 1f be a0 cd a9 3e 3e 24 b1 3c 48 76 9a be
       -0.1554906 0.33164692 0.021623727 -0.30168366
000150 07 c5 96 3e ac 01 bc bd 7b ed a3 3d 11 0f 3c bc
       0.29447195 -0.091800064 0.0800428 -0.0114782015
000160 28 29 89 3c e5 04 1f 3c 5d a6 9f be 0c 3c 59 be
       0.016743258 0.009705757 -0.31181613 -0.21214312
000170 01 52 03 bd da 77 5d 3e 6b 72 6e be 32 a6 76 3d
       -0.032060627 0.21627751 -0.23285834 0.06021709
000180 c6 49 52 bf ff 5f 8c bc 43 bf 77 be 21 b6 8c bc
       -0.8214382 -0.017135618 -0.24194054 -0.01717669
000190 4e ff 1e bc cf 94 c7 3d ac fb 94 3d 16 8f 6f 3e
       -0.009704424 0.0974518 0.07274565 0.23394427
0001a0 0a 40 89 bd b6 e0 2d bf 8e c6 59 3e 94 3d 2e bd
       -0.067016676 -0.67921007 0.21267149 -0.042539194
0001b0 de ff 58 be e6 bf 52 be ca 4e 96 3d 84 b3 ab be
       -0.21191356 -0.20581016 0.073392466 -0.33535397
0001c0 40 d9 47 3e 28 8a f8 bd 0f 39 d6 3c 7f 2e 9a 3d
       0.19516468 -0.12135726 0.026150255 0.075284
0001d0 8d 75 78 3d d3 f8 aa 3d d5 27 42 3d b0 67 92 3d
       0.06065898 0.08348241 0.047401268 0.07148683
0001e0 12 73 f7 3c 2c 03 ad 3d 91 63 86 bb 1e e6 8f bd
       0.030206237 0.084478706 -0.0041012247 -0.07026313
0001f0 5c 04 53 be 4f 06 9a 3d 19 66 98 be ef d9 93 be
       -0.20607132 0.075207345 -0.29765394 -0.28877208
000200 83 58 00 be 57 37 72 be 96 ad 6c 3e c2 70 fa be
       -0.12533765 -0.23653923 0.23113093 -0.48914152
000210 f0 96 b1 3d 87 e2 10 3e 01 d5 71 3e 3c 73 85 bd
       0.08671367 0.14148913 0.23616411 -0.0651612
000220 79 c7 73 bf 2e 3a a8 3e f7 a0 79 3d c6 20 3e 3b
       -0.95226246 0.32856888 0.060944524 0.0029011234
000230 79 5a 1f 3d 05 52 55 3b ab 4f 04 bc 7f d3 c6 be
       0.03890464 0.0032550108 -0.008075635 -0.38833234
000240 79 28 65 bd a1 e7 9b 3d 68 78 04 3e b0 4b ff 3b
       -0.0559468 0.07612539 0.12936556 0.007791005
000250 32 d4 41 bf a4 20 37 3e e7 50 b0 3d bc c5 c0 3c
       -0.7571441 0.17883545 0.08609181 0.023531787
000260 11 69 2c 3e 22 1f 7b 3c ac 7d 06 bf fe b8 53 bc
       0.16836955 0.015327247 -0.5253551 -0.012922524
000270 d8 c4 ec 3c f4 87 2e be d6 eb 58 3d 37 27 64 be
       0.028902456 -0.1704405 0.052959286 -0.22280584
000280 38 12 6b 3d 88 d5 5f 3d 81 dd 2f be 0e 99 0d be
       0.05739042 0.054647 -0.17174341 -0.13827917
000290 67 a9 8a 3e f3 31 60 be 67 a6 8b 3d 6b 1d 14 3e
       0.2708237 -0.21894054 0.06818848 0.14464347
0002a0 8c 87 c8 ba 49 ef 84 bd a7 fd 8c bd 14 90 96 3e
       -0.0015299185 -0.064909525 -0.06884318 0.29406798
0002b0 43 d7 3b 3d 63 44 a4 3e 40 f3 22 bd 22 cc 1a 3d
       0.045859586 0.32083425 -0.039782763 0.037792332
0002c0 0e 57 70 be 53 e1 99 3d 98 02 a4 3d 1d 23 43 3d
       -0.23470709 0.0751368 0.08008307 0.04764091
0002d0 63 9b 9c be 10 70 1e bd 0a 55 28 be 72 66 e7 3d
       -0.305873 -0.03868109 -0.1643869 0.11298837
0002e0 20 75 44 3e 0e 21 24 bf 20 68 d5 3c b7 85 2e bc
       0.19185305 -0.6411294 0.026050627 -0.010651997
0002f0 00 e6 93 bd fe 05 25 be d9 1f e3 3e ca d5 8f 3e
       -0.072216034 -0.16115567 0.44360235 0.28092796
000300 93 63 40 be c7 65 de be b6 28 4e 3e 64 67 f9 3c
       -0.18787985 -0.43437025 0.20132717 0.030444808
000310 26 2c e7 3d ae 3a 8a 3e 45 73 17 3e 17 90 9b 3c
       0.112877175 0.26997894 0.14790066 0.018989606
000320 69 92 07 bf a2 d6 17 3e aa d1 3e be 85 36 a0 be
       -0.5295778 0.1482797 -0.18634668 -0.31291595
000330 c6 9b f8 bc 14 c0 07 3f 61 b5 9f 3d c8 4d 62 be
       -0.030347716 0.5302746 0.07798267 -0.22099984
000340 f6 dd 5c 3e 4b 58 99 3e 89 68 07 bf 1a 3b be 3e
       0.21569046 0.29950175 -0.52893883 0.37154466
000350 2f 79 be be 51 07 e4 3d 3b 4d 07 3c 4d 66 31 be
       -0.3720183 0.11134208 0.008258159 -0.17324181
000360 ac b1 45 be 25 b3 0a be ca 04 82 3d ae 93 45 3d
       -0.19306058 -0.135449 0.0634857 0.04823654
000370 84 41 db bd 50 7b 27 3e e1 b5 88 3d 83 91 d3 3d
       -0.107058555 0.16355634 0.06675316 0.103304885
000380 df 2c 4d 3e f0 cb 10 3e 63 0a 06 bd cb b3 70 bd
       0.20036648 0.14140296 -0.03272475 -0.058765214
000390 f2 e1 2b 3e be 84 99 bd b4 45 48 3e 5b 00 58 3e
       0.1678541 -0.07496022 0.1955784 0.21093886
0003a0 f9 89 14 be 79 8c bc bc 99 28 86 be 46 f6 f2 3d
       -0.14505757 -0.023016201 -0.2620285 0.11863379
0003b0 f4 f3 83 be 67 c7 f6 3e b1 3e ac 3b 91 fe 9c bd
       -0.2577206 0.48199007 0.005256497 -0.07665742
0003c0 71 59 3e bc 62 9f 1e 3e a4 9b 65 bd eb 2c b7 bd
       -0.011618004 0.15490487 -0.056056634 -0.08944114
0003d0 93 2a c6 bb 7b 93 b1 3d b3 54 07 3d 24 ae 12 be
       -0.0060475557 0.08670708 0.03303976 -0.14324242
0003e0 23 70 93 be 58 33 b0 3d 94 46 46 ba 52 69 8d 3e
       -0.2879649 0.08603543 -0.00075636175 0.27619416
0003f0 d3 d4 12 bf 6c 68 cd bd c5 ff 36 3b 48 e5 b4 3d
       -0.57355994 -0.100296825 0.0027923447 0.088327944

net.4.bias f4 [4]
000000 f0 f1 38 3d cb d1 c3 3d b3 7b bb bd 45 87 a4 3b
       0.045152605 0.09561499 -0.09154453 0.005021008
