model_dqn.pth (torch, 79156 bytes, 6 tensors)

net.0.weight f4 [128, 16]
000000 56 d5 ce be b3 1b b9 3e a6 24 a5 bf 74 20 39 40
       -0.40397137 0.36153945 -1.2901809 2.8926058
000010 06 da ee 3e 96 8d 43 bf b0 fe fa be ac d9 c9 3f
       0.46650714 -0.7638792 -0.49022436 1.5769553
000020 a7 1c 99 3f 65 78 87 3f 54 33 44 c0 4c dc 4f 3e
       1.1961869 1.0583616 -3.0656328 0.2029888
000030 24 21 11 c0 1c 2a ce be bd fe 16 c0 f9 9e 0b 3f
       -2.2676477 -0.40266502 -2.359298 0.5453945
000040 de 66 0c bf 9a 53 dd 3f b0 5c 67 3f 0b cd 29 bf
       -0.5484446 1.7291138 0.90375805 -0.66328496
000050 31 55 54 c0 4d eb 1e c0 c9 c8 f1 3f 7a 53 8c 3e
       -3.3176997 -2.4831116 1.88894 0.27407438
000060 dd 6c a2 bf a0 7a 1c c0 97 ce 9a be 38 97 0a 40
       -1.2689472 -2.4449844 -0.3023574 2.1654797
000070 16 4e e6 3c a9 83 2e be ec b9 2e bf dc b2 45 40
       0.028113406 -0.17042412 -0.68252444 3.0890417
000080 ed cb 6a bf 2e 34 38 bf 14 09 ea 3f bc a5 c6 be
       -0.91717416 -0.7195462 1.828402 -0.3879832
000090 a6 e0 9e bf 92 1a 07 bf 31 1d 93 3e 06 71 df 3f
       -1.2412307 -0.5277492 0.2873321 1.7456367
0000a0 32 29 65 c0 2d 20 c0 3e 6c f9 31 3d e0 e2 4f 3f
       -3.5806394 0.37524548 0.043450758 0.8120556
0000b0 f5 de 8a c0 2f 7f 16 c0 da 97 7c be 87 a7 49 bf
       -4.3397164 -2.3515127 -0.24667302 -0.7877125
0000c0 96 68 be c0 a1 c3 31 bf 78 ab 65 c0 36 b0 0e bf
       -5.950267 -0.6943913 -3.5885906 -0.55737627
0000d0 cc 47 e7 bf 31 e8 95 3f 52 4c 90 bf 08 d5 b2 bf
       -1.8068786 1.1711484 -1.1273291 -1.3971262
0000e0 e5 53 20 3f 4c 9c 19 bf 46 b8 4d bf 62 fb df 3f
       0.6262801 -0.60004115 -0.80359304 1.7498591
0000f0 fc 23 d8 3f 8f 29 81 3f aa 86 13 3f 39 06 f2 3f
       1.6885982 1.0090808 0.57627356 1.8908149
000100 fd 74 f2 3d 12 40 1e 3e 06 3c 83 3e 4c 77 bc 3e
       0.1183872 0.15454128 0.25631732 0.36809766
000110 c0 4a 80 3d 66 92 5a bf 09 49 b1 bd 8e c0 e2 3d
       0.062642574 -0.85379636 -0.086565085 0.11071883
000120 ab c5 b8 3e 1b d3 90 3e 64 84 d3 3c 05 45 cc 3e
       0.3608831 0.2828606 0.025819965 0.39896408
000130 cf 7a 53 bd cb 4e 79 be 54 5d 3d bd 0b de 28 be
       -0.05163079 -0.24346463 -0.046231583 -0.16490953
000140 bd 6f 3a 40 a3 26 42 3f d1 72 50 be 98 51 d0 bf
       2.91307 0.75840205 -0.20356299 -1.62749
000150 70 09 d5 3f 38 22 7a 3f 17 e4 92 be 12 a3 e4 bf
       1.6643505 0.97708464 -0.28689644 -1.7862265
000160 ec 6f 03 3f 61 40 1d 3e ff 3e 67 be d0 ca 80 c0
       0.51342654 0.1535659 -0.22582625 -4.0247574
000170 20 74 08 3f 16 e7 fe be fb 11 e3 be 62 94 40 bf
       0.5330219 -0.4978568 -0.44349656 -0.75226414
000180 dc b7 ce 3e 28 b9 ce bf af 63 c1 bf 8f ba 27 c0
       0.4037465 -1.6150255 -1.5108546 -2.6207616
000190 a4 ec 25 3e 7d 77 7b 3b 8e 06 13 40 8b 8e 7a 40
       0.16203552 0.003837078 2.297275 3.9149501
0001a0 f9 e9 64 be 90 72 73 bf 19 08 a6 bf 59 bf 02 bf
       -0.22354878 -0.95096684 -1.2971221 -0.51073223
0001b0 6e 0d 6f c0 82 f4 ef be fe 63 bc bf 41 4a 2a c0
       -3.7351947 -0.46866232 -1.4718015 -2.660782
0001c0 c5 47 71 be cc ea 94 bc 4e 72 10 bf 7f b4 3e bf
       -0.23562534 -0.018178366 -0.56424415 -0.74494165
0001d0 47 75 b1 3e 13 e3 32 bb 08 73 a0 3e f8 69 40 bf
       0.34659788 -0.0027295991 0.31337762 -0.75161695
0001e0 88 9b e0 3e 03 d5 97 bf 04 7c fe 3d b6 69 dc be
       0.4386866 -1.1861881 0.12425998 -0.430494
0001f0 26 20 ef 3e f2 20 c7 3f c9 0c fa bb bf 28 50 3f
       0.46704215 1.5556929 -0.0076309186 0.81312174
000200 04 66 65 be cd 58 70 bf 4e 37 fb bf a3 25 87 bf
       -0.22402197 -0.938855 -1.9626253 -1.0558361
000210 4b dd 9b 3f 50 26 23 bd 4c 37 9b bf 49 33 0e 40
       1.2176908 -0.03983146 -1.212625 2.2218802
000220 3b f7 ca 3f de 8a dc 3f bb 38 b2 bf 08 ed 39 3f
       1.5856699 1.7229879 -1.3923563 0.72627306
000230 07 fd 9a c0 7d 78 55 3e 5b b5 5c bf 24 b7 f0 be
       -4.843387 0.20846744 -0.86214226 -0.47014725
000240 64 20 ae 3f dd 72 e2 3e 8e e8 5c c0 28 5c b9 bf
       1.3603635 0.4422826 -3.451694 -1.4481249
000250 c7 cc f8 3f 42 95 a3 3f 08 07 ac be b5 32 df be
       1.9437493 1.2779925 -0.33599114 -0.43593374
000260 cd f2 16 bf 7b 06 31 3d 3d c4 12 3e 78 65 50 be
       -0.58964235 0.04321907 0.14332671 -0.20351207
000270 f4 04 f3 be 70 73 dd be d6 3c a1 be 03 9f 1e c0
       -0.47464716 -0.43252134 -0.31491727 -2.4784553
000280 e5 3c ac 3f 21 cf 22 c0 f4 35 00 bf e5 a0 41 40
       1.3456084 -2.5438921 -0.50082326 3.0254452
000290 98 1c 8a be 42 c7 58 bf c0 c5 4b 3f 4d 4b 28 c0
       -0.2697494 -0.84679043 0.7959862 -2.629596
0002a0 d1 62 13 3f 53 ff 12 bf 9f de 8c 3f 1f 19 91 c0
       0.57572657 -0.57420844 1.1005439 -4.5343165
0002b0 9b 89 35 3f 5f ed 83 3f 6b eb ac be 31 f7 a9 3e
       0.70913094 1.0306815 -0.3377336 0.33196405
0002c0 87 db e9 bf d8 a0 96 3f f1 f9 26 bd e7 ee d1 3f
       -1.827012 1.1767836 -0.040765706 1.6401032
0002d0 11 a6 e5 bf 8d ab b6 bf 0a 8e 4d 3f b7 39 03 c0
       -1.7941304 -1.4271103 0.8029486 -2.0503976
0002e0 20 4c 15 3f 5a 36 71 3f 4d 2e 32 40 8f e3 05 be
       0.5831928 0.9422356 2.784076 -0.13075088
0002f0 69 53 1f c0 59 7f ac bf f5 e7 85 3f 27 b3 9b c0
       -2.489466 -1.3476363 1.0461413 -4.865619
000300 c9 0b c5 bf 9c d4 7f c0 f4 b9 02 c0 c7 62 03 c0
       -1.5394222 -3.9973516 -2.0425997 -2.052904
000310 76 9f e6 3e 40 f4 c8 be e8 e0 ba 3f bf 32 e7 3f
       0.45043534 -0.39248848 1.4599886 1.8062361
000320 a7 a2 aa 3d 5d 9c 0c be 2f 09 83 bf a8 f0 de bf
       0.08331805 -0.13731523 -1.0237178 -1.7417192
000330 00 ae 0a 40 3b 40 8f 3f 00 30 35 be 8c 44 8d be
       2.16687 1.1191477 -0.17694092 -0.2759136
000340 9b 1e d0 bd bd 70 81 bd 48 39 89 3f 54 c8 17 c0
       -0.101620875 -0.06320331 1.0720606 -2.371602
000350 1a 68 56 3e b3 6d 9c 3f 70 14 50 bf 8b 14 7b c0
       0.20938149 1.2220978 -0.81281185 -3.9231288
000360 8f f6 d3 bf f3 8e b9 3f ef 6c 3e 3f df 7c e4 bf
       -1.6559619 1.449675 0.7438497 -1.7850608
000370 f5 e5 49 3f fb f2 d2 3e 02 72 cb 3f 0f 45 d0 bf
       0.7886651 0.41201004 1.5894167 -1.6271075
000380 36 2c ed bf 67 18 55 c0 6a 3d 9f c0 8d 3f 7a c0
       -1.8529117 -3.3296144 -4.976247 -3.9101288
000390 1c d8 2c be 0e d1 aa bf 9f 0e 0c c0 e3 5b a7 be
       -0.16879314 -1.3345048 -2.1883924 -0.32687292
0003a0 02 e7 d9 3e 19 56 c5 bf ff 57 79 bb fa 81 b6 3e
       0.42559057 -1.54169 -0.0038046835 0.3564604
0003b0 87 4b 2b 40 db 9c 69 bf b8 69 83 bf dc 8f 0e 3d
       2.6764848 -0.9125497 -1.0266638 0.034805164
0003c0 c2 39 41 3f 3f 7a 52 3f 78 e6 d7 3f eb 47 55 3f
       0.75478756 0.8221778 1.6867208 0.83312863
0003d0 dd a0 3f bf 8a 21 f6 3f a7 47 03 c0 8a 88 02 bf
       -0.7485483 1.9228985 -2.0512483 -0.5098959
0003e0 ca 74 2c 3f cf 01 10 bf 07 fd 1c bf d2 31 bb bf
       0.67365706 -0.5625276 -0.6132359 -1.4624579
0003f0 ca c9 08 c0 c1 6d fc bf 88 b0 ad bf 0c 46 e9 bf
       -2.1373162 -1.9720994 -1.3569498 -1.8224502

net.0.bias f4 [128]
000000 95 47 98 40 77 11 94 40 57 c8 00 3e 58 9a 58 40
       4.758738 4.627132 0.12576424 3.3844204
000010 24 3e d5 40 aa ad b3 40 9e 8d 87 3f 83 64 d5 40
       6.6638355 5.614949 1.0590093 6.6685195
000020 8c e6 22 c0 e8 12 24 40 02 a3 00 3f ed 98 e8 bf
       -2.5453215 2.563654 0.5024873 -1.8171669
000030 11 5a a1 40 55 c3 9f 40 8e 25 22 40 a9 ab 19 40
       5.0422444 4.9925942 2.5335422 2.4011023
000040 b4 1f 2d 40 53 52 be 3e da 81 94 3e 87 da 64 40
       2.70506 0.37172183 0.2900532 3.5758379
000050 8a 8b 8f c0 3e 08 90 be 44 dc 48 c0 e1 8d b6 c0
       -4.4857836 -0.28131288 -3.138444 -5.704819
000060 e8 2b 24 bf a8 74 f9 3f 6a 6b c9 c0 65 31 b2 bd
       -0.64129496 1.9488726 -6.294362 -0.087008275
000070 07 1b 7d 40 3c 20 61 40 5c 03 42 40 a0 af 41 40
       3.9547746 3.5175924 3.031455 3.0263443
000080 67 d0 65 bf 80 00 da c0 c6 2b 88 bf f7 64 05 3f
       -0.8977112 -6.812561 -1.0638359 0.52107185
000090 ce 57 8d c0 04 54 03 c1 c4 cc 61 40 a0 b6 61 bd
       -4.4169683 -8.208012 3.528123 -0.055105805
0000a0 05 de 21 c0 90 4d 75 c0 85 4c 36 3e d0 41 e3 40
       -2.529176 -3.832859 0.17802627 7.1017838
0000b0 8f b2 02 3f b4 28 29 40 49 1e 96 bf c0 98 51 40
       0.5105371 2.6431093 -1.1727992 3.2749481
0000c0 47 f7 96 c0 9e 4a 32 3f 57 09 1e 40 d1 87 50 c0
       -4.717685 0.69645107 2.46932 -3.2582896
0000d0 2d e8 8f 40 99 f1 4c 3f d7 94 a4 c0 90 73 17 c1
       4.497092 0.8005615 -5.143169 -9.4657135
0000e0 d1 6b cc c0 00 b6 a1 3f 65 f4 98 c0 95 27 82 40
       -6.388161 1.2633667 -4.7798333 4.067332
0000f0 05 58 05 c1 fa db 35 40 e1 b9 ea 3f 31 a4 ce 3f
       -8.333989 2.8415513 1.8337976 1.6143857
000100 f0 15 86 40 16 71 75 40 b6 e9 e0 3f ec a7 89 bf
       4.190178 3.8350272 1.7571323 -1.0754371
000110 19 d5 d1 40 7f 02 9b bc d4 a2 53 bf e0 53 ba c0
       6.557263 -0.018922089 -0.8267033 -5.8227386
000120 1f 1c f3 bf 52 cd bc 40 2d 32 10 c0 5b b3 0a 40
       -1.8992957 5.9000635 -2.2530625 2.167197
000130 b8 21 cf 40 f6 3b e8 3f d5 4f d2 bf 59 87 60 bf
       6.472866 1.8143299 -1.6430613 -0.87706524
000140 7f cd be 3f 45 67 96 3f bb 8b 9f bd af 54 18 40
       1.4906462 1.1750265 -0.07790323 2.3801687
000150 12 ab 07 be 2e f0 a7 40 7e d8 7f 40 18 38 52 40
       -0.13248852 5.248069 3.9975886 3.2846737
000160 1b f0 f1 c0 93 b7 27 40 e9 52 b6 40 9f d9 de bf
       -7.5605597 2.6205795 5.697621 -1.7410163
000170 3a d4 1d c0 7a 75 52 40 25 21 31 3f ee bf e5 3e
       -2.4660783 3.2884202 0.691912 0.44872993
000180 0f 9b 86 be e0 99 18 3f af 5c 50 40 27 34 48 c0
       -0.26290175 0.59609795 3.255657 -3.1281831
000190 de 76 94 40 1c 6d 72 bf 70 b9 bf 40 c8 86 a5 3e
       4.63951 -0.9469774 5.9913864 0.32329392
0001a0 e5 b1 af 40 a8 3d 9f c0 ff 4f de c0 4d 5c c5 3f
       5.4904656 -4.9762764 -6.947265 1.5418793
0001b0 84 f9 60 c0 89 8f a5 40 d3 df 25 3f 40 9c 03 c1
       -3.5152292 5.1737714 0.64794654 -8.225647
0001c0 e1 18 c0 bf ea 0f b1 be f6 e5 81 40 0e 85 24 3f
       -1.5007592 -0.34582454 4.0593214 0.64265525
0001d0 0b 77 e2 3e bb c9 09 40 63 c4 69 3e a0 f2 f2 bf
       0.44231448 2.1529377 0.22828822 -1.8980293
0001e0 45 49 56 40 0a 0f d4 3f 08 fd dc 3f ee 78 2e 3f
       3.348222 1.656709 1.7264719 0.68153274
0001f0 0d d2 d8 3f 0b df ca 3f 0d f2 22 bf 34 a0 31 40
       1.6939102 1.5849317 -0.6365059 2.775403

net.2.weight f4 [128, 128]
000000 d3 41 1b 3f 1f d7 f9 3f 7e a9 fb be c4 c0 4f 3f
       0.60647315 1.9518775 -0.4915275 0.8115351
000010 43 20 5d 3f fe 7e 03 3f a1 1f 6b 3f bb 08 94 3f
       0.8637735 0.5136565 0.91845137 1.1565164
000020 8a 88 9b bf 5e 1b d6 3f 8c 98 fb be ad 89 50 bf
       -1.2151043 1.6727102 -0.49139822 -0.81460077
000030 97 b3 da 3e f8 79 1a bf f8 41 99 bf a6 f0 8f bf
       0.4271514 -0.6034236 -1.1973257 -1.1245315
000040 06 4c 66 3e 8b 2b 2f 3f 54 ea f4 3d 57 f8 b2 be
       0.22489938 0.68425816 0.11958757 -0.34955093
000050 c3 97 89 bf a6 51 99 3c e6 21 62 bf 40 86 55 3b
       -1.0749439 0.01871569 -0.88332975 0.003258124
000060 32 03 9b bf 99 86 4d 3d 00 02 4f bf 1a 14 28 3f
       -1.211035 0.05017719 -0.80862427 0.6565567
000070 49 69 c5 3e 85 ec 18 bf 24 7b b3 3e 64 dd fc 3e
       0.3855689 -0.597359 0.35054886 0.49387658
000080 06 b6 74 bf 4b e6 cc 3e 88 68 14 bf 3e 2d df be
       -0.95590246 0.4001945 -0.57972 -0.43589205
000090 b6 89 ba be 12 e4 b6 3f 83 03 88 bd 9e b4 ec 3d
       -0.3643319 1.4288352 -0.06641295 0.115578875
0000a0 4e 31 5e bf 37 84 46 bf 5d 56 5f bf b5 8b 08 40
       -0.86793983 -0.77545494 -0.87241155 2.133527
0000b0 48 d9 f5 bf c7 45 5a 3f ca 3a 31 3d 8f 72 11 bf
       -1.9206934 0.8526272 0.043268956 -0.5681543
0000c0 7f 0c 03 bf 50 86 5e be 13 33 15 3f bb f7 37 bf
       -0.5119094 -0.21730924 0.5828106 -0.7186238
0000d0 98 e6 26 bb 0a 39 0a c0 40 5c 2b bf 0d 6f e0 bf
       -0.0025467034 -2.1597314 -0.6693764 -1.753389
0000e0 1e e3 21 c0 a4 16 17 3d d8 69 d1 bf f9 f9 06 3e
       -2.5294871 0.036886826 -1.6360426 0.13181295
0000f0 22 2b 32 bf 91 93 44 3e 7d a7 9d bf 63 38 66 3f
       -0.69597065 0.19196917 -1.2316738 0.8992979
000100 8a 3a 18 bf ec 73 24 be 80 61 28 3f 97 35 9e 3e
       -0.59464324 -0.16059846 0.65773773 0.3090026
000110 95 84 83 3f 56 c2 0e 40 12 7f 80 bf fe 20 92 bf
       1.0274836 2.2306113 -1.0038779 -1.1416318
000120 46 c9 dd be 00 c2 07 3f 17 9e e5 3d fc 6b 1f bf
       -0.43317622 0.53030396 0.11211794 -0.62274146
000130 ed df ef 3f 2e cc c5 3e 57 fa db 3e 45 e3 5e 3f
       1.8740212 0.3863234 0.42964432 0.87065536
000140 d6 15 5a 3e fe ff 0a 3f 50 0b b7 be 6d 0c 80 3f
       0.21297392 0.54296863 -0.35750818 1.0003792
000150 d3 11 a4 3e 2c 55 14 be 2d c4 a7 be cd a5 be 3e
       0.3204485 -0.14485615 -0.32766858 0.3723587
000160 fc 59 aa bf 7c cb 9b 3e ae 4c 2b bf c3 2d c9 3f
       -1.3308711 0.30428684 -0.6691388 1.571709
000170 c5 b9 db 3e 43 ff 13 bf ea c4 c2 bf c8 cc c0 be
       0.42915168 -0.57811373 -1.5216343 -0.37656236
000180 ec 62 44 bf eb 62 c7 3f 3e 47 46 3f ee de 65 3e
       -0.7671344 1.5577062 0.77452457 0.22448322
000190 f0 aa a2 3f 6d 1b 5c be 41 c5 bf 3f 2a 0b 82 3f
       1.2708416 -0.21494837 1.4982072 1.0159657
0001a0 06 b2 e8 be 9f 0a f0 bf df 53 90 bf ca bd 2a bd
       -0.4544832 -1.8753241 -1.1275595 -0.041684903
0001b0 12 25 43 3e 1b 4c 6d 3f f7 d2 5b be ea 90 65 be
       0.1905711 0.9269425 -0.21467195 -0.22418562
0001c0 6c 3f ad 3d 5c a9 c0 be 90 f8 45 3f b6 47 e3 3e
       0.084593624 -0.3762921 0.773324 0.4439065
0001d0 09 2e b3 3e 56 9e 1a 3f 75 c0 35 bf 13 2e e8 3d
       0.3499606 0.6039785 -0.7099679 0.11336913
0001e0 ba 92 02 3f 1a 29 37 be b4 c4 28 3f ac 8c 8d 3f
       0.51005137 -0.17886773 0.65925145 1.1058555
0001f0 4e 77 7c 3f 3f f4 ee 3e 6e b3 2f 3f e8 53 96 3f
       0.98619545 0.4667072 0.6863316 1.1744356
000200 ac 3a 9d bf 1e c6 32 c0 9e bc 97 3e 12 04 44 be
       -1.228353 -2.793342 0.2963609 -0.19142178
000210 c1 6c d1 bf 75 fc 1d c0 b8 2c e1 bf 89 2d 2a be
       -1.6361314 -2.4685338 -1.7591772 -0.16618933
000220 0c ee 18 bd 66 86 c1 3e d7 0e 42 bf 49 bb c3 3f
       -0.037336394 0.3779785 -0.75803894 1.529153
000230 31 aa ce bd cd 7e a8 bf 2f 6d 9a 3d bf 58 22 c0
       -0.10091055 -1.3163697 0.07540356 -2.5366666
000240 2a 65 57 bf b4 c0 ee 3f 46 40 11 be 99 8d 5e bf
       -0.8413874 1.8652558 -0.14184675 -0.8693481
000250 c2 05 9d 3e 99 ee 08 c0 2f b2 6e bf ed 3a 54 3e
       0.30668455 -2.1395628 -0.93240637 0.20725603
000260 15 8a 20 c0 8a 52 97 3e c0 d4 dd bf dd d7 e2 3e
       -2.5084279 0.2955516 -1.7330551 0.44305316
000270 82 87 3b c0 42 bd 02 bf 9b 40 1d c0 3d 47 47 3f
       -2.9301457 -0.51070035 -2.4570682 0.77843076
000280 5c 24 1c 3d cf e2 73 be 0e 01 3b 3f a8 83 41 bf
       0.038120613 -0.2381699 0.73048484 -0.75591516
000290 50 ff 14 be 45 70 c6 3e 13 09 9a bf 7b a6 7b bf
       -0.14550519 0.3875753 -1.2034019 -0.98300904
0002a0 d4 9c c7 bf 60 18 3b bd 01 e6 d0 3e 31 a6 f2 be
       -1.5594735 -0.045677543 0.4080048 -0.4739242
0002b0 f9 c8 30 bf b7 88 3b bf 1c aa 5f be 52 c9 cf be
       -0.6905666 -0.73255485 -0.21842235 -0.40583283
0002c0 50 51 b2 3e 84 a8 3a c0 2b 79 d7 bf 5f ab dd bf
       0.34827662 -2.9165354 -1.6833853 -1.7317923
0002d0 9a a0 65 3f 25 f2 bb 3d b7 e2 b4 3e 7f fb 13 bd
       0.89698184 0.09177045 0.3532922 -0.036128517
0002e0 c2 b8 b9 3e c5 9e d9 bf e7 a6 13 3f 75 2b d2 bf
       0.36273772 -1.7001578 0.5767655 -1.6419512
0002f0 fb f2 05 be f8 2e 1d bf bf 06 8e 3e 37 b5 1e c0
       -0.13080971 -0.61399794 0.27739522 -2.4798105
000300 42 eb e9 3e 1f 72 27 c0 e3 5d 0f c0 f6 4b 8e bf
       0.456873 -2.6163404 -2.2401054 -1.1116931
000310 bf 0a 13 3e b2 44 9d bf 4f 64 ab 3e 25 f5 fe 3d
       0.14359568 -1.2286589 0.33474967 0.12449101
000320 df 12 1f bf 08 00 78 c0 91 f9 a4 be 7d 85 1f bf
       -0.6213817 -3.875002 -0.32221654 -0.6231306
000330 a3 c9 3f bf df 56 86 bf cf 43 77 bf ff c2 97 3f
       -0.7491705 -1.0495261 -0.9658784 1.1856383
000340 6d 26 15 c0 86 24 73 3f 53 b7 74 bf 93 13 d5 be
       -2.3304703 0.94977605 -0.9559223 -0.41616496
000350 dd e6 70 c0 dd 8f 73 bf f3 bd 6d be 6a 69 9e bf
       -3.7640908 -0.9514139 -0.23216991 -1.237592
000360 9c 6e 52 3c 62 dc 5e 3f b2 cb 6e c0 5f d2 53 40
       0.012843754 0.8705503 -3.7311826 3.309715
000370 dc 1c 16 3f 7d 6b e9 be a6 ad 30 bd cc cd 55 3f
       0.58637786 -0.4558982 -0.043134354 0.83517146
000380 61 c8 cc bf 35 8b 84 c0 fb ad c1 3e 91 37 d8 3d
       -1.5998651 -4.141993 0.3782805 0.105574735
000390 a1 c8 46 c0 2b d5 75 bc f8 ce 54 c0 f9 6d f6 3d
       -3.1059954 -0.0150044365 -3.3251324 0.12032694
0003a0 76 5c 02 c0 2b ef 7c bf c2 2e e1 3d 63 a4 33 bf
       -2.0368934 -0.9880244 0.109952465 -0.7017271
0003b0 2f da bc bf 14 78 e8 bf a4 4f 83 3f f2 d4 83 be
       -1.4754084 -1.8161645 1.0258679 -0.25748402
0003c0 bb 05 ed 3f e9 45 f5 be c0 09 b5 c0 db 8a 97 3f
       1.8517374 -0.479049 -5.65744 1.183925
0003d0 ec 9d a3 bf 23 dd 2b bf 8c c2 a3 bf 55 6d 35 c0
       -1.2782569 -0.671343 -1.2793746 -2.834798
0003e0 7d 04 25 bf e4 9c 96 3d 14 bd ef bf 2a 90 30 bd
       -0.64459974 0.07354143 -1.8729577 -0.043106236
0003f0 b5 42 96 be 2f 4b b3 be c0 2e 54 bf a2 b8 43 bf
       -0.29347768 -0.35018298 -0.82883835 -0.764536

net.2.bias f4 [128]
000000 d9 ee c3 40 36 b1 0b bf 57 83 e3 bc 83 5f 12 be
       6.122906 -0.5456728 -0.027772589 -0.14294247
000010 d0 8f 54 bf a1 6e 24 3f 30 42 00 bf 71 01 a1 be
       -0.8303194 0.64231306 -0.50100994 -0.31446412
000020 70 dd a7 3f f8 b0 01 bf 1c 44 d0 bf 5c 70 3d bf
       1.3114452 -0.5066066 -1.6270785 -0.7399957
000030 5b db 41 bd cc c8 c1 be 19 8b e7 bd 34 eb d1 be
       -0.047328334 -0.37848508 -0.11305828 -0.40999758
000040 10 3d b6 40 bc 33 f2 be 58 b6 3d 3f 5d 02 60 be
       5.694954 -0.47305095 0.7410636 -0.21875902
000050 58 8b 78 3c 1d 52 ce 40 4a bd 54 bd 08 98 cb 40
       0.015169941 6.4475236 -0.051938333 6.3623085
000060 68 b0 c8 b9 9f fb 93 be 10 3e 13 bf 36 91 fa bf
       -0.00038278406 -0.2890291 -0.57516575 -1.9575565
000070 5d 30 fa bf a1 d1 b0 40 df ab fc be 74 e8 4b 3f
       -1.9546009 5.5255895 -0.49349877 0.7965157
000080 12 7a 8b bf 02 27 6f bf dc 82 32 c0 7a a2 e5 be
       -1.0896628 -0.93418896 -2.789237 -0.44850522
000090 65 b5 9a 3f a8 1e 21 c0 d7 dc 3c bf 03 4a c6 40
       1.2086607 -2.517496 -0.73774475 6.1965346
0000a0 d9 27 74 bf af f6 8a 3b 70 25 5a be 32 6a b8 40
       -0.953733 0.0042408328 -0.21303344 5.7629633
0000b0 88 62 c9 bc 0b c4 bf 40 0a 98 59 3e d2 8b ab 3f
       -0.024583116 5.992681 0.21249405 1.3402045
0000c0 ba 59 2c 3d ac 74 64 3e 52 a1 84 3b 31 97 37 3f
       0.042077757 0.22310132 0.004047551 0.71715075
0000d0 40 96 b2 bd ef 4c fc be c0 19 56 3f fe ca 6a 3f
       -0.08720064 -0.49277446 0.8363304 0.9171599
0000e0 61 04 08 bf 51 38 65 be a1 e6 0b c0 0a 75 bc 40
       -0.5313168 -0.22384764 -2.1859515 5.889287
0000f0 49 9a 0d 3f 5a c6 62 3f 91 e7 f3 3f 20 92 d9 bd
       0.55313545 0.8858391 1.9055043 -0.10623574
000100 ce 50 0e 3f c0 ba 34 be c9 e4 af be 81 0a 65 bd
       0.5559205 -0.17649364 -0.34354237 -0.05591822
000110 8d d2 ae ba 96 5c c4 bd 36 a5 af be 9b b3 b5 40
       -0.0013337896 -0.09587972 -0.34305733 5.6781745
000120 1a 68 3c be b2 54 21 3e 40 1d 43 40 37 9a c7 bd
       -0.18399087 0.15754965 3.0486603 -0.09746211
000130 8a 82 82 40 38 7c bd 40 32 9f 7a 3e c4 58 5e 3f
       4.078435 5.9214134 0.2447479 0.86854196
000140 2a 52 be 40 89 88 4f bf 13 50 bc 40 63 27 73 40
       5.94753 -0.8106771 5.8847747 3.799279
000150 04 02 94 40 27 a5 fe bd e4 ef 9f bf da 79 d2 c0
       4.625246 -0.12433844 -1.2495084 -6.5773745
000160 23 13 f0 3d cb 05 90 bc bf e8 75 40 bb 87 25 bf
       0.117224 -0.017580887 3.8423307 -0.64660233
000170 08 df 74 40 d7 f3 ef be 15 f8 8f 3f 9a 4e b2 3f
       3.8261127 -0.46865723 1.1247584 1.3930237
000180 1c b4 43 bd ea 25 49 bf c7 b3 82 3c 74 b8 d2 40
       -0.047779188 -0.7857348 0.015954865 6.5850163
000190 05 57 1d bf 94 47 95 40 9c ae 15 bf 4b 86 ca 3e
       -0.61460906 4.6649876 -0.5846956 0.39555582
0001a0 87 b2 d0 bf 43 c9 ba 40 a0 23 08 c0 fd 26 bf 40
       -1.6304482 5.837068 -2.1271744 5.9735093
0001b0 2e d3 e3 3c 25 83 7e 3f 5d fe 15 3f 88 92 73 3d
       0.02781066 0.9941886 0.5859125 0.059465915
0001c0 0f 93 c4 40 5e 12 a2 bf 07 55 a9 40 6f ae 45 3e
       6.1429515 -1.2661855 5.2916293 0.19304822
0001d0 93 07 b3 40 1b 32 e4 be 41 89 f2 3c 8e 0b d1 3f
       5.5946746 -0.44569477 0.029606463 1.6331651
0001e0 11 c0 91 3f 52 14 1f bc 1d 62 0c c0 3e 78 f1 3f
       1.1386739 -0.009709435 -2.1934884 1.886482
0001f0 e0 0d 09 3f 42 af 76 bc ef 6f 9f be 89 6c 53 bd
       0.53536797 -0.015056433 -0.31140086 -0.05161718

net.4.weight f4 [4, 128]
000000 45 f5 04 3f 68 99 f2 40 73 89 b2 bc 64 0b ae 40
       0.5193675 7.5812263 -0.021794057 5.4388905
000010 7a 9e 8b 40 57 9c a8 40 8f 6b 78 40 9b 29 ed 3e
       4.3630953 5.2690845 3.8815649 0.46320805
000020 03 80 91 40 76 fa bd 40 47 2e 37 c0 90 33 71 40
       4.5468764 5.936824 -2.8621995 3.7687721
000030 2b f2 b7 40 bf 8c fe bf 61 7e 9c 40 16 d5 f5 40
       5.7483115 -1.9886702 4.890427 7.6822615
000040 66 a6 37 3f 34 32 8d 40 0f 48 b0 40 05 12 18 c1
       0.7173828 4.4123783 5.508796 -9.504399
000050 55 e8 55 bd 8f bf 14 3f 2c da c4 40 82 80 9d 3f
       -0.052223522 0.58104795 6.1516323 1.2304842
000060 f3 e6 99 bd 93 54 d0 40 06 ce b0 c0 97 07 2e c0
       -0.07514753 6.510324 -5.5251493 -2.7192132
000070 45 45 5d c0 a0 a8 56 3f fd 9b b1 40 df 29 b5 40
       -3.4573529 0.8385105 5.5502915 5.661361
000080 8f 6e 8c 40 3d 94 c0 40 f4 c7 ce c0 1c ad bd 40
       4.388496 6.0180955 -6.4619083 5.9273815
000090 88 06 4e 40 12 7a 61 c0 00 f4 dd 40 7f b7 24 3f
       3.2191486 -3.5230756 6.936035 0.6434249
0000a0 bf 6f f1 c0 62 1b 99 bd ab 62 03 41 a1 9a 21 3f
       -7.544891 -0.07475926 8.211589 0.6312657
0000b0 cf c4 33 bd 42 a6 29 3f 76 aa 1e 40 0c 7f aa 40
       -0.043888863 0.66269314 2.479154 5.3280087
0000c0 2e 5d 41 3d d7 4f 8f 40 49 e3 cd bb 5f 0e ae 40
       0.047208004 4.478496 -0.006283198 5.4392543
0000d0 55 9e 77 3c 68 2e 69 40 ce 37 ab 40 20 23 d9 40
       0.015113433 3.6434574 5.350562 6.7855377
0000e0 03 3e 6c 40 bd 87 ec 40 d4 fe 6b c0 90 16 9b 3f
       3.691285 7.3915696 -3.6874285 1.211626
0000f0 ef 25 ba 40 ee 66 ce 40 f7 0d 82 40 0b 4d 05 bd
       5.8171306 6.4500647 4.0642047 -0.032544177
000100 be 5e e9 40 ad a9 ef 40 47 18 2a 40 36 2a 85 bd
       7.292815 7.4894624 2.6577318 -0.06502192
000110 ff 58 b0 40 a6 9d 2f 3c 71 0b 4b 40 e7 e3 30 40
       5.510864 0.010718739 3.1725733 2.76391
000120 44 1a 7e 40 e6 57 d5 40 22 78 14 40 78 16 ee 3c
       3.9703531 6.66698 2.3198323 0.029063448
000130 e9 52 36 bf 94 10 93 3f 32 e1 ae 40 10 6a 05 41
       -0.7122026 1.1489434 5.4649897 8.338394
000140 af 78 50 3f d6 64 c5 40 49 c1 16 3f 07 9f 85 40
       0.8143415 6.168559 0.5888868 4.1756625
000150 d4 12 c4 3e 80 8d dd 3c 53 d8 29 c1 e2 ea 2f c0
       0.38295615 0.027045012 -10.615314 -2.748711
000160 c0 c3 9f 40 31 64 ed bd b2 4d 81 40 05 a5 a3 c0
       4.9926453 -0.115913756 4.0407343 -5.113894
000170 45 ad 44 40 cf 7f d5 40 1c e6 96 40 0f 89 b6 40
       3.0730755 6.6718516 4.7155895 5.704231
000180 57 04 32 3d 85 74 8b 40 38 d7 c6 40 8f a0 35 3f
       0.04346117 4.3579736 6.213772 0.7094812
000190 ba b6 93 c0 c6 a3 0e c0 22 0f c3 40 21 52 7e 40
       -4.6160555 -2.228746 6.0955973 3.9737628
0001a0 7d 80 55 40 32 4c 27 3f b6 d9 98 c0 b3 d8 4b 3f
       3.3359673 0.6535064 -4.776576 0.7962753
0001b0 b4 32 a8 40 2c c6 b2 40 32 a8 da 40 46 2f d0 40
       5.2561893 5.586691 6.8330317 6.5057707
0001c0 c8 b6 77 3f 70 fc ed c0 fc bb 35 3f e3 a2 e9 bf
       0.9676328 -7.437065 0.70989966 -1.8252834
0001d0 f8 ce 47 3f 1a 25 b6 40 7e 47 bf be 67 a7 ab 40
       0.78050184 5.692029 -0.37359232 5.364185
0001e0 73 57 a8 40 78 4c b9 40 2f bc 50 c0 7c a7 94 40
       5.260675 5.7905846 -3.2614858 4.645445
0001f0 1b 04 e9 40 58 12 05 3d 07 bc de 40 66 7c 90 bd
       7.281751 0.032488197 6.9604526 -0.07054977
000200 12 e0 fe 3e dd 5a 8e 40 93 64 02 bd 78 eb fc c0
       0.49780327 4.4485917 -0.031834196 -7.9037437
000210 69 a2 e3 40 39 75 04 40 29 fa fd 40 20 42 21 3f
       7.1135755 2.0696547 7.936787 0.62991524
000220 be 31 8f 40 29 f8 96 40 68 90 01 c0 16 bc 83 c0
       4.474822 4.717793 -2.0244389 -4.1167097
000230 82 41 e3 40 dd 0b 2e c0 3f 76 94 40 b8 6e f1 40
       7.1017466 -2.719474 4.6394343 7.5447655
000240 32 83 3c 3f a7 26 9f c0 d1 03 c2 40 de 38 44 40
       0.7363769 -4.9734683 6.062966 3.065971
000250 3f 82 c4 bb 24 b0 1d 3f db bf b7 40 90 b0 9b 3f
       -0.005996972 0.61596894 5.74217 1.2163258
000260 a4 28 7f bd c4 f6 91 40 a4 1e 85 40 76 a7 db c0
       -0.062294617 4.5613728 4.1599903 -6.864192
000270 2c 53 85 c0 e5 3e 55 3f 7f 8e c7 40 00 92 92 40
       -4.166403 0.83299094 6.2361445 4.5803223
000280 0c e7 15 c1 44 de 00 41 95 b5 8e c0 8a 8c f8 40
       -9.368908 8.054264 -4.459666 7.7671556
000290 f9 b0 69 40 c6 95 30 c0 36 fc be 40 2b db 1d 3f
       3.6514266 -2.7591414 5.9682875 0.6166255
0002a0 9d 1f d0 c0 22 36 7e 3b 31 ea ef 40 4e b7 1b 3f
       -6.503859 0.003878959 7.497338 0.60826576
0002b0 3d bc 81 ba 18 bc 1e 3f f3 41 b5 40 94 4c 6b 40
       -0.0009898018 0.6200576 5.6643004 3.676549
0002c0 9a ca 07 bd fa bd a2 40 08 b7 e5 bc 27 ca fa 40
       -0.0331522 5.0856905 -0.028041378 7.837177
0002d0 04 75 d5 bd 45 63 82 40 8a 56 cf 40 e9 72 b2 40
       -0.104227096 4.074618 6.479314 5.576527
0002e0 b1 ad 89 40 35 bc ea 40 c2 d0 12 c0 61 c9 97 3f
       4.3024526 7.3354745 -2.2939916 1.1858331
0002f0 59 4b f4 40 1d 64 a5 40 e8 f8 74 40 c2 ac 3b bc
       7.6341977 5.168471 3.827692 -0.011454763
000300 49 63 f3 40 d6 05 f2 40 32 1d bd bf 48 5c 42 3d
       7.60587 7.5632124 -1.4774535 0.047451288
000310 9d cc 94 40 4f 7a 3f bc 15 f5 37 c1 42 f8 3f 40
       4.649977 -0.0116868755 -11.4973345 2.9995275
000320 cf af 5c 40 b6 c7 b2 40 41 0b 2c 40 58 3f 94 bd
       3.4482305 5.586879 2.688187 -0.07238644
000330 18 59 3b bf 29 5c 92 3f b5 f7 95 c0 8c 15 a4 40
       -0.7318282 1.1434375 -4.6864877 5.12763
000340 28 4c 52 3f 5c c9 c3 40 85 0a 11 3f 6a 7f 7b 40
       0.82147455 6.11833 0.56656677 3.9296517
000350 65 93 cf 3e df 9a 15 bd a6 a7 4c c0 e2 d7 2d c0
       0.4054214 -0.03652465 -3.1977324 -2.7163014
000360 36 dc d6 40 79 5d fe bc 90 5b 80 40 94 b0 3a c1
       6.714381 -0.03105043 4.011177 -11.66811
000370 29 95 34 40 cd ac 9e 40 6d 03 a1 40 f6 d5 bc 40
       2.821604 4.958594 5.031668 5.9011183
000380 b1 6e 3d 3d 94 34 9a 40 d1 c9 ca 40 f2 74 31 3f
       0.04624814 4.818918 6.337136 0.6931907
000390 48 dd 38 c0 ee b9 19 c0 26 f9 d7 40 3f c4 b4 40
       -2.888506 -2.4019732 6.7491636 5.648956
0003a0 39 1c 4d 40 6b ff 1a 3f 55 d3 79 c0 f1 97 58 3f
       3.2048476 0.60545987 -3.9035237 0.84606844
0003b0 45 29 af 40 7d 52 b9 40 13 9d de 40 9a e5 f4 40
       5.473788 5.7913194 6.956674 7.6530275
0003c0 23 08 70 3f a4 22 a7 c0 bd 35 2d 3f 76 58 76 c0
       0.93762416 -5.2229786 0.67660123 -3.8491492
0003d0 4a 08 4c 3f 40 ac aa 40 84 b4 ee 3e c0 7e d6 40
       0.7970015 5.3335266 0.46622097 6.7029724
0003e0 31 b3 e5 40 bc b3 77 40 58 7f 42 c0 0a 63 aa 40
       7.178124 3.870345 -3.0390224 5.3245897
0003f0 53 ff da 40 db 1a d3 3c 9b e3 b1 40 88 d2 92 bc
       6.8436675 0.025769642 5.559034 -0.017922655

net.4.bias f4 [4]
000000 79 2a 9a 40 3f ba 83 40 83 32 8b 40 ae ed b0 40
       4.8176847 4.116485 4.349916 5.5290136
