model heuristic NN.pth (torch, 79156 bytes, 6 tensors)

net.0.weight f4 [128, 16]
0.11112051 0.21043259 -6.7776423 0.22128864 0.017976038 0.09824784 0.45507902 0.111194864
0.10212054 -0.0286143 0.14492503 -0.21031633 0.037386093 -0.114033006 -0.11161652 -0.3566738
0.057491623 -0.0033397689 0.10133757 -0.038158353 0.017450683 -0.011092761 -0.014474162 -0.024803309
0.037903327 0.106370665 -2.870642 2.559336 0.06764236 0.08321737 0.103068635 0.05214504
0.0025927708 -0.011771705 0.091054805 -0.2585973 0.02137006 0.05864491 -2.0559278 2.0528102
0.008311143 -0.0020300227 -0.01452587 -0.0128270285 -0.009287798 -0.028683214 -0.006633356 -0.117884696
0.016639737 -0.07283365 -0.20445757 -0.07216615 0.0048669046 -0.04186769 1.8018364 -0.26088274
0.00086807203 0.053021062 -1.844061 0.19172193 0.033955175 -0.023697615 0.115191095 0.11884189
-0.0038015118 -0.015152746 1.5597309 -1.2664081 0.021855177 0.024670381 -0.18466325 0.06541009
0.0032219696 -0.01295726 -0.039894406 -0.060431223 0.015106837 0.0023394807 -0.06193389 -0.116492055
-0.05493748 0.045381106 -0.04652895 0.17161988 0.084365845 0.04737085 -0.0023835262 0.50648206
-0.18926743 -0.058569502 0.3184754 -10.519629 -0.0006158506 0.112853445 -0.20052166 1.2415928
0.18846792 0.038573347 0.08279825 -1.5394114 0.027242243 0.10749806 0.020009555 -0.5515745
0.004474583 -0.09398783 0.12872715 -0.42111117 -0.10738419 -0.17778888 0.61790425 1.2097311
0.08841147 0.0946106 -0.42876542 -0.20238324 0.014358374 -0.06354411 -0.48192176 -0.46856332
0.06881322 -0.044259142 1.7023793 -0.012542371 0.04807023 -0.08672969 -1.2554048 -0.32657188
0.14095518 0.114815414 0.07280743 0.21354641 0.009250994 0.18076734 0.15849248 0.113792256
-0.186914 0.03676638 -0.14967956 0.10656456 -0.86121553 0.056617036 -0.1591347 -0.10992198
0.009952218 0.018067027 0.0020310464 -0.0059008296 0.03987275 0.0131278355 0.06849488 -2.9305887
0.0014105167 0.03391273 -0.039299704 2.607047 -0.0016721232 -0.050431773 0.088346615 -0.13096498
0.012893926 0.0040679355 -0.006770309 -0.051924337 0.026258998 0.0048151133 -0.007788306 -0.048061382
0.07079997 0.13855067 -0.1019996 -0.29395777 0.08588844 -2.494274 2.7263503 -0.26399502
0.036339585 0.029213294 0.032948215 0.023861246 0.012724346 0.021453502 -0.0356745 0.059025045
0.0074819066 -2.2418935 0.008141084 0.027554033 -0.066635 2.3198886 -0.101159245 -0.14336863
0.040402878 0.17118348 0.018779065 0.05958456 0.19693124 0.024151674 -0.055055913 0.08991479
0.0896732 -9.30477 0.22212496 0.14027466 -0.063009135 0.8342656 -0.14750792 0.07409874
-0.039442044 0.058727734 -0.09066104 -0.3548691 -0.07116945 -0.10719614 -0.2473941 -0.094893746
0.1030678 0.046583764 1.081279 1.8404849 -0.018452872 -0.057428677 -0.46879366 -1.4176533
0.01224603 0.07513498 0.09284055 0.034327798 0.058073685 0.011719793 0.023673845 0.109629236
0.08855586 0.020363064 -2.8718886 0.32058206 -0.043154962 -0.14384176 2.3053846 -0.21087675
0.021490268 0.037614774 0.32245964 -0.20718405 0.14435309 -0.15624632 -4.80667 -4.419002
0.03715449 0.1089213 0.16346937 -0.18007414 0.056502003 9.224091e-05 0.25301635 -0.14627819
00000000: 2693 e33d a47b 573e 72e2 d8c0 7d99 623e
00000010: 7c42 933c 2a36 c93d 1e00 e93e 22ba e33d
00000020: 9324 d13d 8968 eabc 3a67 143e 2a5d 57be
00000030: 2922 193d 238a e9bd 3497 e4bd f39d b6be
00000040: 567c 6b3d 06e0 5abb 128a cf3d ef4b 1cbd
00000050: bcf4 8e3c 69be 35bc 0925 6dbc 4f30 cbbc
00000060: 8540 1b3d ddd8 d93d 99b8 37c0 29cc 2340
00000070: 1488 8a3d de6d aa3d a615 d33d 0a96 553d
00000080: 7aeb 293b 1cde 40bc f17a ba3d de66 84be
00000090: 4410 af3c a535 703d 5294 03c0 3e61 0340
000000a0: 762b 083c 210a 05bb eafd 6dbc 7528 52bc
000000b0: d92b 18bc 0ff9 eabc a05c d9bb 886d f1bd
000000c0: 0f50 883c cf29 95bd 535d 51be d9cb 93bd
000000d0: 8e7a 9f3b 747d 2bbd 93a2 e63f 6c92 85be
000000e0: 548f 633a 9d2c 593d 310a ecbf c152 443e
000000f0: 9514 0b3d 8021 c2bc 4fe9 eb3d 6063 f33d
00000100: c922 79bb 3943 78bc 43a5 c73f a919 a2bf
00000110: a109 b33c 8a19 ca3c 5d18 3dbe baf5 853d
00000120: ae27 533b b04a 54bc 5168 23bd bb86 77bd
00000130: ab82 773c f951 193b 64ae 7dbd 6393 eebd
00000140: 1f06 61bd 8ae1 393d 2495 3ebd 1fbd 2f3e
00000150: 00c8 ac3d f007 423d ef34 1cbb cfa8 013f
00000160: 52cf 41be 93e6 6fbd 350f a33e 6650 28c1
00000170: 0971 21ba b51f e73d 8d55 4dbe 83ec 9e3f
00000180: bcfd 403e 16ff 1d3d 2192 a93d 6f0b c5bf
00000190: 202b df3c f127 dc3d 14eb a33c fd33 0dbf
000001a0: 869f 923b b17c c0bd 0dd1 033e e29b d7be
000001b0: 3eec dbbd 4a0e 36be f92e 1e3f 78d8 9a3f
000001c0: 1311 b53d 34c3 c13d 2487 dbbe 8d3d 4fbe
000001d0: 633f 6b3c 6a23 82bd 73be f6be 88e7 efbe
000001e0: f2ed 8c3d 1349 35bd 91e7 d93f 847e 4dbc
000001f0: 4ae5 443d 569f b1bd 1bb1 a0bf 6e34 a7be
00000200: 8e56 103e 5824 eb3d 101c 953d e9ab 5a3e
00000210: 7b91 173c 131b 393e da4b 223e ea0b e93d
00000220: 6266 3fbe 5898 163d 9945 19be 853e da3d
00000230: 9f78 5cbf 44e7 673d 35f4 22be c61e e1bd
00000240: a10e 233c 4d01 943c 4e1b 053b bf5b c1bb
00000250: 9c51 233d 2216 573c 0b47 8c3d c48e 3bc0
00000260: 16e1 b83a 13e8 0a3d baf8 20bd dcd9 2640
00000270: 252b dbba 8c91 4ebd 12ef b43d af1b 06be
00000280: 0c41 533c 514c 853b 78d9 ddbb 9dae 54bd
00000290: 1c1d d73c 19c8 9d3b 0c35 ffbb 03dc 44bd
000002a0: 93ff 903d 3ae0 0d3e 2be5 d0bd a281 96be
000002b0: 47e6 af3d 2fa2 1fc0 867c 2e40 5b2a 87be
000002c0: d1d8 143d b850 ef3c b5f4 063d a978 c33c
000002d0: c679 503c 41bf af3c 6d1f 12bd 3fc4 713d
000002e0: c82a f53b 2f7b 0fc0 2e62 053c ffb8 e13c
000002f0: ee77 88bd 0e79 1440 942c cfbd 3acf 12be
00000300: 7d7d 253d b94a 2f3e 8ed6 993c f10e 743d
00000310: 58a8 493e bbd9 c53c 4f82 61bd 3f25 b83d
00000320: 95a6 b73d 57e0 14c1 ba74 633e 29a4 0f3e
00000330: ef0a 81bd 6e92 553f 510c 17be 15c1 973d
00000340: fb8d 21bd 7e8c 703d 7fac b9bd 67b1 b5be
00000350: 4ac1 91bd a689 dbbd e154 7dbe a757 c2bd
00000360: 3615 d33d 9ece 3e3d 5a67 8a3f 0295 eb3f
00000370: 7a2a 97bc 553a 6bbd b905 f0be aa75 b5bf
00000380: 93a3 483c 5ee0 993d 3023 be3d 4e9b 0c3d
00000390: acde 6d3d 6004 403c a7ef c13c 4b85 e03d
000003a0: c65c b53d 71d0 a63c 06cd 37c0 5523 a43e
000003b0: 42c3 30bd 414b 13be 6c8b 1340 13f0 57be
000003c0: 5c0c b03c f311 1a3d 6e19 a53e 0e28 54be
000003d0: 4cd1 133e 09ff 1fbe 3ed0 99c0 7768 8dc0
000003e0: 4e2f 183d 2112 df3d 8464 273e 5b65 38be
000003f0: a56e 673d 7671 c138 5c8b 813e f3c9 15be

net.0.bias f4 [128]
1.9949602 0.5155083 -0.438553 0.079638645 -0.05362644 0.69599026 -0.3524101 0.8550146
-0.24020879 0.52558696 -0.18857944 -0.7210812 1.2295454 -0.60132784 -0.013968342 1.6210655
1.5961335 2.0178568 2.4324687 0.09338974 0.3890908 -1.5601432 -0.039899345 -0.9252903
-0.011008855 -1.1619735 0.11877496 0.0856255 0.8218176 0.7066638 1.1880515 -0.09335354
-0.41962817 0.36332896 0.2926268 -0.29086828 2.7921765 0.45158893 0.7552165 1.7059666
1.1123616 1.9971571 2.1836245 0.85178816 1.2666624 -0.10912497 3.421309 1.1434278
-1.5305711 0.03990855 0.009844002 -2.0257452 0.8300933 -0.5447818 0.5718342 -0.40935177
1.3942862 0.6970356 -1.5043942 1.504947 0.11254462 -0.18334219 1.1729262 0.47758442
-0.07803675 -0.61814594 0.56717676 -0.30407658 1.7240648 0.9224412 1.0625886 1.3912256
-1.9971879 0.5154498 0.5846248 2.448451 0.11276573 2.2884114 0.85807836 0.034815006
-0.23055966 3.1613088 0.8416287 0.25381294 0.062112898 -0.06636824 1.2726963 1.272923
-0.724818 2.3426092 0.518425 -0.5087403 -0.924823 0.98361385 2.0604007 0.28481928
-0.6431405 -0.7717658 2.5430455 -0.025721664 1.4704999 2.487558 0.49227256 1.8534225
2.2910833 2.0666406 0.19934574 0.041897334 -0.45035136 -0.66097057 1.0013468 -0.1557187
0.7988292 0.24014427 0.153404 0.17828003 0.18606798 -1.949186 0.07654406 0.5016901
2.3721356 0.4227166 0.055867504 -0.23957393 1.6860138 0.52570975 0.23585457 3.3157866
00000000: db5a ff3f 5af8 033f 058a e0be 9619 a33d
00000010: 66a7 5bbd 6b2c 323f 196f b4be 3de2 5a3f
00000020: 4bf9 75be de8c 063f f81a 41be c798 38bf
00000030: be61 9d3f 9ff0 19bf 79db 64bc 137f cf3f
00000040: 1a4e cc3f 9124 0140 91ad 1b40 1f43 bf3d
00000050: e936 c73e c6b2 c7bf 7f6d 23bd d3df 6cbf
00000060: 7c5e 34bc 8cbb 94bf 4940 f33d 6c5c af3d
00000070: a362 523f ebe7 343f 1212 983f 2430 bfbd
00000080: 81d9 d6be 4106 ba3e 2ed3 953e b0ec 94be
00000090: 05b3 3240 aa36 e73e de55 413f 1d5d da3f
000000a0: dd61 8e3f d8a2 ff3f 81c0 0b40 ca0e 5a3f
000000b0: fe21 a23f ea7c dfbd baf6 5a40 d85b 923f
000000c0: c1e9 c3bf 2677 233d bd48 213c cfa5 01c0
000000d0: ff80 543f d276 0bbf ba63 123f 8e96 d1be
000000e0: f877 b23f ed70 323f fd8f c0bf 1aa2 c03f
000000f0: cb7d e63d 0ebe 3bbe 7222 963f f285 f43e
00000100: bbd1 9fbd d03e 1ebf 7f32 113f edaf 9bbe
00000110: 28ae dc3f 1b25 6c3f e702 883f ae13 b23f
00000120: daa3 ffbf 85f4 033f f9a9 153f 6cb3 1c40
00000130: b8f1 e63d 5575 1240 06ab 5b3f 2e9a 0e3d
00000140: d517 6cbe e252 4a40 fa74 573f c5f3 813e
00000150: 186a 7e3d 12ec 87bd b6e7 a23f 24ef a23f
00000160: ac8d 39bf 4fed 1540 80b7 043f ce3c 02bf
00000170: 33c1 6cbf 1ece 7b3f 9bdd 0340 d5d3 913e
00000180: dba4 24bf 7292 45bf 42c1 2240 3db6 d2bc
00000190: 5739 bc3f 2634 1f40 260b fc3e f33c ed3f
000001a0: 1ca1 1240 d743 0440 4a21 4c3e 8a9c 2b3d
000001b0: 7494 e6be 5e35 29bf 222c 803f b974 1fbe
000001c0: 1280 4c3f 61e8 753e f015 1d3e 0a8f 363e
000001d0: 9b88 3e3e ed7e f9bf 22c3 9c3d c36e 003f
000001e0: 12d1 1740 4f6e d83e 53d5 643d de52 75be
000001f0: 4dcf d73f ea94 063f dc83 713e d935 5440

net.2.weight f4 [128, 128]
0.044655636 0.05502409 -0.07035 -0.08538203 -0.058481716 -0.06279724 0.03552555 -0.027432648
-0.094323985 0.0163077 -0.0033153393 -0.0056542438 -0.086050116 0.03553512 -0.09749691 -0.09093616
0.038511284 0.02033091 -0.026964197 -0.12244391 0.027977929 0.025195893 -0.06132835 -0.00031169163
-0.07171366 0.0031591451 0.02732499 -0.012507934 -0.046114154 -0.07579154 -0.12425362 -0.040595647
-0.012761128 -0.074284405 0.053559303 -0.046243533 -0.026887184 -0.010517214 -0.013399419 -0.049888283
-0.10155512 -0.035790794 -0.06505842 -0.047662873 -0.10009857 -0.08123199 -0.04718688 -0.022432417
-0.10814112 -0.04774627 -0.07001442 -0.056646414 -0.0648033 0.005290207 -0.011814911 -0.087984934
-0.026988197 -0.12694465 0.020588633 -0.07134355 -0.09370347 -0.12891626 -0.073814586 0.03873726
0.01796286 -0.08160483 -0.1117357 -0.0110598365 0.02752769 -0.07160266 -0.0534289 -0.030097404
0.018887322 -0.005115929 -0.06501772 -0.011632711 -0.0055807773 -0.04088029 0.066647336 -0.038892716
0.065000586 -0.044690564 -0.12162235 -0.018155225 0.055808652 0.016739298 -0.025391905 -0.03408669
-0.015677903 -0.0846592 -0.06104432 -0.10201905 -0.03272624 -0.025895974 0.030876914 0.030058643
-0.12638664 -0.058592353 -0.07219255 -0.06230035 -0.10146753 -0.067140274 0.052791785 0.03629627
0.011555613 0.010377511 0.019865176 -0.117670506 -0.074682675 -0.101154275 -0.09812744 0.022279749
-0.05458508 -0.04035652 0.028073687 0.030529017 -0.104032815 -0.14549991 0.0032419069 -0.06493972
-0.02351075 -0.076092236 -0.051959895 0.001074119 -0.038480256 -0.01986668 -0.009787839 0.019761685
-0.033481285 0.47130355 -1.0190237 -0.022426696 0.33102772 0.016340634 0.51795214 1.5684559
0.053322542 0.28278184 -0.2520698 1.3441305 -1.8194231 -0.62284195 0.5144744 0.3050837
-0.40314627 -0.39403126 0.7277223 0.31571066 0.17419526 -0.2601366 0.5928278 -0.88817567
0.05720285 0.08906749 -0.53541493 0.0669273 -0.86919504 0.54195434 0.44024596 0.5733059
-1.1931404 0.63705623 -0.051407922 -0.12927727 -0.0963159 -0.97046214 -1.0617658 -0.7649055
-0.49893278 0.6765337 0.6723402 -0.62705314 0.4552657 -0.80516624 0.33694896 1.4845601
0.4072516 -0.12481649 0.726973 -0.40405327 0.047744334 0.32801706 -0.172048 -0.4490299
0.029291227 0.93417215 -0.8159465 1.1991862 -0.29797062 -0.4204438 -0.9455292 0.14288956
1.2807635 0.04997036 -0.9864954 0.102833994 1.9075091 -0.5719807 -0.21862283 0.0137739545
-0.13351141 0.6622627 -0.94423664 0.41888016 0.9274023 0.60608476 0.030636093 -0.7248622
-0.3552153 -0.40691215 0.89929354 0.81464624 -0.17750408 -0.052712597 -0.89353144 -0.63035244
-0.33909234 0.17334092 -0.02583846 0.010954854 -0.12356266 -0.0040391083 0.23703775 0.6249159
0.09319593 -0.25758308 0.18416661 0.29001036 -0.6232002 -0.10566269 0.5365672 0.13541615
0.25405452 -0.5514449 0.67355025 0.45907733 -0.56977826 -0.31860378 0.4712258 -0.8362411
-0.46729103 0.011286559 0.640538 0.20579873 -0.9824396 -0.2801676 0.119893394 0.4711146
1.0327847 -1.1924669 -0.42416984 -1.0173857 0.12543038 0.52061015 -0.12166669 -1.1367351
00000000: d4e8 363d f160 613d a913 90bd c6dc aebd
00000010: 868a 6fbd d79b 80bd 3d83 113d 6fba e0bc
00000020: ef2c c1bd ba97 853c 2a46 59bb 3c47 b9bb
00000030: 0b3b b0bd 468d 113d 76ac c7bd bd3c babd
00000040: 02be 1d3d 028d a63c 05e4 dcbc dfc3 fabd
00000050: f831 e53c 9e67 ce3c 7033 7bbd 8b6a a3b9
00000060: 9dde 92bd a909 4f3b a8d8 df3c 14ee 4cbc
00000070: 32e2 3cbd 9838 9bbd af78 febd 9f47 26bd
00000080: 0d14 51bc 6c22 98bd 0061 5b3d dc69 3dbd
00000090: 8342 dcbc 6550 2cbc 3d89 5bbc a857 4cbd
000000a0: 21fc cfbd 5e99 12bd 593d 85bd 253a 43bd
000000b0: 7b00 cdbd f55c a6bd 0847 41bd 30c4 b7bc
000000c0: 1779 ddbd 9891 43bd b863 8fbd 1206 68bd
000000d0: 98b7 84bd 7959 ad3b 5493 41bc 7231 b4bd
000000e0: 5a16 ddbc c7fd 01be 7ea9 a83c 911c 92bd
000000f0: 9be7 bfbd a002 04be 1a2c 97bd f6aa 1e3d
00000100: d926 933c 6f20 a7bd b0d5 e4bd 5134 35bc
00000110: c081 e13c 6aa4 92bd 43d8 5abd d58e f6bc
00000120: 96b9 9a3c 86a3 a7bb 0328 85bd 2097 3ebc
00000130: f4de b6bb 1772 27bd 667e 883d f84d 1fbd
00000140: 071f 853d 740d 37bd 2315 f9bd 44ba 94bc
00000150: 9d97 643d da20 893c af02 d0bc 7c9e 0bbd
00000160: f26e 80bc cd61 adbd 9c09 7abd 5def d0bd
00000170: f30b 06bd cb23 d4bc 95f1 fc3c 8b3d f63c
00000180: 806b 01be 89fe 6fbd b0d9 93bd a72e 7fbd
00000190: 35ce cfbd d780 89bd 333c 583d 66ab 143d
000001a0: c153 3d3c 7006 2a3c 4bbc a23c 3cfd f0bd
000001b0: 3bf3 98bd f929 cfbd 0af7 c8bd 0584 b63c
000001c0: 9b94 5fbd e14c 25bd cafa e53c fd17 fa3c
000001d0: 280f d5bd eefd 14be 2c76 543b 1eff 84bd
000001e0: 9e99 c0bc 3fd6 9bbd e6d3 54bd 74c9 8c3a
000001f0: 799d 1dbd 73bf a2bc 2c5d 20bc 42e3 a13c
00000200: ac23 09bd b34e f13e 5e6f 82bf 31b8 b7bc
00000210: 777c a93e cbdc 853c 8398 043f 2ac3 c83f
00000220: bd68 5a3d c8c8 903e 4b0f 81be 780c ac3f
00000230: dbe2 e8bf 9272 1fbf 98b4 033f ee33 9c3e
00000240: 3069 cebe 77be c9be 024c 3a3f d4a4 a13e
00000250: 3e60 323e a030 85be 90c3 173f 7b5f 63bf
00000260: 894d 6a3d 0469 b63d f410 09bf 2e11 893d
00000270: 9183 5ebf 85bd 0a3f eb67 e13e 2dc4 123f
00000280: d3b8 98bf 1e16 233f 1d91 52bd 4361 04be
00000290: 4541 c5bd 3570 78bf f1e7 87bf d9d0 43bf
000002a0: 1e74 ffbe 5031 2d3f 7d1e 2c3f 8e86 20bf
000002b0: 9618 e93e 601f 4ebf 9384 ac3e 1106 be3f
000002c0: 4883 d03e ca9f ffbd e71a 3a3f 12e0 cebe
000002d0: 908f 433d daf1 a73e 5a2d 30be 3fe7 e5be
000002e0: 28f4 ef3c e825 6f3f dfe1 50bf ef7e 993f
000002f0: 9b8f 98be 6944 d7be 340e 72bf a451 123e
00000300: 0ff0 a33f b8ad 4c3d f68a 7cbf a19a d23d
00000310: 4229 f43f 546d 12bf aade 5fbe 27ac 613c
00000320: 37b7 08be 0c8a 293f 7eb9 71bf 7677 d63e
00000330: 3d6a 6d3f 5f28 1b3f 8bf8 fa3c 9290 39bf
00000340: c8de b5be ca56 d0be 1a38 663f a88c 503f
00000350: a1c3 35be 2ae9 57bd 7abe 64bf c75e 21bf
00000360: 839d adbe 4880 313e 2eab d3bc fd7b 333c
00000370: 6b0e fdbd 7f5a 84bb 06ba 723e 7dfa 1f3f
00000380: 82dd be3d eee1 83be 2c96 3c3e 3d7c 943e
00000390: 0c8a 1fbf ae65 d8bd 785c 093f 88aa 0a3e
000003a0: 6f13 823e 7e2b 0dbf ca6d 2c3f 2f0c eb3e
000003b0: fddc 11bf 0920 a3be 8244 f13e e613 56bf
000003c0: c540 efbe 42eb 383c 4cfa 233f e7bc 523e
000003d0: 2981 7bbf 2172 8fbe ab8a f53d ef35 f13e
000003e0: 4a32 843f c1a2 98bf ca2c d9be b239 82bf
000003f0: d270 003e b546 053f 632c f9bd 8980 91bf

net.2.bias f4 [128]
-0.08301854 -0.21753244 -2.155415 -0.08911691 0.1901321 2.0234165 1.1061995 1.2397678
1.436469 2.1502802 1.0935706 0.5569379 1.0993272 0.49107435 1.5469502 0.64313823
-0.34725258 2.0849915 -1.3236333 1.2045679 -0.93557125 -1.1571414 -0.037162937 0.6809925
-0.47197273 1.4228661 0.5420537 1.00373 0.3550407 -0.7741186 1.3494135 1.3656894
0.10710406 -0.11093145 0.17792651 -0.15312696 1.3072295 0.2635119 0.82690626 1.5689114
-0.61940384 -1.2625651 -0.23023137 -0.08247485 1.2450656 2.048699 1.5818894 2.107985
0.19533092 -0.34617737 -1.7217127 0.9880934 1.6556312 0.15892185 1.0117682 2.4429414
2.193027 1.5518055 0.5452064 1.1545441 0.6272784 0.984947 1.1652036 -0.2417213
0.021197906 2.0714104 -1.2544914 -0.06747134 0.75406617 -1.1609423 0.7837838 2.3938415
0.08526974 -0.36016956 1.0028238 0.1269182 -0.33920428 -0.50414187 1.5231886 0.051700514
0.3094653 -1.4860251 -0.201683 0.5896129 -0.08038982 -1.9711629 1.3784453 1.16522
-0.43050674 0.6305813 0.86570233 0.5230878 0.06187226 -0.80442566 0.4504353 1.2647243
1.3391855 -1.2114776 1.8477775 -0.025201397 -1.1116058 -0.5762476 0.55275726 0.21360745
-0.6053441 -1.8238983 -0.3612402 1.1314582 0.61497855 2.5646398 -0.63711476 -0.30887127
0.5731629 1.1305557 -0.3028355 -1.1489115 1.2194183 1.5958341 0.10563202 -0.3104666
-0.48472407 1.4386201 0.9536287 -0.12161236 0.41853353 0.011105982 1.5787622 -0.66117835
00000000: a005 aabd d3c0 5ebe 52f2 09c0 ed82 b6bd
00000010: fdb1 423e a87f 0140 f297 8d3f b6b0 9e3f
00000020: 37de b73f 319e 0940 1ffa 8b3f 7b93 0e3f
00000030: c1b6 8c3f 196e fb3e 7702 c63f b5a4 243f
00000040: 17cb b1be 8070 0540 d16c a9bf 482f 9a3f
00000050: 9981 6fbf 361d 94bf 2a38 18bd 8655 2e3f
00000060: 69a6 f1be 7a20 b63f 08c4 0a3f 3a7a 803f
00000070: e5c7 b53e a32c 46bf 95b9 ac3f e9ce ae3f
00000080: 6059 db3d 0730 e3bd 5e32 363e 50cd 1cbe
00000090: 4c53 a73f 08eb 863e 21b0 533f 17d2 c83f
000000a0: 4091 1ebf bc9b a1bf c6c1 6bbe 93e8 a8bd
000000b0: 4f5e 9f3f e21d 0340 5a7b ca3f 3ae9 0640
000000c0: d404 483e 293e b1be 1561 dcbf b0f3 7c3f
000000d0: b9eb d33f 69bc 223e 9f81 813f 2759 1c40
000000e0: 8e5a 0c40 90a1 c63f a692 0b3f 1ac8 933f
000000f0: 5195 203f 7d25 7c3f 6425 953f ca85 77be
00000100: 3ba7 ad3c fd91 0440 2d93 a0bf 6a2e 8abd
00000110: 7b0a 413f c299 94bf 0ea6 483f b334 1940
00000120: e7a1 ae3d 2568 b8be 885c 803f d8f6 013e
00000130: 2fac adbe 710f 01bf d8f7 c23f ebc3 533d
00000140: 3c72 9e3e 1236 bebf fd85 4ebe dff0 163f
00000150: 6ba3 a4bd 114f fcbf e570 b03f ee25 953f
00000160: 616b dcbe c76d 213f ab9e 5d3f 15e9 053f
00000170: c46d 7d3d d7ee 4dbf 759f e63e 7ce2 a13f
00000180: 6e6a ab3f b311 9bbf f983 ec3f 2973 cebc
00000190: 1949 8ebf f684 13bf 8081 0d3f e9bb 5a3e
000001a0: d5f7 1abf 8075 e9bf 7af4 b8be 9fd3 903f
000001b0: 3c6f 1d3f 0f23 2440 f419 23bf 6024 9ebe
000001c0: ceba 123f 0db6 903f 410d 9bbe 880f 93bf
000001d0: e615 9c3f 4b44 cc3f 9a55 d83d 7af5 9ebe
000001e0: c12d f8be b424 b83f 0321 743f e70f f9bd
000001f0: 074a d63e ddf5 353c e114 ca3f fc42 29bf

net.4.weight f4 [4, 128]
-0.05850104 0.07194094 1.1757548 -0.92463315 -0.50305 -0.06875663 -0.09454747 -0.019947732
-0.42926672 -0.06350238 0.11991956 0.09178889 -0.20821632 0.09657479 -0.2975074 -0.25534838
-0.20851684 0.27986065 0.13375513 0.03174805 0.37778085 1.707146 -0.0066121626 -0.27911094
0.0048269094 0.13345514 0.33561048 0.17528419 0.1715405 -0.24283502 -0.21851945 0.10344101
0.19909492 -0.8364027 -0.11600732 0.037782915 0.0100080045 0.03504925 -0.10379921 -0.6368393
0.24448785 1.3515573 -0.31308782 0.50396144 0.099720016 0.07880074 -0.30308396 0.06463938
0.14397639 -0.11308446 -0.10252657 0.13315748 0.70587194 -0.14462838 -0.71055603 -0.028155781
0.47224444 0.038081996 -0.028829018 -0.07798911 0.22961874 1.4704539 -0.021599118 0.06929144
0.027769225 -0.46678036 0.08004745 -0.03686719 -0.1031242 1.2309003 -0.255764 -0.21918444
0.04749115 0.006362097 -0.17399764 0.42395812 0.12597564 0.10158278 -0.16751902 0.36932814
0.1631409 -0.49810565 -0.65577483 -1.0145577 0.007167334 0.1704048 -0.019819615 0.20185637
-0.95976627 -0.03595558 0.15302898 -0.13246994 0.1489855 0.14372124 0.2337862 -0.137689
-0.09998556 -1.1245143 -0.6123538 -0.21263061 0.0066003073 0.077469245 0.35321066 0.10273409
0.1766626 0.16633949 -0.019150116 0.18411423 -0.07305906 0.14621046 -4.892682 -0.095005184
-0.17907712 0.04192427 -1.4282352 -0.12546954 -0.1637263 1.0183972 -0.4094753 -0.20942646
-0.07698429 0.16790272 -0.08565044 -0.16094764 -0.5123083 -0.042519037 -0.18295339 0.25111064
-0.024263496 -0.0039879116 1.1403377 0.52727777 0.24800383 0.0052053574 -0.14634041 -0.039574716
-0.4848672 -0.07658148 -0.060680788 -0.0060589304 -0.23193353 0.09457742 0.057654202 -0.029218774
-0.14998095 -0.11566251 -2.3031 -0.006944083 -0.22167623 1.6686994 -0.08225057 -0.4153703
-0.16567568 0.04830875 0.21081801 -0.15060793 -0.021272194 0.040766634 0.010115185 0.108268365
0.64902467 0.39118603 -0.06550551 -0.07751493 -0.35783848 0.18422458 0.08098563 -0.70094436
0.27270105 1.5224812 -0.12242242 0.528332 0.060556885 -0.008393782 -0.15284477 -0.31429276
0.13720115 0.26061764 -0.0881077 0.15589038 0.06188952 0.11499781 0.53315276 0.17430164
-0.61841923 -0.021116976 0.021626836 0.096607365 0.01988392 -1.1775945 -0.22164688 0.062433455
0.04529307 0.6438131 0.036678378 0.051662266 -0.06415331 -5.525795 -0.07511039 0.053915963
-0.6184193 -0.51114696 0.038881183 -0.26472905 -0.04756692 -0.024055833 -0.19519366 -0.4109474
0.016405692 0.53833437 -0.68021524 0.5694244 -0.5279977 -0.6538624 -0.25898817 0.21807006
-1.0404928 0.04099713 0.07256744 -0.17805801 0.15897094 0.06615982 0.31546023 -0.06812315
0.07324066 0.76703334 -0.43704823 0.058484126 -0.9116012 0.008181449 0.26826128 -0.13793093
0.13180552 -0.53663534 -0.26677397 0.3253857 0.062938 0.07001012 1.0303915 -0.06771472
-0.1884886 -0.04409528 0.93343586 0.67693603 -0.38861805 -0.75115293 -0.1814878 0.10095584
0.14927436 -0.31400004 -0.101754405 -0.17105155 1.0441242 -0.06356266 -0.024183346 -0.4096789
00000000: c99e 6fbd c655 933d 227f 963f c2b4 6cbf
00000010: e3c7 00bf 47d0 8cbd 1ba2 c1bd 6d69 a3bc
00000020: d9c8 dbbe 890d 82bd 6398 f53d d0fb bb3d
00000030: a936 55be 01c9 c53d e452 98be 06bd 82be
00000040: 7085 55be e549 8f3e 1bf7 083e 3e0a 023d
00000050: 7e6c c13e c383 da3f d7aa d8bb a1e7 8ebe
00000060: 0d2b 9e3b 77a8 083e 23d5 ab3e b37d 333e
00000070: 50a8 2f3e bea9 78be 90c3 5fbe e1d8 d33d
00000080: 8adf 4b3e 7d1e 56bf 3f95 edbd 42c2 1a3d
00000090: 9df8 233c cd8f 0f3d ae94 d4bd e607 23bf
000000a0: 065b 7a3e d4ff ac3f 0c4d a0be 9e03 013f
000000b0: 023a cc3d 4862 a13d d22d 9bbe a761 843d
000000c0: 8c6e 133e d398 e7bd 73f9 d1bd 6f5a 083e
000000d0: 06b4 343f 7619 14be 00e7 35bf f4a6 e6bc
000000e0: 06ca f13e defb 1b3d d52a ecbc c1b8 9fbd
000000f0: 2d21 6b3e d537 bc3f a2f0 b0bc ace8 8d3d
00000100: 497c e33c d6fd eebe ebef a33d 0d02 17bd
00000110: c832 d3bd 248e 9d3f 80f3 82be e371 60be
00000120: 1586 423d 2379 d03b 702c 32be 0a11 d93e
00000130: c2ff 003e a20a d03d 1b8a 2bbe 9418 bd3e
00000140: 680e 273e b407 ffbe dce0 27bf 07dd 81bf
00000150: f5db ea3b 997e 2e3e bf5c a2bc 70b3 4e3e
00000160: 3eb3 75bf 2946 13bd a1b3 1c3e 33a6 07be
00000170: a88f 183e a92b 133e a665 6f3e 58fe 0cbe
00000180: 3bc5 ccbd 16f0 8fbf 38c3 1cbf d7bb 59be
00000190: 6447 d83b 32a8 9e3d 07d8 b43e 4066 d23d
000001a0: 0ae7 343e e654 2a3e b4e0 9cbc 7188 3c3e
000001b0: fd9f 95bd 32b8 153e da90 9cc0 1492 c2bd
000001c0: fe5f 37be c9b8 2b3d 69d0 b6bf 167b 00be
000001d0: dea7 27be d75a 823f bfa6 d1be e473 56be
000001e0: f0a9 9dbd b1ee 2b3e 7f69 afbd 75cf 24be
000001f0: a326 03bf 7128 2ebd 2258 3bbe 9391 803e
00000200: 3dc4 c6bc 07ad 82bb 96f6 913f adfb 063f
00000210: b7f4 7d3e b491 aa3b 43da 15be 1919 22bd
00000220: 8340 f8be c0d6 9cbd 6b8c 78bd fe89 c6bb
00000230: fc7f 6dbe ceb1 c13d d026 6c3d 365c efbc
00000240: 9b94 19be 77e0 ecbd fe65 13c0 318b e3bb
00000250: 18ff 62be f197 d53f fd72 a8bd 6aab d4be
00000260: e3a6 29be 65df 453d ade0 573e f738 1abe
00000270: 0643 aebc eafa 263d 29ba 253c cebb dd3d
00000280: 7b26 263f 8949 c83e c127 86bd 26c0 9ebd
00000290: 9b36 b7be 5ea5 3c3e cbdb a53d 1771 33bf
000002a0: 799f 8b3e aae0 c23f 9bb8 fabd c440 073f
000002b0: 7f0a 783d 1386 09bc 5783 1cbe fbea a0be
000002c0: 757e 0c3e ad6f 853e cf71 b4bd baa1 1f3e
000002d0: de7f 7d3d f983 eb3d b37c 083f 217c 323e
000002e0: b950 1ebf 82fd acbc c32a b13c 15da c53d
000002f0: 9ae3 a23c 6bbb 96bf 66f7 62be 39ba 7f3d
00000300: 3a85 393d efd0 243f 113c 163d d09b 533d
00000310: d062 83bd 50d3 b0c0 7ad3 99bd fcd6 5c3d
00000320: ba50 1ebf 87da 02bf e041 1f3d 918a 87be
00000330: 88d5 42bd bd10 c5bc d9e0 47be b367 d2be
00000340: 3b65 863c 48d0 093f 9622 2ebf ccc5 113f
00000350: db2a 07bf 8763 27bf 199a 84be c24d 5f3e
00000360: de2e 85bf 9bec 273d 3d9e 943d d754 36be
00000370: 47c9 223e cd7e 873d 0184 a13e 2684 8bbd
00000380: 33ff 953d 4c5c 443f c9c4 dfbe 0d8d 6f3d
00000390: b25e 69bf 7c0b 063c 8b59 893e c43d 0dbe
000003a0: 07f8 063e ef60 09bf 9996 88be f498 a63e
000003b0: a3e5 803d 7761 8f3d dee3 833f 04ae 8abd
000003c0: 2803 41be 419d 34bd a7f5 6e3f ae4b 2d3f
000003d0: f2f8 c6be 8f4b 40bf f0d7 39be efc1 ce3d
000003e0: 61db 183e 9dc4 a0be 9d64 d0bd 2328 2fbe
000003f0: dda5 853f 242d 82bd 271c c6bc 6fc1 d1be

net.4.bias f4 [4]
0.59323037 -0.18225583 -0.2712688 -0.11105341
00000000: f2dd 173f 46a1 3abe bfe3 8abe f86f e3bd
