model - Copy.pth (torch, 48338 bytes, 12 tensors)

q_net.q_net.0.weight f4 [64, 16]
0	0xbd4270c3	-0.04747082
1	0x3dbec57d	0.09315012
2	0xbde1cd83	-0.110255264
3	0x3e6c24b2	0.23060873
4	0x3d93816e	0.07202421
5	0x3dac9d8f	0.084284894
6	0xbe6270ae	-0.22113296
7	0x3e54a7e5	0.20767172
8	0x3cce3635	0.025172332
9	0x3dd5fe47	0.1044889
10	0x3e30f607	0.17281352
11	0xbe197386	-0.14985475
12	0x3d6f7604	0.058462158
13	0xbe49afd5	-0.19695981
14	0x3c39edb2	0.011348175
15	0x3d097a2e	0.033563785
16	0x3e10150b	0.14070527
17	0xbe236008	-0.15954602
18	0xbe6c584a	-0.23080555
19	0xbe13d388	-0.14436162
20	0x3e78855a	0.2426962
21	0xbe8bdac7	-0.2731535
22	0x3e09caf8	0.13456333
23	0x3e64a649	0.22329058
24	0x3e319ff9	0.17346181
25	0x3d621eaf	0.055205043
26	0x3e1c57b4	0.15267831
27	0x3d49e294	0.049288347
28	0xbd87cd10	-0.066309094
29	0xbe0ac5a8	-0.13551962
30	0xbe2d9559	-0.16951503
31	0xbe72c2f4	-0.23707181
32	0xbe51100f	-0.20416282
33	0xbe4c1d53	-0.19933061
34	0xbd89742e	-0.06711613
35	0xbd47f25c	-0.048815116
36	0xbe873c56	-0.2641322
37	0xbd103d8a	-0.03521494
38	0xbd0c4977	-0.03424975
39	0xbba3a405	-0.004993918
40	0xbe3306b6	-0.17483029
41	0x3de77826	0.11302213
42	0x3e9703fd	0.2949523
43	0xbba2eb2a	-0.0049718814
44	0x3d5025ff	0.050817486
45	0xbd36757d	-0.04454564
46	0x3e9ede02	0.31028754
47	0x3e4967e3	0.19668536
48	0xbd7fcd3d	-0.06245159
49	0xbd8eec76	-0.06978695
50	0xbde04dc2	-0.10952331
51	0xbdd81e4c	-0.10552654
52	0xbe480c89	-0.19536032
53	0x3cb6d29f	0.022317229
54	0x3e24cda1	0.16094066
55	0x3ce2f253	0.02770344
56	0xbd989c77	-0.07451718
57	0xbd4b0196	-0.04956206
58	0x3e9b060f	0.3027806
59	0x3e0fa69f	0.14028405
60	0xbcfc648e	-0.030809667
61	0xbe20c832	-0.15701368
62	0x3cd5477f	0.026035069
63	0xbe4718eb	-0.19443099
64	0xbe423f90	-0.1896956
65	0xbe59b85d	-0.21261735
66	0x3da91bea	0.08257277
67	0xbd4c15b6	-0.049825393
68	0x3e1a5cb5	0.15074427
69	0x3e047984	0.1293698
70	0xbebfbef7	-0.37450382
71	0x3e144e0a	0.14482895
72	0xbddfd83e	-0.10929917
73	0x3ded19ea	0.11577208
74	0x3da003e1	0.0781324
75	0x3e4b1bc8	0.19834816
76	0x3d409a1a	0.047021963
77	0xbe2c9ba4	-0.16856247
78	0x3dda438c	0.10657415
79	0xbd0acb3e	-0.033885233
80	0x3ec655a5	0.38737217
81	0x3e92730a	0.28603393
82	0x3e8ea615	0.27861086
83	0x3e713649	0.23555864
84	0x3e43f316	0.19135699
85	0x3d9cc93c	0.0765557
86	0x3e618420	0.22023058
87	0x3e95a776	0.29229325
88	0x3e8f2d04	0.27964032
89	0x3de45bd9	0.11150331
90	0x3dfca17e	0.1233549
91	0x3d829ba3	0.063773416
92	0x3d5ea398	0.054355234
93	0x3e82f96b	0.25580916
94	0x3e3f372f	0.18673395
95	0x3d20251c	0.03909789
96	0x3e0a9b82	0.13535884
97	0xbd789377	-0.06068751
98	0x3d0f34e9	0.03496257
99	0xbdc6e634	-0.097118765
100	0x3e2289e4	0.15872914
101	0xbde55fdc	-0.11199924
102	0xbc84d39d	-0.016214186
103	0x3d5a3ab0	0.053278625
104	0xbe767b12	-0.24070385
105	0xbe8622fc	-0.26198566
106	0x3e18ad56	0.14909872
107	0xbe8e0c24	-0.27743638
108	0x3e2770e0	0.16351652
109	0xbe064b46	-0.13114652
110	0x3dd377f5	0.10325614
111	0x3e9f0f36	0.31066293
112	0x3c672927	0.014108933
113	0xbe0311bf	-0.12799738
114	0xbe8e785a	-0.27826196
115	0xbe8a99e9	-0.2707055
116	0xbda61a80	-0.08110523
117	0x3e4f6be9	0.20256008
118	0xbd3b47e2	-0.04572285
119	0xbd544ce2	-0.051831134
120	0x3e46498f	0.19363998
121	0x3d942024	0.07232693
122	0x3dd95b10	0.10613072
123	0x3dc94ba1	0.09828878
124	0x3e1e077d	0.15432544
125	0xbd97fb3e	-0.074209675
126	0xbe837032	-0.25671536
127	0x3e52b960	0.20578527
128	0x3da64ef6	0.08120529
129	0x3d833eb0	0.06408441
130	0x3e2ec0a9	0.17065682
131	0xbd806c15	-0.06270615
132	0xbe39a759	-0.18130244
133	0xbe202168	-0.15637743
134	0xbd4e0d6b	-0.050305765
135	0xbda89ed3	-0.08233418
136	0x3d2f209f	0.04275572
137	0x3c95ea6f	0.018300263
138	0xbdd28357	-0.10278957
139	0xbe41b67a	-0.18917266
140	0x3e546495	0.20741494
141	0x3e7c3187	0.24628268
142	0x3cdd5a2d	0.027020538
143	0x3c0797e8	0.008275963
144	0x3da0f292	0.078587666
145	0xbe156ecc	-0.14593047
146	0xbd829f4b	-0.06378039
147	0xbd419d1a	-0.047268964
148	0x3db298df	0.08720564
149	0xbd4b499b	-0.049630743
150	0x3d86a48d	0.06574354
151	0x3e1efd8e	0.15526411
152	0xbd5039e2	-0.05083645
153	0x3e2afcea	0.16698042
154	0xbec87598	-0.39152217
155	0x3e99014b	0.298838
156	0xbc7419a5	-0.014898692
157	0xbd0278e3	-0.031853568
158	0xbe791acc	-0.24326628
159	0xbc01f850	-0.0079327375
160	0x3d6f3a33	0.058405112
161	0xbd9c93b6	-0.07645361
162	0x3caad231	0.02085218
163	0xbe4f952c	-0.20271748
164	0xbdba5943	-0.090990566
165	0x3e802b77	0.2503316
166	0x3de07570	0.109598994
167	0x3dcc7873	0.09983911
168	0xbe397eda	-0.18114796
169	0xbe0a62bc	-0.13514227
170	0xbda27ce7	-0.079339795
171	0xbdb752fd	-0.08951376
172	0x3c1ea96c	0.009683948
173	0xbe24a2c5	-0.16077717
174	0x3dd32c8e	0.103112325
175	0x3d968dab	0.0735124
176	0xbe03ab2b	-0.12858264
177	0x3d87baca	0.06627424
178	0xbdb2f6a5	-0.0873845
179	0xbe233483	-0.15938
180	0x3d9a6541	0.07538844
181	0x3e37ce66	0.17949829
182	0x3e519277	0.20466028
183	0x3e0decbc	0.13859838
184	0xbd5dc27e	-0.05414056
185	0xbd89a959	-0.067217536
186	0xbe6e5a6a	-0.23276678
187	0x3e9608d1	0.293036
188	0x3d740f0b	0.05958466
189	0xbc244624	-0.010026488
190	0xbdf58bce	-0.11989556
191	0x3e5a422d	0.21314307
192	0x3ded1731	0.11576689
193	0x3e20d6c3	0.15706925
194	0xbd093a4b	-0.033502858
195	0x3d983f13	0.074339055
196	0x3d052010	0.03250128
197	0xbde7aa89	-0.11311824
198	0x3d2b4244	0.041811243
199	0xbde6f939	-0.11278004
200	0xbe3f6d86	-0.18694124
201	0x3d59b22c	0.053148434
202	0x3e39bcb7	0.18138395
203	0x3d4961d0	0.049165547
204	0x3e2ba2dc	0.16761345
205	0x3d240809	0.040046725
206	0xbe65547a	-0.22395507
207	0x3e57e77a	0.21084395
208	0xbc295cc8	-0.010337062
209	0xbe0ce150	-0.13757825
210	0x3e542a83	0.20719342
211	0x3eaf0728	0.34185147
212	0x3e268263	0.16260676
213	0x3e33992f	0.17538904
214	0xbd0f7c6c	-0.035030767
215	0x3e08a22f	0.13343118
216	0xbe85a079	-0.26098993
217	0x3da32ce8	0.079675496
218	0xbdccc4bc	-0.099984616
219	0xbd9f44d9	-0.077768035
220	0xbe8670eb	-0.26258025
221	0xbdcae0c0	-0.09906149
222	0xbee2b64f	-0.44279715
223	0x3d7c44a5	0.061588902
224	0x3e066616	0.1312488
225	0xbe97a116	-0.29615086
226	0xbe044459	-0.12916698
227	0x3da7a40c	0.08185586
228	0xbc4ffccd	-0.01269455
229	0xbdf02b6c	-0.11727032
230	0xbd96eacf	-0.07369005
231	0x3da82e98	0.08212012
232	0x3e65d01b	0.22442667
233	0x3dee3ac7	0.11632305
234	0x3d8b2920	0.06794953
235	0x3e123ec7	0.1428176
236	0xbd65a042	-0.056061037
237	0x3d882f76	0.066496775
238	0xbe4e7454	-0.20161563
239	0x3dfc3149	0.12314088
240	0x3d10a22c	0.03531091
241	0x3d1d54ff	0.038411137
242	0xbdd7ea9d	-0.10542796
243	0x3bb488ab	0.005509456
244	0xbd70d119	-0.05879316
245	0x3c77c076	0.01512157
246	0xbcd6ae31	-0.026206108
247	0xbe14319e	-0.14472052
248	0xbd6f471b	-0.05841742
249	0x3e2fddc0	0.17174435
250	0xbda804c1	-0.08204032
251	0x3d87e2b3	0.06635036
252	0xbd07b5be	-0.033132307
253	0x3db9773b	0.090559445
254	0x3d91f88e	0.07127486
255	0x3e3ebeda	0.18627492

q_net.q_net.0.bias f4 [64]
0	0x3f4ec74b	0.80772847
1	0x3efa4f1f	0.4888849
2	0x3ea7bf9f	0.32763383
3	0x3f216ee6	0.6305984
4	0x3ee67566	0.45011443
5	0xbe810b11	-0.25203755
6	0x3eeb255a	0.45926934
7	0x3f38b9bd	0.72158414
8	0x3f3c14c5	0.7346919
9	0x3ed0b2ad	0.4076132
10	0x3f7449e1	0.9542523
11	0x3f244189	0.641625
12	0x3f5137fa	0.8172604
13	0x3ed7d25d	0.42152682
14	0x3f7c9aba	0.98673594
15	0x3f856066	1.0420043
16	0x3f8060a8	1.0029497
17	0x3f011c1c	0.50433517
18	0x3ef1bf40	0.47216225
19	0x3e0cb5d3	0.13741235
20	0xbf103678	-0.5633311
21	0x3f12a666	0.57285154
22	0x3ebee043	0.37280473
23	0x3f2af59e	0.6678103
24	0x3f148d5c	0.580282
25	0x3f86e720	1.0539284
26	0x3eedef16	0.4647147
27	0x3f5c889d	0.86145955
28	0x3f112b81	0.56707007
29	0x3f7d9285	0.99051696
30	0xbedf570f	-0.43621108
31	0x3f3640ed	0.7119282
32	0x3f2641ce	0.6494416
33	0x3f661065	0.89868766
34	0x3f553698	0.8328643
35	0x3f3a8c98	0.7287078
36	0x3f0bd2b2	0.5461837
37	0x3f328680	0.6973648
38	0x3f3be2f9	0.7339321
39	0x3ea1dd2d	0.31614056
40	0x3eb24113	0.34815273
41	0x3ee62fe5	0.44958416
42	0x3e7fc5f0	0.24977851
43	0x3f4de622	0.8042928
44	0xbeec5e63	-0.4616576
45	0x3f800c1a	1.0003693
46	0x3f70ca3a	0.94058573
47	0x3f216125	0.63038856
48	0x3f55d6ce	0.8353089
49	0x3f3943ef	0.72369283
50	0xbf6cb014	-0.92456174
51	0x3f0a18d7	0.5394415
52	0x3f081da0	0.53170204
53	0x3f5ca607	0.8619084
54	0x3eb3ef17	0.3514335
55	0x3f4f18fd	0.80897504
56	0x3f68ebbc	0.909847
57	0x3f546610	0.82968235
58	0x3eeee58a	0.466595
59	0xbf4a4063	-0.79004496
60	0x3f69ebcb	0.91375417
61	0xbf759cf1	-0.959426
62	0x3ed19afa	0.4093855
63	0x3f710345	0.94145614

q_net.q_net.2.weight f4 [64, 64]
0	0x3e12b025	0.14325006
1	0x3e56e58d	0.20986004
2	0x3c50464e	0.012712074
3	0x3e3d53fc	0.18489069
4	0x3e988a1e	0.29792875
5	0xbe4e21a4	-0.2013002
6	0x3d17d51e	0.03706848
7	0x3e12f378	0.14350688
8	0x3d8b6738	0.06806797
9	0x3dfd0e7e	0.1235628
10	0x3dbea20b	0.09308251
11	0x3e8ea8fe	0.27863306
12	0x3c00c4a4	0.007859383
13	0x3e8ed911	0.27899984
14	0x3e2f1fb1	0.17101933
15	0x3e2f802b	0.17138736
16	0x3e6d39bf	0.2316656
17	0x3e1d5273	0.15363483
18	0x3e881bce	0.26583713
19	0x3e22ffe7	0.15917931
20	0xbe5c0803	-0.21487431
21	0x3de03d15	0.109491505
22	0x3de57ecf	0.112058274
23	0x3e83e951	0.25763944
24	0x3d5615f4	0.05226703
25	0x3ed8cbed	0.42343083
26	0x3e6011dd	0.21881814
27	0x3d2aee30	0.04173106
28	0x3e4b69c6	0.19864568
29	0x3e05e6fb	0.13076393
30	0xbd3e5bd2	-0.046474285
31	0x3e37abb9	0.179366
32	0x3e53b777	0.20675455
33	0x3eb145dc	0.3462361
34	0x3e4b9867	0.19882356
35	0x3e2c26b8	0.16811645
36	0x3e6bac00	0.23014832
37	0x3e50ba33	0.2038353
38	0x3e843f76	0.25829667
39	0x3e35c92a	0.17752519
40	0x3e4fae92	0.20281437
41	0x3e00e785	0.12588318
42	0x3d5d1b8b	0.053981345
43	0x3ea89baa	0.32931262
44	0xbe4bd62d	-0.1990592
45	0x3e8b8fbe	0.27258104
46	0x3d934f57	0.07192867
47	0x3e02c942	0.12772086
48	0x3dd2f385	0.10300354
49	0x3e4fad43	0.20280938
50	0xbe04dafb	-0.1297416
51	0x3e83b444	0.2572347
52	0x3e729298	0.23688734
53	0x3e2d9dc5	0.16954716
54	0xbd860554	-0.06543985
55	0x3dbd444d	0.09241543
56	0xbd00ea1e	-0.03147327
57	0x3e51b532	0.20479277
58	0x3cda1a2b	0.026623806
59	0xbe05d691	-0.13070132
60	0x3ec4e82d	0.38458386
61	0xbea70754	-0.32622778
62	0x3d8c6165	0.06854514
63	0x3e88c5b8	0.26713347
64	0x3e828347	0.25490782
65	0x3d6f116e	0.05836623
66	0x3e2f4614	0.17116576
67	0x3dd113cd	0.10208855
68	0xbced651b	-0.028978875
69	0xbd55d92f	-0.052209076
70	0x3d16374f	0.03667384
71	0x3df6973d	0.12040565
72	0x3e5ee903	0.21768574
73	0x3ccab089	0.024742382
74	0x3e790376	0.24317726
75	0x3e85d334	0.26137698
76	0x3e669e6a	0.22521368
77	0x3e9b5f02	0.30345923
78	0x3e8a52b8	0.27016234
79	0x3e3cc858	0.184358
80	0x3e52e027	0.2059332
81	0xbd417284	-0.04722835
82	0x3d9e7f20	0.07739091
83	0x3cdaa182	0.026688341
84	0x3c1bafcc	0.009502362
85	0x3cdd5738	0.027019128
86	0x3e724dd3	0.236625
87	0x3e689144	0.22711664
88	0x3e4e5538	0.20149696
89	0x3eaf003d	0.3417987
90	0x3e143f86	0.14477357
91	0x3e696fbe	0.22796533
92	0x3e00af98	0.12566984
93	0x3eb8a60c	0.36064184
94	0xbe45e8a5	-0.19327028
95	0x3e6b311a	0.2296795
96	0x3e99eb8b	0.30062518
97	0x3e86e2e5	0.26344982
98	0x3e8114c2	0.2521115
99	0x3e2536b1	0.16134144
100	0x3e902ae0	0.2815771
101	0x3e3c26ad	0.18374129
102	0x3d406f87	0.04698136
103	0x3ddd1c6d	0.107964374
104	0x3e41bb2e	0.1891906
105	0x3ead20a1	0.33813956
106	0x3c692ffb	0.014232631
107	0x3de8029b	0.11328622
108	0xbe0b5fda	-0.13610783
109	0x3e92f60c	0.28703344
110	0x3da99947	0.082811885
111	0x3e84d484	0.25943387
112	0x3eb0ad27	0.34507105
113	0x3e04e742	0.12978843
114	0xbe2da6b1	-0.16958119
115	0x3e1db377	0.15400492
116	0x3d9add9e	0.075618014
117	0x3e4c2965	0.19937666
118	0x3e8a4cc1	0.27011684
119	0x3e112db5	0.14177592
120	0x3e07aa24	0.13248497
121	0x3e9b4327	0.3032467
122	0x3c6b93d3	0.014378506
123	0xbe205422	-0.15657094
124	0x3e5e82fb	0.21729653
125	0xbe060fb0	-0.13091922
126	0x3e2f06f7	0.170925
127	0x3ec1526c	0.37758195
128	0xbdce6a5b	-0.100788794
129	0x3de079ee	0.10960756
130	0xbd2f80a1	-0.04284728
131	0x3d67858e	0.056523852
132	0x3e2a9264	0.16657406
133	0xbe1a5a4c	-0.15073508
134	0x3d9044dd	0.07044385
135	0x3c8a04c7	0.016847981
136	0xbdcf4fcc	-0.10122642
137	0x3dd9a48c	0.10627088
138	0x3d83baa3	0.064320825
139	0xbe0d6ebd	-0.13811775
140	0xbd4d887c	-0.05017899
141	0xbdc5ffb4	-0.09667912
142	0xbd1c0440	-0.03808999
143	0x3ca40982	0.020024065
144	0x3dbf1d80	0.093317986
145	0xbe3a7762	-0.18209603
146	0x3e2a5a62	0.16636041
147	0x3c72a7f5	0.014810552
148	0xbe5fa7de	-0.2184138
149	0x3e154ab1	0.14579274
150	0x3dc66092	0.09686388
151	0x3caec025	0.021331856
152	0x3e4b0003	0.19824223
153	0x3e4a1521	0.19734623
154	0x3db7626e	0.08954321
155	0x3df6def4	0.12054244
156	0x3e54c0cb	0.2077667
157	0x3e396710	0.18105721
158	0xbe8bc490	-0.27298403
159	0xbcb05bde	-0.02152818
160	0x3e86e88a	0.26349288
161	0xbc1f3037	-0.009716085
162	0x3e56315a	0.20917264
163	0xbdbb412a	-0.091432884
164	0x3e2cb08a	0.1686422
165	0x3e77dc29	0.24205078
166	0x3e497ce9	0.19676556
167	0x3e03f8cd	0.12887879
168	0xbcb588af	-0.022159902
169	0xbe415606	-0.18880472
170	0x3d0b9b69	0.034083758
171	0x3e0a34ec	0.1349675
172	0xbeb467c5	-0.3523542
173	0x3e41827a	0.18897429
174	0xbd5cb17b	-0.053880196
175	0x3e5f3b44	0.21799952
176	0x3e3307ce	0.17483446
177	0x3e1b4f77	0.15167032
178	0xbe46c3e8	-0.1941067
179	0xbd1bf517	-0.038075533
180	0x3dde1fc4	0.108459026
181	0xbd543849	-0.05181149
182	0x3e12849d	0.143084
183	0x3cd5f771	0.026118966
184	0xbb2262ce	-0.002477813
185	0x3decaf3e	0.11556862
186	0x3d353101	0.044236187
187	0xbe4f691e	-0.20254943
188	0xbe03d2e9	-0.12873425
189	0xbe0235f9	-0.12715901
190	0x3e86908b	0.26282153
191	0x3dfc39ac	0.123156875
192	0xbe07d8e6	-0.13266334
193	0x3dfcd18e	0.12344657
194	0x3e8ad731	0.27117303
195	0x3e35026a	0.17676702
196	0x3c8976a0	0.016780198
197	0xbde5c261	-0.112187155
198	0xbd985db6	-0.07439749
199	0xbba0cb6a	-0.0049070613
200	0x3e1c3b55	0.15257008
201	0xbeb7f51d	-0.35929194
202	0x3df4eb6b	0.11958965
203	0x3e52cf7c	0.20586962
204	0xbd3334a0	-0.04375136
205	0xbdc7bb83	-0.09752562
206	0x3e0a9200	0.13532257
207	0xbe01523c	-0.12629026
208	0x3e70dc1f	0.2352147
209	0x3d8188ed	0.06324945
210	0xbe82d6ae	-0.25554413
211	0x3e971b92	0.29513222
212	0xbde28bdd	-0.11061833
213	0xbc013a69	-0.007887461
214	0x3e78e62d	0.24306555
215	0xbe474bf2	-0.19462565
216	0xbdf30374	-0.11865893
217	0xbe6398c4	-0.22226244
218	0x3ea2986d	0.31756917
219	0x3d0839ef	0.033258375
220	0xbe581da2	-0.21105054
221	0x3d2402d7	0.04004177
222	0xbe1c574e	-0.15267679
223	0x3dd290e2	0.102815405
224	0xbdf1bd52	-0.11803688
225	0xbd6b8f0f	-0.05750948
226	0x3ea1e51e	0.31620115
227	0x3e1bef8c	0.15228099
228	0xbf041fdb	-0.5161111
229	0x3e967c21	0.29391578
230	0xbd426fdc	-0.04746996
231	0xbe43dc6d	-0.19127055
232	0xbde97940	-0.1140008
233	0x3ba76bc4	0.005109282
234	0xbf1498fe	-0.5804595
235	0xbe9c1221	-0.3048258
236	0x3dd7b09e	0.10531734
237	0x3d351c13	0.044216227
238	0x3db6dab8	0.08928436
239	0x3e46ea75	0.19425376
240	0x3e0f275e	0.13979861
241	0x3e5ffadc	0.21873039
242	0xbddbabdf	-0.10726141
243	0x3e179cf1	0.14805962
244	0x3e04253e	0.12904832
245	0x3ce59257	0.028023882
246	0x3e0b9cf6	0.13634095
247	0xbda9a894	-0.08284107
248	0xbdc005f1	-0.09376133
249	0xbe56ff58	-0.20995843
250	0xbe4a45ee	-0.19753239
251	0x3bf17abc	0.0073693674
252	0x3dcd7080	0.10031223
253	0x3cfe99e5	0.031079242
254	0xbca748e4	-0.0204205
255	0xbe8c21e5	-0.2736961

q_net.q_net.2.bias f4 [64]
0	0x3f11ae85	0.5690692
1	0x3f20781e	0.62683284
2	0x3de7b1d4	0.11313215
3	0xbde5c636	-0.11219446
4	0xbdb82d9f	-0.089930765
5	0x3f269ea1	0.650858
6	0xbe7e6168	-0.24841845
7	0x3f02e02b	0.51123303
8	0x3db34ea5	0.08755235
9	0x3f0155f7	0.50521797
10	0x3f38a804	0.7213137
11	0x3f140aea	0.57829154
12	0x3f444075	0.76660854
13	0x3f00aafb	0.50260895
14	0x3f12262d	0.570895
15	0x3f25c1ed	0.6474903
16	0x3ed99d88	0.42503
17	0x3f3e46b7	0.7432665
18	0x3f3bafcb	0.73315114
19	0x3f2a0704	0.66416955
20	0x3f42ac6f	0.7604436
21	0x3f1f0186	0.621117
22	0x3f2a2849	0.6646772
23	0x3f0fcdac	0.56173205
24	0xbef89370	-0.48549986
25	0x3f258d36	0.64668596
26	0x3f11a884	0.5689776
27	0x3f012e68	0.50461435
28	0xbd8a91cb	-0.06766089
29	0x3f2693fe	0.6506957
30	0x3ef14783	0.47124872
31	0x3f270d7e	0.6525496
32	0x3f46e885	0.77698547
33	0xbe13d533	-0.14436798
34	0xbde8ea48	-0.113728106
35	0xbea59e00	-0.32347107
36	0x3f090fab	0.5353953
37	0xbe94bccc	-0.2905029
38	0x3f1a68b6	0.60316026
39	0x3f444257	0.76663727
40	0x3f2349ad	0.63784295
41	0x3eb5b066	0.35486144
42	0x3edfd47e	0.43716806
43	0x3dc51dcb	0.09624823
44	0x3f1bfc3e	0.60931766
45	0x3f0b5191	0.54421335
46	0x3f241a7c	0.6410291
47	0x3f3cd862	0.73767674
48	0x3f15aea7	0.58469623
49	0x3df10daf	0.11770188
50	0x3f552c22	0.83270466
51	0x3f21e0d4	0.63233685
52	0x3f2548f9	0.6456447
53	0x3f181c50	0.594182
54	0x3edecd88	0.43516183
55	0x3f4852de	0.78251445
56	0x3f2035c1	0.6258202
57	0x3f104a39	0.56363255
58	0x3f3004d5	0.68757373
59	0xbdf2454e	-0.11829625
60	0x3ef754e9	0.4830697
61	0xbd0b065b	-0.033941608
62	0x3f37da24	0.7181723
63	0x3f370de1	0.7150555

q_net.q_net.4.weight f4 [4, 64]
0	0x3edcd4dd	0.43131152
1	0x3e6cfc4b	0.23143117
2	0xbf0d19e5	-0.55117637
3	0xbf47320f	-0.7781076
4	0xbf1cc0ad	-0.612315
5	0x3e9178e4	0.28412545
6	0xbed813a6	-0.4220249
7	0x3e534098	0.2063011
8	0x3e99e575	0.30057874
9	0x3e098a07	0.1343156
10	0x3ee42b74	0.44564402
11	0x3d84490f	0.06459247
12	0x3e8723bb	0.26394448
13	0x3e932107	0.28736135
14	0x3ee2030f	0.4414296
15	0x3eb34ce0	0.35019588
16	0x3e5c3b17	0.21506916
17	0x3ebdaf38	0.37047744
18	0x3e61cd6c	0.22051018
19	0x3ea8f344	0.32998097
20	0x3e4a8fe7	0.19781457
21	0x3e92a8a0	0.28644276
22	0x3e0386ba	0.12844363
23	0x3e728282	0.23682597
24	0xbe9e4eee	-0.30919594
25	0x3e2a0fb1	0.16607548
26	0x3e82426e	0.25441307
27	0x3e84885b	0.2588528
28	0xbe3b0b6b	-0.18266074
29	0x3e889c3f	0.26681706
30	0x3ea34576	0.31888932
31	0x3e30f889	0.17282309
32	0x3e816631	0.25273278
33	0xbe99cefe	-0.30040735
34	0x3c77e415	0.015130063
35	0xbea2448b	-0.3169292
36	0x3eb7a39b	0.3586701
37	0xbe84daf6	-0.25948304
38	0x3e249acc	0.16074675
39	0x3e4c6a22	0.19962361
40	0x3e86fb70	0.26363707
41	0x3deefe1f	0.116695635
42	0x3f01e56c	0.50740695
43	0xbed093a0	-0.4073763
44	0x3e92b950	0.28657007
45	0x3e6efc68	0.23338473
46	0x3ee85daf	0.45383975
47	0x3e86bf8a	0.26318008
48	0x3e01db2c	0.12681264
49	0xbf271ef1	-0.6528159
50	0x3ed21aac	0.41035974
51	0x3e291ae0	0.16514158
52	0x3e7679cc	0.240699
53	0x3e8d2448	0.27566743
54	0x3debac69	0.11507494
55	0x3e47b3a6	0.19502124
56	0x3e97db66	0.29659575
57	0x3d39d849	0.04537228
58	0x3e9294a2	0.28629023
59	0x3cf0ee3f	0.02941048
60	0x3d7c637b	0.06161831
61	0xbf47bb9a	-0.7802063
62	0x3e71b1d5	0.23602994
63	0x3e90f10d	0.28308907
64	0x3ec65095	0.38733354
65	0x3e6707b1	0.22561528
66	0x3e0ae26c	0.13562936
67	0xbdfd8d4d	-0.123804666
68	0xbf117b97	-0.5682921
69	0x3eaca60d	0.33720437
70	0xbec6466d	-0.38725606
71	0x3e0b4bfe	0.13603207
72	0x3e375230	0.17902446
73	0x3e385e3d	0.18004699
74	0x3ef26ecc	0.47350156
75	0x3e4b2345	0.19837673
76	0x3eb7063c	0.35746944
77	0x3edd2ac7	0.431967
78	0x3e6a29c4	0.22867495
79	0x3e0c0d4d	0.13676949
80	0x3db09150	0.08621466
81	0x3ebd2851	0.3694482
82	0x3e3789a9	0.17923607
83	0x3ea15e88	0.31517434
84	0x3e398296	0.18116221
85	0x3ea2d70e	0.318047
86	0x3e7954e5	0.24348791
87	0x3e899137	0.26868603
88	0xbeda8100	-0.42676544
89	0x3e784023	0.24243216
90	0x3e00dc7a	0.12584105
91	0x3eaca5c4	0.3372022
92	0xbf32affa	-0.6979977
93	0x3ee6cd39	0.45078447
94	0x3e8ba86e	0.2727694
95	0x3e8e7089	0.27820233
96	0x3e37acac	0.17936963
97	0xbee6e33d	-0.45095244
98	0x3ca43fd9	0.020049976
99	0xbdc58e2a	-0.09646256
100	0x3e90bf7a	0.28271085
101	0xbe8f9dfd	-0.28050223
102	0x3d9c6789	0.07636935
103	0x3e803289	0.25038555
104	0x3e462d93	0.19353323
105	0x3e853d5b	0.26023373
106	0x3ea66680	0.32500076
107	0xbeb7d9b7	-0.3590829
108	0x3e2dae87	0.16961108
109	0x3e5a50e6	0.21319923
110	0x3ea23a05	0.3168489
111	0x3ed6afa3	0.41930875
112	0x3e27ea98	0.16398084
113	0xbeff0806	-0.4981081
114	0x3ec76edd	0.3895177
115	0x3e42ffd9	0.1904291
116	0x3e5ea114	0.21741134
117	0x3e926eaa	0.28600055
118	0x3e56cc7e	0.20976445
119	0x3e59b203	0.21259312
120	0x3ef3a2de	0.47585195
121	0x3ddfd01f	0.10928368
122	0x3e2286c0	0.15871716
123	0xbd75f15a	-0.060044624
124	0x3dd52aa9	0.104085274
125	0xbed528d2	-0.41632706
126	0x3e81f274	0.2538029
127	0x3e2ba1b2	0.167609
128	0x3ed90280	0.4238472
129	0x3e934cfe	0.28769678
130	0xbece6acd	-0.40315858
131	0x3f0018f3	0.5003807
132	0x3e0398a0	0.1285119
133	0x3e8baf7b	0.27282318
134	0xbef253d4	-0.4732958
135	0x3dda159d	0.10648654
136	0x3dbafe8e	0.09130584
137	0x3e1c4e93	0.15264349
138	0x3edbf60f	0.42961165
139	0x3e16c3dd	0.14723153
140	0x3e924ff2	0.28576618
141	0x3eb8eaa3	0.36116514
142	0x3e9ed35b	0.31020626
143	0x3e95d201	0.29261783
144	0x3e4748dc	0.19461387
145	0x3e9eaab8	0.30989623
146	0x3e173fe4	0.14770466
147	0x3e18d04e	0.14923212
148	0x3e809152	0.2511087
149	0x3e737ea1	0.23778774
150	0x3e7d1158	0.24713647
151	0x3e9c9ac7	0.30586836
152	0xbec45bc1	-0.38351253
153	0x3e0a3ada	0.13499013
154	0x3e0ae570	0.13564086
155	0x3eaaf7b4	0.33392107
156	0xbf12a4bb	-0.5728261
157	0x3e85a48b	0.261021
158	0x3e2d086e	0.16897747
159	0x3dd0afe4	0.101897985
160	0x3e426a31	0.18985821
161	0xbe75e11a	-0.2401165
162	0x3ce8f60b	0.028437635
163	0x3d00a9f7	0.03141209
164	0x3ef2cb48	0.47420716
165	0xbe9e84b5	-0.30960622
166	0x3e3452ac	0.17609662
167	0x3e91b56e	0.28458732
168	0x3e531bb7	0.20616041
169	0x3ecf5ab7	0.40498897
170	0x3e8807f7	0.26568577
171	0x3e153ea6	0.1457468
172	0x3e232561	0.15932228
173	0x3ee57bac	0.44820917
174	0x3ebc8934	0.36823428
175	0x3eb3551b	0.35025868
176	0x3e8a41bc	0.27003276
177	0xbec258fb	-0.37958512
178	0x3ed0fec1	0.40819362
179	0x3e7cde82	0.24694255
180	0x3da64251	0.081181176
181	0x3e5b5d91	0.21422412
182	0x3e622363	0.22083811
183	0x3e8479f0	0.2587428
184	0x3ecd6f76	0.401241
185	0x3e7fcc7d	0.2498035
186	0x3e76cc91	0.24101473
187	0xbc86ecb1	-0.016470285
188	0x3e122b59	0.14274348
189	0xbe357649	-0.17720903
190	0x3e7f008f	0.24902557
191	0x3e6d0aab	0.23148601
192	0x3ea30d2f	0.31845996
193	0x3e2ac98a	0.16678444
194	0xbe336554	-0.17519122
195	0x3e87cb78	0.26522422
196	0xbe218c47	-0.15776168
197	0x3e6b8d71	0.23003174
198	0xbebb82d1	-0.36623242
199	0x3e6da9e6	0.23209342
200	0x3c6f179a	0.014593029
201	0x3e87560a	0.2643283
202	0x3e93d043	0.2886983
203	0x3e3086af	0.17238878
204	0x3ea71dda	0.32639962
205	0x3f174da6	0.5910286
206	0x3e93223e	0.28737062
207	0x3ec5f75c	0.38665283
208	0x3ea44727	0.32085535
209	0x3e7c2dff	0.24626921
210	0x3e8c4396	0.27395314
211	0x3e09547f	0.13411139
212	0x3e1b7499	0.15181197
213	0x3dfe2977	0.124102525
214	0x3e727689	0.2367803
215	0x3e179dea	0.14806333
216	0xbe9a503b	-0.30139336
217	0x3e83822c	0.2568525
218	0x3e0a041a	0.13478127
219	0x3eca67e0	0.39532375
220	0xbef2248d	-0.4729351
221	0x3ee18bbb	0.44051918
222	0x3eb189b5	0.34675375
223	0x3e8d42fc	0.27590168
224	0x3e4acf86	0.19805726
225	0xbe884d09	-0.26621273
226	0xbda791dd	-0.08182118
227	0xbe4d0304	-0.20020682
228	0x3e769e60	0.24083853
229	0xbe8d9984	-0.27656186
230	0x3e896db0	0.26841497
231	0x3e502812	0.20327786
232	0x3e161084	0.14654738
233	0x3e61ac2f	0.22038339
234	0x3ddd2995	0.10798947
235	0x3ea031f7	0.3128812
236	0x3e923d60	0.2856245
237	0x3eaef5d1	0.34171918
238	0x3ef0a1e5	0.46998516
239	0x3e841672	0.25798374
240	0x3e5b74dc	0.21431297
241	0xbf26e632	-0.65195
242	0x3f0f7618	0.5603957
243	0x3e1e7b9a	0.15476838
244	0x3e22619f	0.15857552
245	0x3ed0abc2	0.4075604
246	0x3cc56cd0	0.024099737
247	0x3e424511	0.18971659
248	0x3e972bcc	0.29525602
249	0x3e60c8ed	0.21951647
250	0x3e8fafed	0.28063908
251	0xbcf9cb67	-0.030492498
252	0x3e656761	0.22402717
253	0x3edada4c	0.42744672
254	0x3e196aa6	0.1498209
255	0x3e9e69b2	0.30940014

q_net.q_net.4.bias f4 [4]
0	0x3ec5749b	0.38565525
1	0x3eae2caa	0.3401845
2	0x3ed26ffa	0.41101056
3	0x3eb7e375	0.35915723

q_net_target.q_net.0.weight f4 [64, 16]
0	0xbd4256b3	-0.047445964
1	0x3dbebd41	0.09313441
2	0xbde1d016	-0.11026017
3	0x3e6c1fee	0.23059055
4	0x3d9380da	0.07202311
5	0x3daca31b	0.084295474
6	0xbe62734c	-0.22114295
7	0x3e54a9b7	0.20767866
8	0x3cce3fa1	0.025176825
9	0x3dd60246	0.104496524
10	0x3e30f370	0.17280364
11	0xbe1971d5	-0.1498483
12	0x3d6f8243	0.058473837
13	0xbe49afb4	-0.19695932
14	0x3c3a0a1e	0.011354951
15	0x3d0985db	0.03357492
16	0x3e1017d3	0.14071588
17	0xbe235ef6	-0.15954193
18	0xbe6c550f	-0.23079322
19	0xbe13db54	-0.14439136
20	0x3e788134	0.24268037
21	0xbe8bdb11	-0.27315572
22	0x3e09c5ad	0.13454314
23	0x3e64a87b	0.22329895
24	0x3e319ccd	0.17344971
25	0x3d62166f	0.055197176
26	0x3e1c5092	0.1526511
27	0x3d49e21e	0.049287908
28	0xbd87d702	-0.06632806
29	0xbe0acae9	-0.13553967
30	0xbe2d98c0	-0.16952801
31	0xbe72cc79	-0.23710813
32	0xbe510dc2	-0.20415404
33	0xbe4c1ef8	-0.19933689
34	0xbd897b1a	-0.06712933
35	0xbd481706	-0.04885008
36	0xbe873a54	-0.26411688
37	0xbd105358	-0.035235733
38	0xbd0c6e00	-0.03428459
39	0xbba46347	-0.0050167176
40	0xbe331016	-0.17486605
41	0x3de774b2	0.11301555
42	0x3e970252	0.29493958
43	0xbba2c53a	-0.004967359
44	0x3d503184	0.05082847
45	0xbd36822f	-0.044557746
46	0x3e9edfd4	0.31030142
47	0x3e496d2e	0.19670555
48	0xbd7faa5e	-0.062418334
49	0xbd8eee91	-0.06979097
50	0xbde0428e	-0.10950194
51	0xbdd824a9	-0.10553867
52	0xbe480ad1	-0.19535376
53	0x3cb6e589	0.022326248
54	0x3e24ca1b	0.16092722
55	0x3ce2fc7d	0.027708286
56	0xbd989cc5	-0.074517764
57	0xbd4b02c3	-0.04956318
58	0x3e9b03ca	0.30276328
59	0x3e0fa6df	0.140285
60	0xbcfc5091	-0.030800136
61	0xbe20ca4c	-0.1570217
62	0x3cd55713	0.026042497
63	0xbe471543	-0.19441704
64	0xbe4232bc	-0.18964666
65	0xbe59b57a	-0.21260634
66	0x3da91a96	0.08257024
67	0xbd4c28ee	-0.04984372
68	0x3e1a5f42	0.150754
69	0x3e048305	0.12940605
70	0xbebfbd3d	-0.37449065
71	0x3e14528e	0.14484617
72	0xbddfd00b	-0.10928353
73	0x3ded2686	0.115796134
74	0x3da00ac6	0.07814555
75	0x3e4b23d4	0.19837886
76	0x3d40b51e	0.047047727
77	0xbe2c9767	-0.1685463
78	0x3dda4cf0	0.10659206
79	0xbd0abb52	-0.03387005
80	0x3ec65222	0.38734537
81	0x3e927501	0.28604892
82	0x3e8ea62c	0.27861154
83	0x3e713b11	0.23557688
84	0x3e43f2e6	0.19135627
85	0x3d9cc3f0	0.076545596
86	0x3e6187d9	0.22024478
87	0x3e95a71d	0.2922906
88	0x3e8f2c61	0.27963546
89	0x3de45544	0.111490756
90	0x3dfca56d	0.1233624
91	0x3d8299b4	0.06376973
92	0x3d5e9351	0.05433971
93	0x3e82f8f0	0.2558055
94	0x3e3f34fd	0.18672557
95	0x3d201fff	0.039093014
96	0x3e0a9ef1	0.13537194
97	0xbd78a0e2	-0.060700305
98	0x3d0f3238	0.03496
99	0xbdc6eea5	-0.097134866
100	0x3e2282de	0.15870234
101	0xbde554dd	-0.11197827
102	0xbc84f930	-0.016232103
103	0x3d5a3cb5	0.05328055
104	0xbe7678c6	-0.24069509
105	0xbe8622ff	-0.26198575
106	0x3e18ad19	0.14909782
107	0xbe8e0cc2	-0.27744108
108	0x3e277282	0.16352275
109	0xbe064e78	-0.13115871
110	0x3dd382f2	0.1032771
111	0x3e9f1138	0.31067824
112	0x3c67c4ba	0.014146024
113	0xbe030e94	-0.1279853
114	0xbe8e79a0	-0.27827168
115	0xbe8a9ed1	-0.27074292
116	0xbda61128	-0.08108741
117	0x3e4f7110	0.20257974
118	0xbd3b5fc4	-0.045745626
119	0xbd5455a7	-0.051839497
120	0x3e464b5c	0.19364685
121	0x3d9425ee	0.07233797
122	0x3dd9578a	0.106124
123	0x3dc947aa	0.09828122
124	0x3e1e0b8c	0.15434092
125	0xbd97fd9a	-0.074214175
126	0xbe836f62	-0.25670916
127	0x3e52ba5d	0.20578904
128	0x3da6566e	0.08121954
129	0x3d834038	0.06408733
130	0x3e2ec435	0.17067035
131	0xbd80655c	-0.06269333
132	0xbe39a471	-0.18129136
133	0xbe201e71	-0.15636612
134	0xbd4e009b	-0.050293546
135	0xbda88958	-0.08229321
136	0x3d2f25e2	0.042760737
137	0x3c960e41	0.018317344
138	0xbdd27660	-0.102764845
139	0xbe41abf7	-0.18913256
140	0x3e546ac3	0.20743851
141	0x3e7c3487	0.24629413
142	0x3cdd7d35	0.027037242
143	0x3c080338	0.008301549
144	0x3da107d7	0.078628235
145	0xbe1567df	-0.14590405
146	0xbd829ae2	-0.06377198
147	0xbd41978a	-0.04726366
148	0x3db2a95b	0.08723708
149	0xbd4b0e54	-0.04957421
150	0x3d86ab05	0.06575588
151	0x3e1f0842	0.15530494
152	0xbd5013d8	-0.050800174
153	0x3e2b04e2	0.16701081
154	0xbec871a8	-0.39149213
155	0x3e990319	0.29885176
156	0xbc73a0c5	-0.014869873
157	0xbd025de9	-0.03182784
158	0xbe79129e	-0.24323508
159	0xbc01fd7e	-0.007933972
160	0x3d6f49e5	0.05842008
161	0xbd9ca421	-0.076484926
162	0x3caaaea8	0.020835236
163	0xbe4f9a28	-0.2027365
164	0xbdba580f	-0.09098827
165	0x3e802c8b	0.25033984
166	0x3de06b3b	0.109579526
167	0x3dcc7582	0.0998335
168	0xbe3981d6	-0.18115935
169	0xbe0a69c7	-0.13516913
170	0xbda290ee	-0.079377994
171	0xbdb7615d	-0.089541174
172	0x3c1eb85c	0.009687509
173	0xbe24a9f9	-0.16080464
174	0x3dd32589	0.10309894
175	0x3d96891a	0.07350369
176	0xbe03a522	-0.12855962
177	0x3d87b044	0.06625417
178	0xbdb2fa40	-0.08739138
179	0xbe2337cf	-0.15939258
180	0x3d9a64d9	0.075387664
181	0x3e37d33c	0.17951673
182	0x3e518e34	0.20464402
183	0x3e0ded01	0.13859941
184	0xbd5dc17c	-0.0541396
185	0xbd89a6fb	-0.06721302
186	0xbe6e5c22	-0.23277333
187	0x3e960895	0.29303423
188	0x3d741be4	0.05959691
189	0xbc244161	-0.010025353
190	0xbdf585fd	-0.11988447
191	0x3e5a43e9	0.21314968
192	0x3ded200f	0.1157838
193	0x3e20d253	0.15705232
194	0xbd093c25	-0.033504624
195	0x3d9835ac	0.07432112
196	0x3d051c4d	0.032497693
197	0xbde7a5db	-0.11310931
198	0x3d2b33b0	0.04179734
199	0xbde6f862	-0.11277844
200	0xbe3f6d27	-0.18693982
201	0x3d59b621	0.053152207
202	0x3e39b8d8	0.18136919
203	0x3d495bd6	0.049159847
204	0x3e2ba632	0.16762617
205	0x3d2408fa	0.040047623
206	0xbe6553f1	-0.22395302
207	0x3e57e841	0.21084692
208	0xbc28ef61	-0.010310979
209	0xbe0ce618	-0.13759649
210	0x3e5429c1	0.20719053
211	0x3eaf05da	0.34184152
212	0x3e268624	0.16262108
213	0x3e339cfe	0.17540357
214	0xbd0f8a03	-0.035043728
215	0x3e08a3f3	0.13343792
216	0xbe859e79	-0.26097468
217	0x3da33ad6	0.079702064
218	0xbdccc6fb	-0.0999889
219	0xbd9f51e7	-0.077792935
220	0xbe866cfe	-0.2625503
221	0xbdcad0fc	-0.09903142
222	0xbee2b6e8	-0.4428017
223	0x3d7c300a	0.06156925
224	0x3e066dc8	0.13127816
225	0xbe979e1f	-0.29612824
226	0xbe043fda	-0.12914982
227	0x3da79fb8	0.08184761
228	0xbc4ff3b2	-0.012692379
229	0xbdf01f66	-0.11724739
230	0xbd96ea9c	-0.07368967
231	0x3da837ce	0.08213769
232	0x3e65d420	0.224442
233	0x3dee3e6d	0.116330005
234	0x3d8b274d	0.067946054
235	0x3e1241f5	0.14282973
236	0xbd658f86	-0.056045078
237	0x3d88351a	0.06650753
238	0xbe4e70a8	-0.20160162
239	0x3dfc36be	0.12315129
240	0x3d10b6fa	0.03533075
241	0x3d1d4071	0.038391534
242	0xbdd7ee6e	-0.10543524
243	0x3bb3d08d	0.0054875077
244	0xbd70d3e5	-0.05879583
245	0x3c77e00a	0.015129099
246	0xbcd6d361	-0.02622384
247	0xbe1431fd	-0.14472194
248	0xbd6f439b	-0.058414083
249	0x3e2fdfba	0.17175189
250	0xbda80bdd	-0.08205388
251	0x3d87e16d	0.066347934
252	0xbd07a762	-0.033118613
253	0x3db977bb	0.0905604
254	0x3d91fb80	0.07128048
255	0x3e3ebf50	0.18627667

q_net_target.q_net.0.bias f4 [64]
0	0x3f4ec79f	0.8077335
1	0x3efa4ce0	0.48886776
2	0x3ea7bec0	0.32762718
3	0x3f216fae	0.63061035
4	0x3ee677e7	0.45013353
5	0xbe810ac3	-0.25203523
6	0x3eeb260f	0.45927474
7	0x3f38b9b7	0.7215838
8	0x3f3c15d9	0.73470837
9	0x3ed0b79f	0.40765092
10	0x3f744913	0.95424
11	0x3f2441c8	0.64162874
12	0x3f51380f	0.81726164
13	0x3ed7d317	0.42153236
14	0x3f7c9bda	0.9867531
15	0x3f856062	1.0420039
16	0x3f80608d	1.0029465
17	0x3f011de8	0.5043626
18	0x3ef1c1e1	0.4721823
19	0x3e0cb8c8	0.13742363
20	0xbf10366a	-0.5633303
21	0x3f12a85e	0.5728816
22	0x3ebee22c	0.3728193
23	0x3f2af5dd	0.6678141
24	0x3f148f1b	0.5803086
25	0x3f86e752	1.0539343
26	0x3eedeedb	0.46471295
27	0x3f5c88ee	0.8614644
28	0x3f112bba	0.56707346
29	0x3f7d929e	0.99051845
30	0xbedf56c3	-0.4362088
31	0x3f3640a6	0.71192396
32	0x3f26424b	0.64944905
33	0x3f661040	0.89868546
34	0x3f55368e	0.8328637
35	0x3f3a8c84	0.7287066
36	0x3f0bd174	0.54616475
37	0x3f3285aa	0.69735205
38	0x3f3be42e	0.7339505
39	0x3ea1dd59	0.31614187
40	0x3eb23cdd	0.3481206
41	0x3ee6308b	0.4495891
42	0x3e7fcf97	0.24981533
43	0x3f4de724	0.8043082
44	0xbeec5f41	-0.46166423
45	0x3f800c28	1.000371
46	0x3f70ca22	0.9405843
47	0x3f2161b9	0.6303974
48	0x3f55d755	0.83531696
49	0x3f394374	0.7236855
50	0xbf6cafff	-0.9245605
51	0x3f0a18ba	0.5394398
52	0x3f081d4f	0.5316972
53	0x3f5ca53e	0.8618964
54	0x3eb3f1c1	0.3514538
55	0x3f4f18ed	0.8089741
56	0x3f68ebe3	0.90984935
57	0x3f5466e7	0.82969517
58	0x3eeee877	0.46661732
59	0xbf4a40a5	-0.7900489
60	0x3f69ed1f	0.91377443
61	0xbf759d22	-0.9594289
62	0x3ed19abf	0.40938374
63	0x3f710356	0.94145715

q_net_target.q_net.2.weight f4 [64, 64]
0	0x3e12b008	0.14324963
1	0x3e56e254	0.20984775
2	0x3c5063ab	0.012719075
3	0x3e3d4e83	0.18486981
4	0x3e988d17	0.29795143
5	0xbe4e1fac	-0.2012927
6	0x3d17ea03	0.037088405
7	0x3e12fc09	0.14353956
8	0x3d8b6ab6	0.06807463
9	0x3dfd19ce	0.123584375
10	0x3dbeb289	0.09311397
11	0x3e8eaa25	0.27864185
12	0x3c00c37b	0.007859106
13	0x3e8eda26	0.2790081
14	0x3e2f227d	0.17103
15	0x3e2f856b	0.17140739
16	0x3e6d3981	0.23166467
17	0x3e1d5809	0.15365614
18	0x3e8820b6	0.26587456
19	0x3e23012a	0.15918413
20	0xbe5c04e0	-0.21486235
21	0x3de0427c	0.10950181
22	0x3de57ba4	0.11205223
23	0x3e83e8d1	0.25763562
24	0x3d562cdd	0.05228888
25	0x3ed8cb74	0.42342722
26	0x3e6013d1	0.2188256
27	0x3d2afd60	0.041745543
28	0x3e4b682a	0.19863954
29	0x3e05efd6	0.13079771
30	0xbd3e4dbd	-0.046460856
31	0x3e37abbd	0.17936607
32	0x3e53b5e4	0.20674855
33	0x3eb14546	0.34623164
34	0x3e4b99c6	0.19882879
35	0x3e2c2339	0.16810311
36	0x3e6ba9fc	0.23014063
37	0x3e50ba5f	0.20383595
38	0x3e843fe8	0.25830007
39	0x3e35c750	0.17751813
40	0x3e4fad66	0.2028099
41	0x3e00e923	0.12588935
42	0x3d5d403d	0.05401634
43	0x3ea89ead	0.3293356
44	0xbe4bd47f	-0.1990528
45	0x3e8b90d0	0.2725892
46	0x3d93519c	0.071933
47	0x3e02cce7	0.12773477
48	0x3dd2f95c	0.10301468
49	0x3e4fb13b	0.20282452
50	0xbe04d89b	-0.12973253
51	0x3e83b544	0.25724232
52	0x3e728642	0.23684028
53	0x3e2da209	0.16956343
54	0xbd85f7e4	-0.06541422
55	0x3dbd4dc0	0.09243345
56	0xbd00e78a	-0.031470813
57	0x3e51bbad	0.20481749
58	0x3cda32b3	0.026635503
59	0xbe05d486	-0.13069353
60	0x3ec4eaa3	0.38460264
61	0xbea70626	-0.32621878
62	0x3d8c6c76	0.06856625
63	0x3e88c5ea	0.26713496
64	0x3e8282e8	0.254905
65	0x3d6f00e6	0.058350466
66	0x3e2f4987	0.17117892
67	0x3dd10b8d	0.10207281
68	0xbced22b5	-0.028947214
69	0xbd55e403	-0.052219402
70	0x3d16538f	0.03670078
71	0x3df6a870	0.12043846
72	0x3e5ee8ae	0.21768448
73	0x3ccad8c9	0.024761574
74	0x3e790c03	0.24320988
75	0x3e85d2f8	0.2613752
76	0x3e669c80	0.22520638
77	0x3e9b6016	0.30346745
78	0x3e8a5387	0.2701685
79	0x3e3cc8dd	0.18435998
80	0x3e52dcd1	0.20592047
81	0xbd415ee4	-0.047209635
82	0x3d9e8de5	0.07741908
83	0x3cda8d7d	0.026678795
84	0x3c1b9653	0.009496289
85	0x3cdd774a	0.02703442
86	0x3e724de6	0.23662528
87	0x3e688cad	0.22709914
88	0x3e4e5748	0.20150483
89	0x3eaefea3	0.34178647
90	0x3e143e3f	0.1447687
91	0x3e696f90	0.22796464
92	0x3e00acde	0.12565944
93	0x3eb8a74d	0.3606514
94	0xbe45ea9a	-0.19327775
95	0x3e6b2d73	0.22966556
96	0x3e99e930	0.3006072
97	0x3e86e23a	0.26344472
98	0x3e8114c0	0.25211143
99	0x3e253308	0.16132748
100	0x3e9027a9	0.28155258
101	0x3e3c28cd	0.1837494
102	0x3d4070a3	0.04698242
103	0x3ddd1a64	0.10796049
104	0x3e41b8cc	0.1891815
105	0x3ead215f	0.33814523
106	0x3c69bd48	0.01426632
107	0x3de80a4c	0.11330089
108	0xbe0b616a	-0.1361138
109	0x3e92f6aa	0.28703815
110	0x3da99232	0.08279838
111	0x3e84d50d	0.25943795
112	0x3eb0ad49	0.34507206
113	0x3e04e73a	0.12978831
114	0xbe2da7f2	-0.16958597
115	0x3e1db32b	0.15400378
116	0x3d9ac878	0.07557768
117	0x3e4c2d0c	0.19939059
118	0x3e8a4f3a	0.2701357
119	0x3e112e16	0.14177737
120	0x3e07a7f8	0.13247669
121	0x3e9b45d1	0.30326703
122	0x3c6b830b	0.014374505
123	0xbe205563	-0.15657572
124	0x3e5e8631	0.21730877
125	0xbe06118c	-0.13092631
126	0x3e2f0cdd	0.1709475
127	0x3ec1511d	0.37757197
128	0xbdce7338	-0.1008057
129	0x3de0822c	0.10962328
130	0xbd2fb084	-0.042892948
131	0x3d677356	0.056506477
132	0x3e2a85bb	0.16652577
133	0xbe1a57d6	-0.15072569
134	0x3d9035c2	0.070415035
135	0x3c89c230	0.016816229
136	0xbdcf5b88	-0.1012488
137	0x3dd9a028	0.106262505
138	0x3d83a3e3	0.06427743
139	0xbe0d7706	-0.13814935
140	0xbd4d8c19	-0.050182436
141	0xbdc5facc	-0.09666976
142	0xbd1c11bc	-0.03810285
143	0x3ca3cbbd	0.01999461
144	0x3dbf124d	0.093296625
145	0xbe3a849b	-0.18214647
146	0x3e2a5161	0.16632606
147	0x3c728c87	0.014804012
148	0xbe5fa6dc	-0.21840996
149	0x3e154911	0.14578654
150	0x3dc6471f	0.09681534
151	0x3caed536	0.021341901
152	0x3e4af50a	0.19820037
153	0x3e4a108c	0.19732875
154	0x3db74df4	0.08950415
155	0x3df6d26e	0.12051855
156	0x3e54bd65	0.20775373
157	0x3e396053	0.18103151
158	0xbe8bc424	-0.2729808
159	0xbcb068ef	-0.021534411
160	0x3e86e578	0.26346946
161	0xbc1f9aa4	-0.009741459
162	0x3e562ce4	0.20915562
163	0xbdbb42f4	-0.0914363
164	0x3e2cb387	0.16865359
165	0x3e77d394	0.24201804
166	0x3e497822	0.19674733
167	0x3e03eded	0.1288373
168	0xbcb57ec7	-0.022155179
169	0xbe41652a	-0.18886247
170	0x3d0b8c67	0.034069445
171	0x3e0a2d88	0.13493931
172	0xbeb46ab5	-0.3523766
173	0x3e417d97	0.18895565
174	0xbd5cbee4	-0.053892985
175	0x3e5f31d0	0.21796346
176	0x3e3306d9	0.17483081
177	0x3e1b440b	0.15162675
178	0xbe46c41a	-0.19410744
179	0xbd1c158e	-0.038106494
180	0x3dde2c55	0.108482994
181	0xbd545da1	-0.051847104
182	0x3e127d1c	0.14305538
183	0x3cd5d052	0.026100311
184	0xbb230998	-0.0024877544
185	0x3deca5f8	0.115550935
186	0x3d3536a9	0.04424158
187	0xbe4f6d2f	-0.20256494
188	0xbe03d84b	-0.12875478
189	0xbe0235db	-0.12715857
190	0x3e868b7e	0.262783
191	0x3dfc28c8	0.12312466
192	0xbe07d7f6	-0.13265976
193	0x3dfcc2ec	0.12341866
194	0x3e8ad7ca	0.2711776
195	0x3e35039f	0.17677163
196	0x3c897e55	0.016783873
197	0xbde5c403	-0.11219027
198	0xbd984d9c	-0.07436678
199	0xbba0aa9b	-0.0049031503
200	0x3e1c359b	0.15254824
201	0xbeb7f779	-0.35930994
202	0x3df4e71c	0.11958143
203	0x3e52cc95	0.20585854
204	0xbd33213f	-0.043732878
205	0xbdc7b4a8	-0.09751254
206	0x3e0a8ee0	0.13531065
207	0xbe015447	-0.12629806
208	0x3e70da71	0.23520829
209	0x3d8181c5	0.0632358
210	0xbe82d605	-0.2555391
211	0x3e971979	0.29511622
212	0xbde28a40	-0.11061525
213	0xbc00b7d3	-0.007856327
214	0x3e78e345	0.24305446
215	0xbe4742f3	-0.19459133
216	0xbdf304a4	-0.118661195
217	0xbe6397d9	-0.22225894
218	0x3ea295d6	0.3175494
219	0x3d0836c5	0.033255357
220	0xbe582079	-0.21106137
221	0x3d23e56c	0.040013716
222	0xbe1c5a0c	-0.15268725
223	0x3dd2928f	0.1028186
224	0xbdf1bdaa	-0.11803754
225	0xbd6b8f14	-0.057509497
226	0x3ea1e4df	0.31619927
227	0x3e1be86e	0.15225384
228	0xbf041ca7	-0.5160622
229	0x3e967d14	0.29392302
230	0xbd4271ff	-0.047471996
231	0xbe43db72	-0.1912668
232	0xbde97d90	-0.11400902
233	0x3ba73edc	0.005103929
234	0xbf149ad5	-0.58048755
235	0xbe9c1498	-0.30484462
236	0x3dd7b30e	0.10532199
237	0x3d352ac2	0.04423023
238	0x3db6d0b7	0.08926528
239	0x3e46dbee	0.19419834
240	0x3e0f1d6c	0.13976067
241	0x3e5ff349	0.2187015
242	0xbddba556	-0.10724895
243	0x3e179b62	0.14805368
244	0x3e043017	0.1290897
245	0x3ce56cc3	0.028005963
246	0x3e0b969b	0.1363167
247	0xbda9b2bf	-0.08286046
248	0xbdbffac0	-0.09373999
249	0xbe57003c	-0.20996183
250	0xbe4a440f	-0.19752525
251	0x3bf17b27	0.007369417
252	0x3dcd6047	0.10028129
253	0x3cfea538	0.031084642
254	0xbca72037	-0.020401103
255	0xbe8c212d	-0.2736906

q_net_target.q_net.2.bias f4 [64]
0	0x3f11af05	0.56907684
1	0x3f2077e5	0.62682945
2	0x3de7a4c3	0.11310723
3	0xbde5cb1c	-0.11220381
4	0xbdb826c1	-0.08991767
5	0x3f269e64	0.65085435
6	0xbe7e6869	-0.24844517
7	0x3f02e0a3	0.5112402
8	0x3db345ba	0.08753534
9	0x3f0155a8	0.50521326
10	0x3f38a8de	0.7213267
11	0x3f140b0b	0.5782935
12	0x3f4440f1	0.7666159
13	0x3f00ab2a	0.50261176
14	0x3f1226b1	0.5709029
15	0x3f25c1c7	0.64748806
16	0x3ed99cb4	0.42502367
17	0x3f3e47c5	0.7432826
18	0x3f3baf34	0.73314214
19	0x3f2a068c	0.6641624
20	0x3f42ac30	0.7604399
21	0x3f1f0298	0.6211333
22	0x3f2a2849	0.6646772
23	0x3f0fcdf2	0.5617362
24	0xbef8915a	-0.48548394
25	0x3f258ce8	0.6466813
26	0x3f11a7bc	0.5689657
27	0x3f012e7c	0.50461555
28	0xbd8a9474	-0.067665964
29	0x3f2694da	0.6507088
30	0x3ef147ac	0.47124994
31	0x3f270d2f	0.6525449
32	0x3f46e7f5	0.7769769
33	0xbe13d2ff	-0.14435957
34	0xbde8ea48	-0.113728106
35	0xbea59b02	-0.32344824
36	0x3f090fc1	0.53539664
37	0xbe94bb64	-0.29049218
38	0x3f1a6838	0.60315275
39	0x3f444237	0.76663536
40	0x3f234935	0.6378358
41	0x3eb5b098	0.35486293
42	0x3edfd826	0.43719596
43	0x3dc534a0	0.09629178
44	0x3f1bfb7e	0.6093062
45	0x3f0b51b5	0.5442155
46	0x3f241b0a	0.6410376
47	0x3f3cd8ce	0.7376832
48	0x3f15ae94	0.5846951
49	0x3df0fafa	0.1176662
50	0x3f552ccf	0.832715
51	0x3f21e0b4	0.63233495
52	0x3f25485d	0.6456354
53	0x3f181c3b	0.59418076
54	0x3edece18	0.43516612
55	0x3f4852aa	0.78251135
56	0x3f2036b5	0.62583476
57	0x3f104a53	0.5636341
58	0x3f300437	0.6875643
59	0xbdf2454e	-0.11829625
60	0x3ef7548e	0.48306698
61	0xbd0b17cb	-0.033958238
62	0x3f37d9ec	0.718169
63	0x3f370e6c	0.7150638

q_net_target.q_net.4.weight f4 [4, 64]
0	0x3edcd4b0	0.43131018
1	0x3e6cf84d	0.23141594
2	0xbf0d1a4f	-0.5511827
3	0xbf472d74	-0.7780373
4	0xbf1cbfdc	-0.61230254
5	0x3e917806	0.28411883
6	0xbed81024	-0.42199814
7	0x3e533fbe	0.20629784
8	0x3e99e1a3	0.3005496
9	0x3e0985b1	0.13429905
10	0x3ee42b9c	0.4456452
11	0x3d843eeb	0.06457313
12	0x3e8723b5	0.2639443
13	0x3e931de1	0.28733733
14	0x3ee20241	0.44142345
15	0x3eb34cc1	0.35019496
16	0x3e5c3a39	0.21506585
17	0x3ebdaf35	0.37047735
18	0x3e61c863	0.22049098
19	0x3ea8f1a9	0.32996872
20	0x3e4a8ae5	0.19779547
21	0x3e92a9ac	0.28645074
22	0x3e038367	0.12843095
23	0x3e728182	0.23682216
24	0xbe9e539c	-0.30923164
25	0x3e2a0a80	0.16605568
26	0x3e8240e5	0.25440136
27	0x3e8485d8	0.25883365
28	0xbe3b05e2	-0.18263963
29	0x3e889b8b	0.2668117
30	0x3ea346b8	0.31889892
31	0x3e30f43f	0.17280672
32	0x3e81645f	0.2527189
33	0xbe99d254	-0.3004328
34	0x3c77e415	0.015130063
35	0xbea24898	-0.3169601
36	0x3eb7a0b0	0.35864782
37	0xbe84df8e	-0.2595181
38	0x3e249a15	0.16074403
39	0x3e4c662a	0.19960847
40	0x3e86fb12	0.26363426
41	0x3deefba5	0.11669091
42	0x3f01e50d	0.5074013
43	0xbed09695	-0.40739885
44	0x3e92b7cc	0.2865585
45	0x3e6efeb0	0.23339343
46	0x3ee85e12	0.4538427
47	0x3e86c029	0.26318482
48	0x3e01d739	0.12679757
49	0xbf271e00	-0.6528015
50	0x3ed21a7c	0.4103583
51	0x3e2917b7	0.16512953
52	0x3e7674ea	0.24068037
53	0x3e8d23ed	0.27566472
54	0x3deba2a1	0.115056284
55	0x3e47af47	0.19500457
56	0x3e97db05	0.29659286
57	0x3d39ca07	0.045358684
58	0x3e9293f0	0.28628492
59	0x3cf0ee3f	0.02941048
60	0x3d7c55af	0.06160515
61	0xbf47b679	-0.78012806
62	0x3e71aee2	0.23601869
63	0x3e90f127	0.28308985
64	0x3ec6519e	0.38734144
65	0x3e670c01	0.22563173
66	0x3e0ae01a	0.1356205
67	0xbdfdb6a0	-0.123883486
68	0xbf117b44	-0.56828713
69	0x3eaca83b	0.337221
70	0xbec64146	-0.38721675
71	0x3e0b501d	0.1360478
72	0x3e37590b	0.17905061
73	0x3e3862f3	0.18006496
74	0x3ef26ebd	0.47350112
75	0x3e4b27a3	0.19839339
76	0x3eb707fc	0.3574828
77	0x3edd2dac	0.43198907
78	0x3e6a2c9c	0.2286858
79	0x3e0c1152	0.13678482
80	0x3db08f4c	0.08621082
81	0x3ebd289b	0.36945042
82	0x3e378e0e	0.17925283
83	0x3ea1607e	0.3151893
84	0x3e3986f9	0.18117894
85	0x3ea2d755	0.3180491
86	0x3e7958fb	0.2435035
87	0x3e8992cb	0.26869807
88	0xbeda7f34	-0.42675173
89	0x3e78449c	0.24244922
90	0x3e00dfc9	0.12585367
91	0x3eaca79a	0.3372162
92	0xbf32b0d5	-0.69801074
93	0x3ee6cd9e	0.45078748
94	0x3e8ba80c	0.27276647
95	0x3e8e72f4	0.27822077
96	0x3e37b116	0.17938647
97	0xbee6e0f6	-0.45093507
98	0x3ca43fd9	0.020049976
99	0xbdc5853f	-0.09644555
100	0x3e90c239	0.2827318
101	0xbe8f9c08	-0.2804873
102	0x3d9c6cee	0.07637964
103	0x3e80349a	0.25040132
104	0x3e4630a6	0.19354495
105	0x3e853f9c	0.26025093
106	0x3ea665cd	0.32499543
107	0xbeb7d8af	-0.35907504
108	0x3e2db347	0.1696292
109	0x3e5a5156	0.2132009
110	0x3ea23a25	0.31684986
111	0x3ed6affa	0.41931134
112	0x3e27eefb	0.16399758
113	0xbeff08e8	-0.49811482
114	0x3ec76ff9	0.38952616
115	0x3e4303a9	0.19044365
116	0x3e5ea52e	0.21742699
117	0x3e92702e	0.2860121
118	0x3e56d03c	0.20977873
119	0x3e59b663	0.21260981
120	0x3ef3a3e1	0.47585967
121	0x3ddfd896	0.10929982
122	0x3e228a3f	0.15873049
123	0xbd75f15a	-0.060044624
124	0x3dd530f1	0.104097255
125	0xbed5308d	-0.41638604
126	0x3e81f481	0.25381854
127	0x3e2ba2c9	0.16761316
128	0x3ed902e5	0.4238502
129	0x3e934df9	0.28770426
130	0xbece5ff4	-0.4030758
131	0x3f0018a0	0.50037575
132	0x3e039f4b	0.12853734
133	0x3e8bb01c	0.27282798
134	0xbef2521f	-0.47328278
135	0x3dda137a	0.10648246
136	0x3dbae7ef	0.09126269
137	0x3e1c4fa4	0.15264755
138	0x3edbf80f	0.4296269
139	0x3e16c54c	0.147237
140	0x3e924fb7	0.28576443
141	0x3eb8eb43	0.3611699
142	0x3e9ed473	0.3102146
143	0x3e95d1fe	0.29261774
144	0x3e474d0a	0.19462982
145	0x3e9eac61	0.3099089
146	0x3e1741c3	0.1477118
147	0x3e18d26a	0.14924017
148	0x3e80924c	0.25111616
149	0x3e737ff6	0.23779282
150	0x3e7d12f5	0.24714263
151	0x3e9c9aa0	0.3058672
152	0xbec459a3	-0.38349637
153	0x3e0a3d32	0.13499907
154	0x3e0ae845	0.13565166
155	0x3eaaf804	0.33392346
156	0xbf12a005	-0.5727542
157	0x3e85a609	0.26103237
158	0x3e2d0a35	0.16898425
159	0x3dd0b26c	0.10190281
160	0x3e426b22	0.1898618
161	0xbe75eb8a	-0.24015632
162	0x3ce8f60b	0.028437635
163	0x3d00b67c	0.03142403
164	0x3ef2cd3b	0.47422203
165	0xbe9e83a1	-0.309598
166	0x3e3453d6	0.17610106
167	0x3e91b642	0.28459364
168	0x3e531e2e	0.20616981
169	0x3ecf5c5b	0.4050015
170	0x3e8809bc	0.26569927
171	0x3e15428e	0.1457617
172	0x3e2326a5	0.1593271
173	0x3ee57d0b	0.44821963
174	0x3ebc8a1f	0.36824128
175	0x3eb35633	0.35026702
176	0x3e8a426a	0.27003795
177	0xbec24e1d	-0.3795022
178	0x3ed1005d	0.4082059
179	0x3e7cdf9c	0.24694675
180	0x3da64753	0.08119073
181	0x3e5b5cbc	0.21422094
182	0x3e6224f0	0.22084403
183	0x3e847aa8	0.2587483
184	0x3ecd70b7	0.40125057
185	0x3e7fcdb7	0.24980818
186	0x3e76ce7d	0.24102207
187	0xbc86ecb1	-0.016470285
188	0x3e122c7e	0.14274785
189	0xbe357531	-0.17720486
190	0x3e7f01ec	0.24903077
191	0x3e6d0d93	0.2314971
192	0x3ea30df9	0.31846598
193	0x3e2ac8ac	0.16678113
194	0xbe33632e	-0.17518303
195	0x3e87c489	0.26517132
196	0xbe218f35	-0.15777285
197	0x3e6b8d2a	0.23003069
198	0xbebb82a9	-0.36623123
199	0x3e6dabf3	0.23210125
200	0x3c6efdae	0.014586849
201	0x3e8755ee	0.26432747
202	0x3e93d0a1	0.2887011
203	0x3e3084cf	0.17238162
204	0x3ea71ea0	0.32640553
205	0x3f174dbb	0.5910298
206	0x3e9322cf	0.28737494
207	0x3ec5f88c	0.3866619
208	0x3ea44773	0.3208576
209	0x3e7c2f91	0.2462752
210	0x3e8c4306	0.27394885
211	0x3e09534f	0.13410686
212	0x3e1b7329	0.15180649
213	0x3dfe2a8a	0.124104574
214	0x3e7275b0	0.23677707
215	0x3e179f0a	0.14806762
216	0xbe9a5196	-0.3014037
217	0x3e8381ad	0.25684872
218	0x3e0a02b7	0.13477598
219	0x3eca6842	0.39532667
220	0xbef22526	-0.47293967
221	0x3ee18c67	0.4405243
222	0x3eb189ac	0.34675348
223	0x3e8d42b2	0.27589947
224	0x3e4acecd	0.1980545
225	0xbe884b7b	-0.26620087
226	0xbda791dd	-0.08182118
227	0xbe4d03fa	-0.20021048
228	0x3e769f44	0.24084193
229	0xbe8d9acc	-0.27657163
230	0x3e896e2a	0.2684186
231	0x3e50271b	0.20327418
232	0x3e160f89	0.14654364
233	0x3e61aab4	0.22037774
234	0x3ddd2d8d	0.10799704
235	0x3ea036b6	0.3129174
236	0x3e923d3c	0.28562343
237	0x3eaef669	0.3417237
238	0x3ef0a2a4	0.46999085
239	0x3e841729	0.2579892
240	0x3e5b73ed	0.21430941
241	0xbf26e6fb	-0.651962
242	0x3f0f7640	0.5603981
243	0x3e1e79d1	0.15476157
244	0x3e226083	0.15857129
245	0x3ed0ac2a	0.4075635
246	0x3cc565fc	0.024096482
247	0x3e424488	0.18971455
248	0x3e972cdb	0.2952641
249	0x3e60c7ce	0.2195122
250	0x3e8fafae	0.2806372
251	0xbcf9cb67	-0.030492498
252	0x3e65654f	0.22401927
253	0x3edad737	0.4274232
254	0x3e19698c	0.14981669
255	0x3e9e6aaf	0.30940768

q_net_target.q_net.4.bias f4 [4]
0	0x3ec571ca	0.38563377
1	0x3eae2e10	0.34019518
2	0x3ed2710f	0.41101882
3	0x3eb7e26d	0.35914937
