model.pth (torch, 79156 bytes, 6 tensors)

net.0.weight f4 [128, 16]
0	0x3da32f87	0.079680495
1	0xbdfe2708	-0.12409788
2	0xbecf59dc	-0.40498245
3	0x3fc88eb4	1.566855
4	0x3fe14a9e	1.7600896
5	0xbee57265	-0.4481384
6	0xbe363253	-0.17792635
7	0x3e3752ad	0.17902632
8	0x3f5e2ef3	0.8679039
9	0xbef2e6a8	-0.47441602
10	0xbf11f928	-0.5702081
11	0xbf1a62e2	-0.60307133
12	0x3e8e90e8	0.2784493
13	0x3f0e5a20	0.5560627
14	0x3dc1672d	0.09443507
15	0xbee3898a	-0.4444087
16	0x3f465aa8	0.7748208
17	0x3ec08e8b	0.37608752
18	0x3f821f91	1.0165883
19	0x3f216ad1	0.63053614
20	0xbdc5c7ca	-0.09657247
21	0x3f2002c1	0.625042
22	0xbdd89e9d	-0.10577128
23	0x3f27f85b	0.65613335
24	0xbfd18e5c	-1.637157
25	0x3efc9d52	0.49338776
26	0xbf806203	-1.0029911
27	0x3eb05006	0.34436053
28	0x3db4a474	0.088204294
29	0xbf8028d7	-1.0012463
30	0xbe9f8d89	-0.3116267
31	0xbfcc6453	-1.5968117
32	0xbef17cf7	-0.47165653
33	0x3f279cfe	0.65473926
34	0xbf8e49ac	-1.1116233
35	0x3f018504	0.5059359
36	0x3d96d6d0	0.07365191
37	0xbea98026	-0.33105582
38	0x3f16911c	0.5881517
39	0xbf5b9adc	-0.8578317
40	0xbfc118e3	-1.508572
41	0x3ecba484	0.39773953
42	0x3f8228ff	1.0168761
43	0x3e92771c	0.28606498
44	0x3f252c65	0.64520866
45	0xbf539a59	-0.8265739
46	0xbe30e3ea	-0.17274442
47	0xbf12cf2d	-0.57347375
48	0x3f25dc7c	0.6478956
49	0xbf3797c1	-0.71715933
50	0x3f20a67c	0.62754035
51	0x3fdc95d3	1.7233223
52	0xbedb43a4	-0.42825043
53	0xbe00f25d	-0.12592454
54	0x3e56becd	0.20971222
55	0xbe106319	-0.14100303
56	0x3dd5ca78	0.104390085
57	0x3eb9ff1f	0.36327454
58	0xbe6a1a7b	-0.22861664
59	0x3f22a412	0.635316
60	0xbfedef25	-1.8588606
61	0xbf0903a2	-0.5352117
62	0xbeba6ebb	-0.36412606
63	0xbc85b3d3	-0.016321098
64	0xbf43cda2	-0.76485646
65	0xbf8ffe4f	-1.1249484
66	0xbe01ae81	-0.12664224
67	0x3f89b635	1.075873
68	0x3dba58d5	0.090989746
69	0x3f046ee1	0.5173169
70	0x3ed4c971	0.41559938
71	0xbe6ead18	-0.23308218
72	0x3f75450d	0.9580849
73	0xbf3e0976	-0.74233186
74	0xbdbf751e	-0.0934851
75	0xbe7aaa09	-0.24478926
76	0xbf9ec226	-1.2402999
77	0xbee42d59	-0.44565848
78	0xbecec289	-0.40382794
79	0x3f32decf	0.6987123
80	0x3eac8f6d	0.33703175
81	0x3f29df22	0.663561
82	0xbf452e93	-0.7702419
83	0x3eb46114	0.35230315
84	0xbfb0e4eb	-1.381986
85	0xbf741c3d	-0.9535559
86	0x3f7ba2a9	0.98295075
87	0xbc80d205	-0.015725145
88	0x3e0c9bda	0.13731328
89	0xbf5edd99	-0.8705688
90	0x3e7bb713	0.24581556
91	0xbf8aab23	-1.0833477
92	0xbf7751cd	-0.96609193
93	0x3f2c0132	0.67189324
94	0x3f91ceb8	1.139121
95	0xbe2ef1f4	-0.17084485
96	0x3ede7cf7	0.43454716
97	0x3e398f55	0.18121083
98	0xbf680652	-0.90634644
99	0x3efe7f46	0.49706477
100	0xc000698f	-2.0064428
101	0xbb8ae2da	-0.0042384686
102	0x3e39d936	0.18149266
103	0xbf3cc35e	-0.73735607
104	0x3f7a0753	0.97667426
105	0x3e8a7cab	0.2704824
106	0xbf26b9b0	-0.65127087
107	0xbd8fe2c6	-0.070256755
108	0x3eea25a7	0.4573185
109	0xbf0b5446	-0.54425466
110	0x3f653a55	0.8954213
111	0xbe1da106	-0.15393457
112	0x3f8df1d4	1.1089425
113	0xbd8f5c4c	-0.07000026
114	0x3fc5e876	1.5461566
115	0x3dd7d47f	0.10538577
116	0xbe40abe2	-0.18815568
117	0xbeba5af3	-0.36397514
118	0x3f34f3b8	0.70684385
119	0x3e4790ba	0.19488803
120	0xbf064462	-0.52448094
121	0x3e517a70	0.20456862
122	0xbef0a3e1	-0.4700003
123	0xbf59659e	-0.8492068
124	0xbf6b179c	-0.918329
125	0xbfe4a6c0	-1.7863388
126	0x3effdfca	0.49975425
127	0xbf98bc5f	-1.1932486
128	0xbecae612	-0.39628655
129	0x3ee19f70	0.44066954
130	0x3f05660d	0.5210884
131	0xbf41e335	-0.75737315
132	0x3e7e29af	0.24820589
133	0x3f061d4b	0.5238845
134	0x3de340cd	0.11096344
135	0xbfb469bd	-1.4094769
136	0x3f0e2f42	0.5554086
137	0x3ed3a8de	0.41339773
138	0xbedc11d7	-0.4298236
139	0x3e270d32	0.16313627
140	0x3eac8842	0.33697706
141	0xbe8f87e8	-0.28033376
142	0xbecfcec0	-0.40587425
143	0xbfb60945	-1.4221579
144	0xbf633d4a	-0.88765395
145	0x3f6a3692	0.9148952
146	0x3f0fca1a	0.5616776
147	0x3f40fbb2	0.75384057
148	0x3e453fc0	0.192626
149	0x3f22fb87	0.6366505
150	0xc0130335	-2.2970707
151	0xc010befb	-2.2616565
152	0xba95bd5d	-0.0011424233
153	0x3f5b8a7b	0.8575818
154	0x3e4f2f5f	0.20232914
155	0x3ebe321d	0.37147608
156	0xbea77f42	-0.32714278
157	0xc002dc1e	-2.044685
158	0xbe417b11	-0.18894602
159	0x3f0dd90a	0.554093
160	0x3ddc86a9	0.10767872
161	0xbeaf88fc	-0.34284198
162	0xbebc3367	-0.36757967
163	0xbcc8f6b1	-0.024531694
164	0x3f6638b5	0.8993028
165	0xbf0592bb	-0.5217702
166	0x3ed64942	0.41852766
167	0xbf15fbcf	-0.58587354
168	0x3efbc1f6	0.49171418
169	0x3f96ee0e	1.1791399
170	0x3df30cb9	0.11867661
171	0xbee70411	-0.4512029
172	0x3e8eede4	0.2791587
173	0xbe94b7cf	-0.29046485
174	0x3ee3cba0	0.4449129
175	0xbf914445	-1.1348959
176	0x3ec5474b	0.38530955
177	0xbe832203	-0.25611886
178	0xbf39baa1	-0.725504
179	0xbee65853	-0.4498926
180	0x3ef2c92d	0.4741911
181	0x3edf8890	0.43658876
182	0xbea120c2	-0.31470305
183	0x3fad31f4	1.353087
184	0xbea7d2d6	-0.32778043
185	0xbf538f88	-0.82640886
186	0x3dc9e4f2	0.09858121
187	0x3e6e8f17	0.23296772
188	0x3ed44fed	0.4146723
189	0x3ef60023	0.4804698
190	0x3d772186	0.060334705
191	0x3e86d4b9	0.2633417
192	0xbe5a370c	-0.21310061
193	0x3ec2ca52	0.38044983
194	0xbf41ed86	-0.75753057
195	0xbe830686	-0.25590914
196	0xbf051963	-0.5199186
197	0xbd91954d	-0.07108555
198	0xbf04c458	-0.51862097
199	0xbec0538e	-0.37563747
200	0x3cb0d595	0.021586219
201	0x3f1aa4c6	0.60407674
202	0x3bb44c89	0.0055022878
203	0x3e21b454	0.15791446
204	0x3e81f80f	0.25384566
205	0x3f6277b7	0.8846392
206	0x3f17c87e	0.592903
207	0xbf672ff8	-0.9030757
208	0xbebed3d6	-0.37270993
209	0x3ec8e5f2	0.39237934
210	0xbf75d29f	-0.9602451
211	0xbe30a58e	-0.17250654
212	0xbed77250	-0.420794
213	0x3dc5083a	0.0962071
214	0x3f823a15	1.0173975
215	0x3d0f71c6	0.035020612
216	0x3d1c2524	0.038121358
217	0x3e060fa2	0.13091901
218	0xbe2fbf98	-0.17162931
219	0xbf2ee689	-0.6832052
220	0x3e5d422e	0.21607277
221	0x3d8c34cf	0.0684601
222	0x3f5d5ac5	0.8646663
223	0x3e15b48c	0.14619654
224	0xbda28094	-0.079346806
225	0xbef762ac	-0.48317468
226	0x3f267a93	0.65030783
227	0x3eb205b4	0.34769976
228	0xbc86e69b	-0.016467383
229	0x3e1b6356	0.15174612
230	0xbf5375ab	-0.8260142
231	0xbe82174a	-0.25408393
232	0x3f4ab763	0.79186076
233	0x3f315241	0.69266135
234	0x3c51e4eb	0.012810926
235	0x3d0cf2ea	0.03441135
236	0xbf792399	-0.9731994
237	0x3ec01a85	0.37520233
238	0x3db7a7f7	0.089675836
239	0x3d9f10a0	0.07766843
240	0xbf884dd2	-1.0648749
241	0x3eba5c2b	0.36398444
242	0x3e59ebb0	0.21281314
243	0xbec05f6d	-0.37572804
244	0x3e425887	0.18979083
245	0x3f1a2bef	0.6022329
246	0xbd0be45c	-0.034153327
247	0x3e7017db	0.234466
248	0xbfbe4f9a	-1.4868042
249	0x3f217854	0.6307423
250	0xbe1fdbe2	-0.15611222
251	0x3db13c7d	0.08654115
252	0x3e636791	0.22207476
253	0x3f2766b5	0.65391093
254	0xbe1eaa62	-0.15494683
255	0xbeca45f1	-0.39506486

net.0.bias f4 [128]
0	0xbedffabb	-0.4374598
1	0x3f51062a	0.8165003
2	0xbf61552c	-0.88020587
3	0xbeacd4d9	-0.3375614
4	0x3fdbb358	1.7164106
5	0x3e41fadf	0.18943356
6	0x3f972b9c	1.1810184
7	0x3f87992f	1.0593623
8	0x3f80b11a	1.0054047
9	0xbefb4fa6	-0.49084204
10	0xbfc1f50d	-1.5152909
11	0xbff17a6c	-1.8865485
12	0x3fd8314f	1.6890048
13	0xbfe979d8	-1.8240309
14	0xbaed4d94	-0.0018104785
15	0x3eb2767f	0.3485603
16	0x4026bdee	2.6053424
17	0xbee8e43a	-0.45486623
18	0x4006f714	2.1088305
19	0xc01ce30a	-2.4513574
20	0xbf8c0ce2	-1.0941432
21	0x3fc57be7	1.5428437
22	0x3eaba18a	0.33521682
23	0x3f535482	0.82550824
24	0x3fec9c14	1.8485131
25	0xbf0c6d0b	-0.54853886
26	0x3c04befa	0.008102173
27	0x3fee4f0b	1.8617872
28	0x3da1ca1d	0.07899878
29	0x4017303e	2.3623195
30	0x3f1c402a	0.61035407
31	0xbeb745b0	-0.35795355
32	0x4032ab16	2.7916923
33	0xc02ac358	-2.6681728
34	0xc0083a6d	-2.128566
35	0x401ae0ba	2.4199662
36	0x3fbc4b43	1.4710468
37	0xbf9823b4	-1.1885896
38	0x3f9874d9	1.1910659
39	0x3fa1a2fd	1.2627865
40	0x40202ec8	2.5028553
41	0xbe3721bc	-0.17883962
42	0x3ee5260d	0.44755593
43	0x3ff2414a	1.8926175
44	0x3fdfaaed	1.7474037
45	0xbfe2f486	-1.7730873
46	0x40167cc0	2.3513641
47	0x401bdb33	2.4352539
48	0x40248562	2.570641
49	0xbeb8fb5e	-0.36129278
50	0xbec709f0	-0.3887477
51	0x3fca8682	1.5822299
52	0x3f08f87e	0.5350417
53	0xbe903ec6	-0.28172892
54	0xbe9e937c	-0.30971897
55	0xbf857e67	-1.04292
56	0x3e8e9239	0.27845934
57	0x4034633d	2.818557
58	0x400fdf27	2.2479951
59	0xbf5987ec	-0.84973025
60	0x3fa5bf86	1.2949073
61	0x400585e9	2.0862982
62	0x3f4afccc	0.7929199
63	0x3f2ab1a4	0.6667731
64	0x3fecde0f	1.8505267
65	0x400e42a0	2.2228165
66	0x3e633058	0.2218641
67	0x3e68c89f	0.22732781
68	0x3ea34ece	0.3189606
69	0xbf514343	-0.8174326
70	0x40344da5	2.817239
71	0xc00ceab5	-2.2018254
72	0x407c4fff	3.9423826
73	0x402ed77d	2.7319024
74	0x3d933061	0.07186962
75	0x40244965	2.5669796
76	0x3f8fdcf2	1.1239302
77	0xbe374127	-0.17895947
78	0x401feebc	2.4989462
79	0x3fc6fbb1	1.554556
80	0xbf8f0ed0	-1.1176395
81	0x3eae6873	0.34064063
82	0xbef1b989	-0.47211865
83	0xbe0007bc	-0.1250295
84	0x3ff6de81	1.9286653
85	0xbe49053c	-0.19630903
86	0x3f83eb69	1.0306216
87	0x3eddd652	0.43327576
88	0x3f1a24c8	0.60212374
89	0xbf9c07e3	-1.2189907
90	0x3f1f85cb	0.62313527
91	0xbf4a3cf8	-0.7899928
92	0x3fa5265e	1.2902334
93	0x3e19d363	0.15022044
94	0x3d79989d	0.06093656
95	0xbd89ce5a	-0.067288116
96	0x401606a6	2.3441558
97	0x3e600b45	0.21879299
98	0xbd883ae3	-0.06651857
99	0xc00fa1b5	-2.2442448
100	0x3f873784	1.0563817
101	0x3de2f747	0.11082321
102	0x4048b6ac	3.1361494
103	0x3f5b25e5	0.856047
104	0x3e22a715	0.15884049
105	0x4005274f	2.0805242
106	0x3f1c3c35	0.6102937
107	0xbd8ec2a1	-0.06970716
108	0x3fa30d2f	1.2738398
109	0x3e271d7f	0.16319846
110	0xbf8071a1	-1.0034677
111	0x4031ecd8	2.7800808
112	0xbf7167eb	-0.9429919
113	0x402c8dc5	2.696153
114	0x3e2c6feb	0.16839568
115	0xbfffed03	-1.9994205
116	0x3f90209b	1.125995
117	0xbf8b2a4f	-1.0872287
118	0xbf1ff91e	-0.624895
119	0x3f91fe3d	1.1405712
120	0x390bd8a4	0.00013336778
121	0xbe5225c1	-0.20522214
122	0x3f0cbd5e	0.5497645
123	0x3e6ef5e7	0.23335992
124	0x3fa675f6	1.3004749
125	0x3ebdd01e	0.37072843
126	0xbe236d49	-0.15959658
127	0x3eabf9e6	0.33589095

net.2.weight f4 [128, 128]
0	0xbe4842da	-0.19556752
1	0xc030c550	-2.762043
2	0x3eebaaa6	0.46028632
3	0xbf3458cf	-0.7044801
4	0xbea7ab20	-0.32747746
5	0x3e7b03dc	0.24513191
6	0x3f12763b	0.57211655
7	0xbe16d3f6	-0.14729294
8	0x3e242ecc	0.16033477
9	0xbfc55d7a	-1.5419152
10	0xbf26df19	-0.6518417
11	0xbe48f867	-0.19626008
12	0xbe8cd89d	-0.27509013
13	0x3eabf4b2	0.33585125
14	0x3dfaac73	0.12239923
15	0x3e0ea360	0.1392951
16	0xc00b3b33	-2.1754882
17	0x3fed3850	1.853281
18	0x3ed6948d	0.4191021
19	0x3dfee5df	0.12446188
20	0x3eee5f0c	0.4655689
21	0xbf6e18d8	-0.9300666
22	0xbea2691d	-0.3172082
23	0xbf433813	-0.7625744
24	0x3f7db522	0.9910451
25	0x3e190077	0.14941584
26	0x3e251faf	0.16125368
27	0x3f0ec88f	0.5577478
28	0x3e023a5e	0.12717578
29	0xbe8ad93e	-0.27118868
30	0xbe887aa1	-0.26656058
31	0xbf44f204	-0.76931787
32	0x3f6b9370	0.92021847
33	0x3e7350fb	0.2376136
34	0x3f384d3e	0.7199286
35	0x3eea7c1b	0.4579781
36	0xbd2c89ab	-0.042123478
37	0xbcdbddd7	-0.02683918
38	0xbf2085d5	-0.6270421
39	0x3dcdf5c4	0.10056642
40	0x3e8737fb	0.26409897
41	0x3ed82d5c	0.42222106
42	0xbe0339f8	-0.12815082
43	0xbf1f56e5	-0.62241966
44	0xbf2603a6	-0.6484932
45	0x3f58d289	0.8469625
46	0xbf96c357	-1.1778363
47	0xbf9fe7e7	-1.2492646
48	0xbd42bf7a	-0.047545888
49	0x3e70d822	0.23519948
50	0x3f164e20	0.5871296
51	0x3fa6dbcc	1.3035827
52	0xc029e237	-2.654432
53	0xc003e601	-2.0609133
54	0x3b5f250d	0.0034049184
55	0x3f10d275	0.5657113
56	0xbf8a9e49	-1.0829555
57	0xbf63abae	-0.8893384
58	0xbecd9380	-0.40151596
59	0x3e3f86a4	0.18703705
60	0x3e5ea509	0.21742643
61	0xbe479b2e	-0.1949279
62	0x3dd41f4c	0.10357532
63	0x3ecfaaa8	0.40559888
64	0xbe7e46fb	-0.24831764
65	0x3e0a214b	0.13489263
66	0xbed4fa48	-0.415972
67	0xbf6d428d	-0.92679673
68	0xbfd9c423	-1.7012981
69	0xbea40d0f	-0.32041213
70	0x3f003609	0.5008245
71	0x3e557715	0.20846207
72	0x3ed47aae	0.41499847
73	0x3f59e807	0.8511967
74	0x3f146931	0.5797301
75	0x3f1ce032	0.61279595
76	0xbfc078cc	-1.5036864
77	0xbf7e7afe	-0.9940642
78	0x3e1c093b	0.15237896
79	0xbff27c0d	-1.8944107
80	0xbe98e62b	-0.29863104
81	0xbf87d08c	-1.0610518
82	0x3e2667ab	0.16250484
83	0xbf420915	-0.7579511
84	0xbfbebe19	-1.4901763
85	0x3bb91540	0.005648285
86	0xbfc7b3a5	-1.5601698
87	0xbf9292c1	-1.1451036
88	0x3eca70d8	0.39539218
89	0x3f082b29	0.5319086
90	0xbfb4b86a	-1.4118779
91	0xbe4f33ea	-0.20234647
92	0x3d158ccd	0.03651123
93	0x3f82561a	1.0182526
94	0x3fd8fc10	1.6951923
95	0x3f454dc5	0.7707179
96	0xbe9a0db2	-0.30088574
97	0x3e58867c	0.21145052
98	0x3eba4a44	0.36384785
99	0x3e55bc71	0.20872666
100	0xbfb51816	-1.4147975
101	0x3ef75808	0.4830935
102	0x3f1cd842	0.61267483
103	0xbe013f4a	-0.12621799
104	0xbf03a8ad	-0.51429254
105	0x3f7769ce	0.9664582
106	0xbe00fff0	-0.12597632
107	0x3eef0e29	0.4669049
108	0x3e7f7f51	0.24950911
109	0xbf8ab5f2	-1.0836775
110	0xbec41ccc	-0.3830322
111	0xbfa587d3	-1.2932075
112	0xbf48f9f5	-0.78506404
113	0xbebfb314	-0.37441313
114	0xbf51615c	-0.81789184
115	0x3dd68b6e	0.10475813
116	0x3fa75daa	1.3075459
117	0xbf3cbdb5	-0.7372697
118	0x3ebf2073	0.37329444
119	0xbf038f2a	-0.51390326
120	0x3f8bbdae	1.0917261
121	0x3f2e0848	0.67981386
122	0x3f009846	0.5023235
123	0x3f86157b	1.0475305
124	0xbc621a81	-0.013800264
125	0xbf053fc1	-0.52050406
126	0xbe142009	-0.14465345
127	0x3edfc7d7	0.43707153
128	0xbe56de49	-0.20983233
129	0x3f343266	0.703894
130	0x3f6b6985	0.91957885
131	0xbf228611	-0.6348582
132	0xbde9a926	-0.11409216
133	0xc03cc397	-2.9494379
134	0x3fae158c	1.3600326
135	0x3e49dfb4	0.19714242
136	0x3f78ade8	0.9714036
137	0x3f5b7668	0.8572755
138	0xbf354cd7	-0.70820373
139	0x3f30a745	0.69005233
140	0xbf46e33d	-0.7769049
141	0xbf449007	-0.7678227
142	0x3dfe2de6	0.12411098
143	0xbff71e72	-1.9306166
144	0x3e870438	0.26370406
145	0xbf0e100c	-0.55493236
146	0xbf4ee9b6	-0.80825365
147	0x3f729024	0.9475119
148	0x3f0687a3	0.52550715
149	0xbfdb0b50	-1.7112827
150	0x3ef64c1b	0.4810494
151	0x3f637648	0.8885236
152	0xbf4bb7bc	-0.7957723
153	0x3ea25048	0.31701875
154	0xbf6c78f2	-0.9237205
155	0xbec6a216	-0.38795537
156	0xbc5b32f4	-0.013378847
157	0xbd898e4b	-0.06716593
158	0x3f85a52f	1.0441035
159	0x3ee90ea8	0.45518994
160	0x3eb4077a	0.35161954
161	0x3eb9383f	0.36175725
162	0x3f8fbe51	1.1229955
163	0xc074d430	-3.825451
164	0xbfd49bf9	-1.6610099
165	0xbeae45ab	-0.34037527
166	0xbf021ef1	-0.5082846
167	0x3f87f105	1.0620428
168	0xbe9306fc	-0.28716266
169	0xbf5b3092	-0.8562099
170	0xbdb91287	-0.09036737
171	0x3e1599c9	0.14609446
172	0x3e309272	0.17243364
173	0x3f5ec1ea	0.8701464
174	0xbeb3e6cb	-0.3513702
175	0xbfc4a9e9	-1.5364352
176	0xbf5c0841	-0.85950094
177	0x3f33fb8f	0.7030572
178	0xbfd32bb4	-1.6497712
179	0x3ee13ca7	0.43991587
180	0x3f159ab1	0.58439165
181	0x3f3d9f02	0.7407075
182	0xbeb9e0ad	-0.36304227
183	0x3f4c5df2	0.7983085
184	0xbf921c64	-1.1414914
185	0x3d70a4f7	0.058751073
186	0x3ef5736b	0.4793962
187	0x3ea2a038	0.31762862
188	0xbf3f3aae	-0.74698913
189	0x3ed22ddc	0.41050613
190	0xbd115738	-0.03548357
191	0x3e871317	0.26381752
192	0xbee26e42	-0.44224745
193	0x3e553de4	0.2082439
194	0x3ef088d1	0.46979383
195	0x3f15ffa8	0.58593225
196	0x3e07d872	0.13266161
197	0xbf30779a	-0.689325
198	0x3f6cc4e6	0.92487943
199	0x3eaa3c65	0.33249202
200	0xbe9f81d9	-0.31153753
201	0xbe8ed641	-0.27897838
202	0x3ef5198c	0.47871053
203	0xbfcbde11	-1.5927144
204	0xbf764217	-0.96194595
205	0xbfdbeaab	-1.718099
206	0x3f0ecc73	0.55780715
207	0xbd7f0668	-0.06226197
208	0x3cb66f7f	0.022269962
209	0x3f7f38ce	0.9969605
210	0xbdddbac4	-0.10826638
211	0xbfa6027e	-1.296951
212	0xbb0b43c2	-0.0021250104
213	0x3cf6e194	0.03013686
214	0xbed6236b	-0.41823897
215	0x3e8b8a71	0.2725406
216	0xbc930dc2	-0.017950896
217	0xbe5064a1	-0.20350887
218	0x3efe137f	0.4962425
219	0x3f270669	0.65244156
220	0xbeb78a43	-0.35847673
221	0xbf957d2a	-1.1678822
222	0xbfac342a	-1.3453419
223	0x3e3094a7	0.17244206
224	0xc00bdedf	-2.185478
225	0xbf004f57	-0.50121063
226	0xbed6e28e	-0.41969723
227	0xbdba4b77	-0.09096425
228	0x3cd745e0	0.026278436
229	0x3f49aa35	0.7877534
230	0xbe81f3d2	-0.25381333
231	0x3eb50353	0.353541
232	0x3f8e7c95	1.113177
233	0x3f04fb35	0.5194581
234	0xbfbaa97a	-1.458297
235	0xbf212cf6	-0.6295923
236	0xbf272760	-0.65294456
237	0xbf3a9303	-0.7288057
238	0x3c956c7e	0.01824021
239	0xbf9d308b	-1.2280439
240	0xbf89664a	-1.0734341
241	0xbf2b1224	-0.66824555
242	0x3d0b464e	0.034002595
243	0xbe86915d	-0.26282778
244	0xbf78ae30	-0.9714079
245	0x3e483717	0.19552265
246	0xbe19e307	-0.1502801
247	0xbf0cdf8c	-0.55028605
248	0xbf1c5ab8	-0.61075926
249	0x3f2ebb95	0.6825498
250	0x40165435	2.3488896
251	0x3fb7c38d	1.4356552
252	0x3ea8d780	0.32976913
253	0xbd55d9a5	-0.052209515
254	0xbfaf8ddb	-1.3715166
255	0xc02a7320	-2.6632767

net.2.bias f4 [128]
0	0x3e2ae918	0.1669048
1	0xbf22ebe8	-0.63641214
2	0x3dbe72d3	0.09299245
3	0x3df7a3f8	0.120918214
4	0x3d13c5b4	0.036077216
5	0x3f0fb088	0.5612874
6	0x3eed60e7	0.46362993
7	0x3ef114d5	0.47086206
8	0xbddde3f0	-0.10834491
9	0x3e5d442c	0.21608037
10	0x3e9e7324	0.3094722
11	0xbdb874ae	-0.0900663
12	0x3ea07366	0.31338042
13	0x40165a30	2.3492546
14	0xbf57c9a5	-0.8429206
15	0xbff76c13	-1.9329857
16	0xbf296026	-0.66162336
17	0xbdad7fc3	-0.08471634
18	0x402740d6	2.6133323
19	0xbe2eae21	-0.17058612
20	0x3c94498b	0.018101474
21	0x3e50ef27	0.2040373
22	0x4037efb6	2.8740058
23	0xbe81dc9e	-0.2536363
24	0x3fc77384	1.5582128
25	0x4030677e	2.7563167
26	0x3f0ab93a	0.54188883
27	0xbb959a4e	-0.0045655137
28	0x401bfdf6	2.4373755
29	0x3d5e3fa6	0.05425992
30	0x3ece58c2	0.40302092
31	0xbd5a1d60	-0.05325067
32	0xbf42e922	-0.7613698
33	0x403c528a	2.9425378
34	0x40366d89	2.8504355
35	0x402de72f	2.7172353
36	0xbf287b91	-0.6581355
37	0xbc967fad	-0.018371427
38	0x3f74f1d4	0.956815
39	0x3f02ad1b	0.5104539
40	0xbea9d045	-0.3316671
41	0x3d0d90c4	0.034561887
42	0x3e299832	0.16561964
43	0xbf8005ea	-1.0001805
44	0x3f3a619a	0.7280518
45	0x3d8cb605	0.06870655
46	0x3e83cfd7	0.25744507
47	0xbe598876	-0.21243462
48	0x3c4511b5	0.0120281475
49	0xbe30eda2	-0.1727815
50	0x3f80891c	1.0041842
51	0x3db903e0	0.09033942
52	0x3e3fe6b0	0.18740344
53	0x402fc3dc	2.7463293
54	0x3fb28cd0	1.3949223
55	0x403cb710	2.9486732
56	0x3f2f66cc	0.6851623
57	0xbefbea09	-0.49201992
58	0xbfac1607	-1.3444222
59	0xbdf641df	-0.12024283
60	0xbdcedf93	-0.10101237
61	0x3c344cb8	0.011004619
62	0x4040da2d	3.0133164
63	0x3e3a56d4	0.18197185
64	0x3e292d4b	0.16521184
65	0xbd204bf7	-0.039134946
66	0x3f2d0ca5	0.6759742
67	0xbe871eba	-0.2639063
68	0xbeabf5da	-0.33586007
69	0x3ee6c0f8	0.45069098
70	0xbda3e44c	-0.080025285
71	0x3fe0f07f	1.7573394
72	0x3d2252b3	0.03962965
73	0x3f593550	0.84846973
74	0xbdd4c7a5	-0.10389642
75	0xbef05e7e	-0.46947092
76	0x3f607c2b	0.87689465
77	0x3c406825	0.01174358
78	0xbd27e49d	-0.040989507
79	0xbb31473e	-0.002705052
80	0x3d827e69	0.06371767
81	0x3ec492d4	0.3839327
82	0x3f42362e	0.7586392
83	0xbe36f768	-0.17867815
84	0xbef5cd81	-0.4800835
85	0xbec2ddc7	-0.38059828
86	0x4021fbf4	2.531003
87	0xbcc3cdce	-0.023901846
88	0xbdccf204	-0.10007098
89	0x3e0485b5	0.1294163
90	0x3eb6706d	0.3563265
91	0x3dc309ba	0.095233396
92	0x40351bc2	2.8298192
93	0xbd0fc739	-0.035102103
94	0xba7ea710	-0.00097142253
95	0xbdf21a4c	-0.11821422
96	0x3e5eda31	0.21762921
97	0x3fa207dc	1.2658648
98	0xbe376534	-0.179097
99	0x3f3b3b93	0.7313778
100	0x402ad8ea	2.6694894
101	0x3ee13c11	0.4399114
102	0xbeae83a5	-0.34084812
103	0x3ebef1e5	0.37293926
104	0x3f24ce07	0.6437687
105	0x4021a4e7	2.5256898
106	0x3f7132ad	0.9421795
107	0x3c4da3bb	0.012551243
108	0xbc10e3e1	-0.008843393
109	0x4032c9a2	2.7935567
110	0xbf21d2f4	-0.63212514
111	0x3ec45a77	0.3835027
112	0x3f83a35e	1.0284231
113	0xbe14560a	-0.14485946
114	0xbd626ac1	-0.05527759
115	0x400a5fb8	2.1620922
116	0xbf9db93f	-1.2322158
117	0xbf5fc80a	-0.8741461
118	0xbdab32f7	-0.0835933
119	0xbf9c92b6	-1.2232273
120	0x402e7117	2.7256525
121	0x3e379818	0.17929113
122	0xbea176f2	-0.3153606
123	0x3ebda0aa	0.3703664
124	0xbdff5110	-0.12466633
125	0xbecac61d	-0.39604273
126	0x4033a616	2.807012
127	0xbf30282d	-0.68811303

net.4.weight f4 [4, 128]
0	0x3e8b1780	0.27166367
1	0x3f53ab32	0.826831
2	0x4045c988	3.0904255
3	0x401dc953	2.4654129
4	0x4037952d	2.86848
5	0xbf2f0727	-0.6837029
6	0x4078a03b	3.8847797
7	0x402aefd7	2.6708887
8	0xbd9b73c9	-0.07590444
9	0x4006726d	2.100734
10	0x3fed3514	1.8531823
11	0xbcc3d25b	-0.023904016
12	0x40806d78	4.013363
13	0x3eecf0b9	0.46277407
14	0xbfc82a6a	-1.5637944
15	0xc008b6ff	-2.1361692
16	0xbfcab225	-1.5835615
17	0xbd006c17	-0.031353083
18	0x3f906f7a	1.128402
19	0xc0396298	-2.8966427
20	0x3d43fdf5	0.047849614
21	0x406ad462	3.6692128
22	0x3f0b5a04	0.5443423
23	0x40435d75	3.0525792
24	0x3f632be1	0.8873883
25	0x3f202253	0.62552375
26	0x40611cc1	3.51738
27	0xbd39af5d	-0.045333255
28	0x3f223ba5	0.6337226
29	0x402b518b	2.676852
30	0xc00f1d09	-2.2361472
31	0x3daa5d4f	0.083185785
32	0xc02602bf	-2.5939176
33	0x3f218624	0.6309531
34	0x3f1cdcf3	0.6127464
35	0x3ef77119	0.48328474
36	0xc0056ede	-2.0848918
37	0x3d99c7ad	0.07508788
38	0x40171d68	2.3611698
39	0x3ff2e753	1.8976845
40	0xc07e8b86	-3.9772658
41	0x3fb627c0	1.4230881
42	0x402708ea	2.609919
43	0xbfcfe139	-1.6240608
44	0x40218477	2.52371
45	0xbf1131e6	-0.56716764
46	0x3fd90679	1.69551
47	0x3ffa4bde	1.9554403
48	0x402ee0d2	2.732472
49	0xc08ea9f0	-4.4582443
50	0x3fcf617a	1.6201622
51	0x40225b25	2.536813
52	0x404e36f4	3.222104
53	0x3f03c746	0.5147594
54	0x3fbcefb2	1.4760649
55	0x3f068f2f	0.5256223
56	0x4015c231	2.3399775
57	0x3fc0e5e3	1.5070156
58	0xbfe22546	-1.7667625
59	0xbc5a0fa7	-0.013309396
60	0x3d1c1812	0.038108893
61	0x3d8460f9	0.064638086
62	0x3ea90736	0.33013314
63	0x4004f241	2.077286
64	0x4083d9d8	4.1203423
65	0xbd7deeb4	-0.061995223
66	0x3f753586	0.95784795
67	0x3fff6a5a	1.9954331
68	0xbfcad2d9	-1.5845596
69	0x404c9e1e	3.1971507
70	0x3d25277d	0.040320862
71	0x3f0527cf	0.5201387
72	0x404655fc	3.098998
73	0x400f4056	2.2383018
74	0x40488211	3.1329386
75	0x400772ff	2.1163938
76	0x3fe76126	1.8076522
77	0xbd03c6e1	-0.032172088
78	0x3d017766	0.031608008
79	0x4023c8ae	2.5591235
80	0x4049a73d	3.1508324
81	0x403d306b	2.9560802
82	0x407e8a92	3.9772077
83	0x4084fbc9	4.1557355
84	0x405ec410	3.4807167
85	0x404b34dc	3.1751013
86	0x3f46efe3	0.7770979
87	0xbd9003b2	-0.07031955
88	0x3d524515	0.051335413
89	0x3f968bd5	1.1761423
90	0x40020767	2.0317018
91	0x40286384	2.631074
92	0x3f0b4575	0.5440286
93	0x3d3f44f8	0.046696633
94	0xbd97a130	-0.07403791
95	0x40956eae	4.6697607
96	0x407dc810	3.9653358
97	0x3f0194e0	0.5061779
98	0x40a27436	5.076686
99	0xbe6086ec	-0.21926469
100	0x3f99baeb	1.2010168
101	0x4002f5b2	2.046246
102	0x4043b970	3.0581932
103	0x4065fc2b	3.593516
104	0x4027f7a3	2.6244895
105	0x3f370725	0.71495277
106	0x3f3a2729	0.72716004
107	0x40303bd9	2.7536528
108	0x3b17d0ba	0.0023165182
109	0x3efd983f	0.49530217
110	0xbec86a12	-0.39143425
111	0xbf6c1d88	-0.9223256
112	0x3f71f3d7	0.94512695
113	0x4049fd9c	3.156104
114	0xbd3a2731	-0.045447532
115	0x4010e40c	2.2639189
116	0xc07774b2	-3.8664975
117	0xc05615a8	-3.3450718
118	0xbd739732	-0.059470363
119	0xc0521fb0	-3.283184
120	0x3f1127b9	0.56701237
121	0x40806277	4.0120196
122	0x4068fadb	3.640311
123	0x4027af1a	2.6200624
124	0xbb94c35d	-0.0045398907
125	0x3f480fc6	0.7814907
126	0x3f1ea4c6	0.61970174
127	0xc052f5c2	-3.2962499
128	0xbf01a46e	-0.50641525
129	0xc0147569	-2.3196661
130	0x40500a77	3.2506387
131	0x40675933	3.6148193
132	0x4062f7db	3.546378
133	0xbf972199	-1.1807128
134	0x4072aaa0	3.7916641
135	0xbfced6b2	-1.615927
136	0x3c391400	0.011296272
137	0x40129830	2.2905388
138	0xbe2289db	-0.158729
139	0x3bb37a96	0.00547726
140	0x4050da1d	3.2633126
141	0x3f133a26	0.575106
142	0xbffcac2a	-1.974004
143	0xc0087777	-2.1322916
144	0xc0545969	-3.3179572
145	0x3d779322	0.06044305
146	0x3f9ab61d	1.2086827
147	0xbf7f1acf	-0.9965028
148	0x3cd384b5	0.025820116
149	0x4017280d	2.3618195
150	0x3f1f5b73	0.62248915
151	0x40866f73	4.2011046
152	0x4005991e	2.0874705
153	0x3f12c75d	0.57335454
154	0x405b9627	3.4310396
155	0xbcf840df	-0.03030437
156	0x3f2ff4e3	0.6873304
157	0x3f81cb1a	1.0140107
158	0xc03274e3	-2.7883842
159	0x3c8506d0	0.0162386
160	0xbcbbe970	-0.02293846
161	0x3ef17f98	0.4716766
162	0x3f12c359	0.57329327
163	0x3f3cb36a	0.73711264
164	0xc024f82a	-2.5776467
165	0xbc4a6531	-0.0123532275
166	0x3fd609c3	1.6721729
167	0x406237a6	3.5346465
168	0x3e1d50ad	0.15362807
169	0x4063af34	3.5575686
170	0x3fece4e3	1.8507351
171	0xc029f24c	-2.6554136
172	0x3f9fa27c	1.2471461
173	0x3ffc0c38	1.9691229
174	0x3fa81621	1.3131753
175	0xbea13832	-0.31488186
176	0x404dfc71	3.2185328
177	0xc04dcd48	-3.2156544
178	0xbe010e8f	-0.1260321
179	0x402cf055	2.7021687
180	0x407fc5c9	3.9964468
181	0x3f2ce79c	0.6754091
182	0x3f10482b	0.5636012
183	0x3f24f1be	0.6443137
184	0x405d02de	3.4533
185	0xc09799b0	-4.7375107
186	0xbfe9bc16	-1.8260524
187	0xbd8457df	-0.064620726
188	0xbcbb735c	-0.022882156
189	0xbcfd7e05	-0.03094388
190	0x3f04b7fa	0.51843226
191	0x400e9433	2.2277954
192	0x405c56a1	3.4427874
193	0x3d468266	0.0484642
194	0x3fa3b9e0	1.27911
195	0x3fe44607	1.7833871
196	0xc09728ab	-4.7237144
197	0x400faa1b	2.2447574
198	0xbd2494ff	-0.040181156
199	0x3ed44ed6	0.41466397
200	0x3fa877ad	1.3161522
201	0x400a4a4b	2.1607845
202	0x4045bc42	3.0896153
203	0x3fcfab94	1.6224236
204	0x3e08601f	0.13317917
205	0xbc4d0842	-0.012514176
206	0xbb56714b	-0.0032721336
207	0xbf9c9429	-1.2232715
208	0x4029344b	2.6438167
209	0xbf3d2ade	-0.73893535
210	0x40284268	2.629053
211	0x40291e32	2.642468
212	0x405437ef	3.315914
213	0x40877a90	4.2337112
214	0x3f05fa4a	0.52335036
215	0xbd8d4ab6	-0.068990156
216	0x3c4e4433	0.012589502
217	0x4033cfa5	2.8095486
218	0x402c5935	2.6929448
219	0x4064b8aa	3.573771
220	0x3f1d2a23	0.6139242
221	0xbcab7011	-0.02092746
222	0xbd185197	-0.037187185
223	0x404c20cf	3.1895025
224	0x404d42b7	3.207197
225	0x3edb7236	0.42860574
226	0x4044cafb	3.074889
227	0x3ef5070a	0.47856933
228	0x3f882b05	1.0638129
229	0xbe207c63	-0.1567245
230	0x407a1b80	3.9079285
231	0x4056942c	3.3527937
232	0x406e873a	3.7270036
233	0x3ecc4f96	0.3990447
234	0x4017fd17	2.3748224
235	0x402fde23	2.7479331
236	0xbd87d2a7	-0.066319756
237	0x3f2474bb	0.64240617
238	0xc0373c7e	-2.8630672
239	0x404fce76	3.2469764
240	0x401103eb	2.2658641
241	0x40967cc4	4.70273
242	0x3dab1e40	0.08355379
243	0x3f6f6fad	0.9352978
244	0xc0802793	-4.004831
245	0xc01d3b49	-2.4567435
246	0xbcc0f674	-0.023555018
247	0xc026ee0f	-2.60828
248	0x3f245bca	0.6420256
249	0x4087b26e	4.240531
250	0xc02f6c6b	-2.7409923
251	0x402c3966	2.6910033
252	0x3c80a5bb	0.015704026
253	0x4002db5a	2.0446382
254	0x3f1eeedd	0.62083226
255	0xbfccf4ba	-1.6012185

net.4.bias f4 [4]
0	0x3fd8029b	1.6875795
1	0x3fd886e0	1.691616
2	0x3ffacd8f	1.9593982
3	0x40116f57	2.2724206
