Model/Supervised Learning/model.pth (torch, 45492 bytes, 6 tensors)

fc1.weight f4 [128, 17]
000000 4b 9b 88 3e 95 5a 61 3e 04 85 9c 3e 7f 5d 82 be
       0.2668098 0.2200721 0.30570233 -0.25461957
000010 9e 9e 10 bf aa 90 20 bf f0 fc 9b bd 48 ce 93 be
       -0.5649203 -0.6272074 -0.076166034 -0.28868318
000020 aa 4e e8 3d 71 2c bd bd 1b c2 13 be fc 2d 7b be
       0.11343129 -0.09236992 -0.14429514 -0.2452926
000030 45 b3 b8 be 0d 56 4c be 56 ae 05 be 74 52 b2 be
       -0.36074272 -0.19954701 -0.13054785 -0.34828532
000040 00 5c 39 3e e4 9c 56 be 89 18 76 3d 0b b6 34 3e
       0.18101501 -0.20958287 0.060081992 0.17647569
000050 d8 b7 96 3e d8 36 da 3e 24 98 0f 3f a2 bf 13 3f
       0.29437137 0.42619967 0.56091523 0.57714283
000060 10 a2 bf be ae be b4 be ec 48 81 be 42 db cf 3e
       -0.3742833 -0.35301727 -0.25250947 0.40596968
000070 c4 d8 f4 3e 13 2c 33 3d 48 ba 36 3d 81 25 d2 3d
       0.4782163 0.043743204 0.044611245 0.102610596
000080 5a 75 79 3e 4d 49 b4 bd 9b 34 27 3e 0e 4d ca 3d
       0.24361172 -0.088030435 0.16328661 0.09877978
000090 ca 72 7e 3d 6e be 43 be ad dd 5b 3d 46 1e a4 bd
       0.06212119 -0.19115612 0.053678203 -0.08013587
0000a0 31 65 e6 bc ee 3c 51 be ed f8 12 3e 11 b8 ab bd
       -0.028124424 -0.20433399 0.1435277 -0.08384717
0000b0 ae b1 c1 bd 65 48 18 be ea 47 1c be a2 a0 56 be
       -0.09457718 -0.14871366 -0.15261808 -0.20959714
0000c0 ab c2 43 be f8 42 c2 be 44 b5 09 3e 4f 55 94 be
       -0.19117229 -0.37941718 0.13448054 -0.28971335
0000d0 69 1e cd be 97 e9 b5 be 05 f8 24 bf 1f ee e0 3d
       -0.40062264 -0.35529777 -0.6444095 0.10982918
0000e0 b4 f3 10 3e 89 5d ff 3d 20 dc 5e bc 9a 2c 8a 3e
       0.14155465 0.12469012 -0.013602287 0.26987153
0000f0 2a 4c 4e 3e 7e 91 73 3d 0a 95 a2 3d 9f c1 2e be
       0.20146242 0.059464924 0.07938583 -0.17066048
000100 56 ee ec bd 5b 42 de 3b 9b 32 b3 be 66 70 b5 3d
       -0.115688965 0.0067828125 -0.34999546 0.08859329
000110 9a 30 70 bd b2 84 e2 bd 7a ba cf 3d c8 d5 9c bd
       -0.0586401 -0.11060466 0.101429895 -0.07657963
000120 33 1f 92 3e ab 53 1c be 4c d8 33 be d1 d9 41 3e
       0.28539428 -0.15266292 -0.1756298 0.18930747
000130 4a 29 0f 3d 53 3a 30 3e c2 eb 15 3e 41 be 76 3e
       0.034951486 0.17209749 0.14640716 0.24096014
000140 c2 07 52 bd bd 4f 65 be fc 1c 74 bd 4a b4 a3 be
       -0.05127693 -0.22393699 -0.059597954 -0.31973487
000150 ff 49 cf bd af a0 d6 bd 81 0f e6 bc 9c 90 0c bc
       -0.101215355 -0.10479867 -0.028083565 -0.008579399
000160 3d d1 1d 3e 21 3b cd 3c 86 f5 5d bd 90 2b ce 3b
       0.1541185 0.025052609 -0.054189228 0.006291814
000170 67 52 d6 3d e3 23 17 be 77 5a ae bd c3 95 51 be
       0.10464936 -0.14759783 -0.085133485 -0.20467286
000180 68 54 cf bc a9 04 1e bf 92 b4 03 bf 14 05 b3 be
       -0.025308803 -0.6172586 -0.51447403 -0.34964812
000190 9b 71 13 bf 0b 2b 85 bd 19 9a 08 be 35 26 34 3e
       -0.57595223 -0.065023504 -0.13340034 0.175927
0001a0 8e cf 23 3e db 6a 7b bd 5a f0 ab bd 25 38 a2 3d
       0.15997145 -0.061381202 -0.08395453 0.07920865
0001b0 a6 ab 58 3d 40 44 38 3d d4 0c 4a 3d 35 45 d6 bd
       0.05289807 0.044986963 0.04932864 -0.10462419
0001c0 df 90 21 3e 60 99 0f 3e 81 ef ba be b2 3e 60 be
       0.1577792 0.14023352 -0.36510852 -0.21898916
0001d0 fb 8f ad be 74 ce b7 be d3 60 84 bc 58 1e f3 3d
       -0.3389891 -0.358997 -0.01615945 0.11871022
0001e0 5e c1 0f 3e 97 6d f3 be 3d 6f bd 3d 73 50 29 bc
       0.14038607 -0.47544548 0.09249733 -0.010334122
0001f0 11 41 8f bb a6 cd e1 3e 82 ea 58 3e 8a e3 e2 be
       -0.00437177 0.4410221 0.21183208 -0.44314224
000200 79 33 a4 be 68 6a c6 3e 56 eb ad 3e 07 21 f4 be
       -0.3207052 0.38753057 0.3396861 -0.47681448
000210 54 79 d9 be a7 f9 ee be a5 2b bb bd 2e 62 91 be
       -0.4247538 -0.46674845 -0.09139184 -0.28395218
000220 0f 42 0a bf e2 78 06 bf 4f 34 0f bf 3e c3 1b bf
       -0.5400705 -0.525282 -0.5593919 -0.6084479
000230 d9 5d b7 3e 1a 1a 97 3e db 02 71 3e bd d2 55 3e
       0.35813788 0.295121 0.23536246 0.20881172
000240 52 da 2c 3e 27 fd cc 3d 25 bd fa 3d 2f 0a 2a bf
       0.16880158 0.100092225 0.12243108 -0.6642179
000250 5e 61 14 bf fa 4c 3f bf 71 da 36 bf c0 0a 2d bf
       -0.5796107 -0.7472683 -0.71427065 -0.6759453
000260 aa 4f 34 3d f3 0f ee bd e2 45 05 3d bc 79 52 3d
       0.044021286 -0.11624136 0.03253735 0.051385626
000270 d2 53 77 3e 5c d5 28 be d1 60 b2 be 22 cb 89 3e
       0.24153069 -0.1648764 -0.3483949 0.2691279
000280 10 e6 c6 3e 13 8f 1c be 3c 5f 31 be 5e 9f 97 be
       0.388474 -0.15288953 -0.17321485 -0.29613775
000290 49 35 52 3e 0f 2a 1f bf 5e fe fd be d8 8b 2d 3e
       0.20528139 -0.6217355 -0.4960813 0.16947877
0002a0 aa 1d 9e be 19 f4 71 3b 06 19 57 3e b9 84 1c 3e
       -0.30882007 0.0036919175 0.2100564 0.15285005
0002b0 12 a8 2a be 47 50 b3 3e d7 fd 89 bc 2b 21 81 3e
       -0.16665676 0.35022184 -0.016844673 0.25220618
0002c0 b8 22 15 3e 07 c7 d3 3e 73 e1 3d 3e e7 a8 5c 3e
       0.14564025 0.41362783 0.18543033 0.21548806
0002d0 e2 4a f5 3b 71 dc f5 3d 06 0b aa 3e 89 b2 95 bd
       0.0074857334 0.120049365 0.33211535 -0.073094435
0002e0 64 58 67 3e b4 12 e4 3d dc 0f 8a bd 44 f1 af 3e
       0.22592312 0.1113638 -0.06741306 0.3436376
0002f0 75 b7 25 be ca ab c1 be f6 ee 60 3e db 7c 80 3d
       -0.16183265 -0.37826377 0.21966156 0.06273814
000300 30 a4 fd 3d bf ac b0 3d bd 10 df 3d 98 f5 8b bd
       0.12384832 0.08626699 0.108918644 -0.06833953
000310 ba c7 0d 3e 59 12 df 3d 85 3f 25 bd 9e a5 3a be
       0.13845721 0.108921714 -0.04034378 -0.1822724
000320 38 55 a6 3e 6a 3f 4a 3e 28 c5 2c be 83 92 3d bd
       0.32486892 0.19750753 -0.16872084 -0.046282303
000330 39 ef 95 be f5 aa 70 3e 3d e9 b0 3c ff af 11 3d
       -0.29284075 0.23502715 0.021595592 0.035568234
000340 5b 81 15 be ee 0a 22 3e 95 73 a3 3b 36 ac 52 3d
       -0.14600126 0.15824482 0.0049881437 0.051433764
000350 b9 94 ea be 6b 83 3b bd 9a af 95 bd 3b 1f 11 3d
       -0.4581659 -0.045779627 -0.07308884 0.035430174
000360 70 d8 7d be 78 aa e9 be f6 55 ea be 75 3e 3a be
       -0.24789596 -0.4563787 -0.45768708 -0.18187888
000370 07 92 59 be 52 04 52 3e 76 c0 06 3e 26 86 75 3e
       -0.21247111 0.2050946 0.13159356 0.23976955
000380 11 04 67 bc eb b1 cb be 86 5f c3 bd 00 f2 54 be
       -0.014100091 -0.39784178 -0.09539704 -0.2079544
000390 e5 ba 9b bd 2d 09 6d 3e 76 c2 1f bc e0 71 ba bd
       -0.07604007 0.23148032 -0.009750953 -0.09103751
0003a0 6a bb 84 be cb 87 a0 be 37 6a 0d be de ad 2d be
       -0.25924236 -0.31353602 -0.13810049 -0.16960856
0003b0 91 10 0e bf 33 f9 4f 3e 2e d0 58 be 71 bf 27 3e
       -0.5549403 0.20309906 -0.21173164 0.16381623
0003c0 1b 07 9b 3e b5 4e 82 3e 9d 9d 14 bf 9c 4c f5 3d
       0.3027886 0.25450674 -0.58053 0.11977503
0003d0 6b df 2e 3f 73 6e 2c 3f ed 57 ab be bb ea e6 3d
       0.6830966 0.6735603 -0.3346552 0.1127524
0003e0 fa d7 c8 3e c8 f7 c3 3e bd d7 e3 be f2 ba e5 3e
       0.39227277 0.3827498 -0.44500533 0.4486919
0003f0 f4 ca 01 3f a1 7e ed 3e c9 07 50 3c 3d f6 7a 3e
       0.50700307 0.46385673 0.012697169 0.24507995

fc1.bias f4 [128]
000000 d6 7d 2b 3f 89 b6 9a be 87 b8 d3 3e c4 81 00 3f
       0.66988885 -0.30217388 0.4135172 0.50198007
000010 78 36 0f bf 62 12 9e be f0 02 26 3f 89 28 fa be
       -0.5594249 -0.308734 0.6484823 -0.4885905
000020 de 05 ad 3e 27 9d 4f be d7 25 cb be 60 5c 6a be
       0.3379354 -0.20274793 -0.39677307 -0.22886801
000030 ea 9e 46 bc 15 f7 a1 3e 35 76 50 be 42 3a ea 3e
       -0.012122849 0.3163382 -0.20357592 0.45747572
000040 c9 84 10 3f 2d 8c 99 be 89 07 d7 be 89 99 de be
       0.56452614 -0.29989758 -0.41997936 -0.43476513
000050 da 57 30 be 30 0f 2f be 91 0a c3 3c cd 26 c6 be
       -0.17221013 -0.17095637 0.02380875 -0.38701478
000060 b5 53 0b 3f b9 86 c5 bd 0f e1 a9 be 96 69 85 be
       0.544246 -0.09644837 -0.3317952 -0.26057118
000070 67 64 c0 3e cb b2 14 bf 06 b2 76 be d7 db b5 3e
       0.375766 -0.58085316 -0.24091348 0.35519287
000080 52 df a4 be cd b4 31 bd 11 80 e7 be 4d 9f 01 bf
       -0.3220163 -0.043385316 -0.45214894 -0.506337
000090 7e a2 e5 be 64 00 b4 3d d1 be db bc 7e 45 1f 3f
       -0.44850534 0.08789137 -0.026824387 0.6221541
0000a0 f8 52 02 bf 3d 31 67 3e 72 f5 ee 3e 24 87 86 be
       -0.5090785 0.22577377 0.46671635 -0.2627498
0000b0 05 49 dd be 51 15 3d 3f 2e 94 13 3f 43 5a dd 3e
       -0.43219772 0.7386065 0.5764798 0.43232927
0000c0 ed 96 a7 bd 56 06 59 3e 96 cd 04 bf fa 41 4a be
       -0.08183084 0.21193823 -0.518762 -0.1975173
0000d0 dc 9c 13 3f cd d9 19 be 44 0b c8 3e 44 ea 22 3f
       0.57661223 -0.1502449 0.39071095 0.6363871
0000e0 99 c4 97 be 41 8d 22 bd c5 db e3 3d 19 11 46 3f
       -0.2964218 -0.03968549 0.11125902 0.7736984
0000f0 fb b4 cf 3e 6a cf 50 be 83 37 22 be cd 0e d8 3e
       0.40567765 -0.20391622 -0.15841489 0.42198792
000100 5f 45 d1 be 4d 48 65 be 37 92 93 3e 4f f1 f3 3e
       -0.40873238 -0.22390862 0.2882249 0.4764504
000110 4e 35 65 3e 4b 00 1a 3f a1 4e 9b be e6 b6 1a 3f
       0.22383615 0.601567 -0.30333427 0.6043533
000120 0f cf b3 be 77 b7 0e be 59 5f e2 3e 36 4d 31 3f
       -0.3511891 -0.13937174 0.4421337 0.6925844
000130 ca 9b bb 3e 1f 33 91 3e 3c bd c4 be fc 46 b2 be
       0.36642295 0.28359315 -0.38425624 -0.34819782
000140 de 4b ec be 3f 9f 2d 3f 71 9a 02 3f 47 4b d0 bd
       -0.46151632 0.67821115 0.5101691 -0.10170608
000150 6d 9f 34 3e 36 96 bd 3e 84 7c 00 be cd 4e 01 be
       0.17638941 0.37028664 -0.12547499 -0.12627716
000160 db f8 fc 3e 44 9f bb 3e 7b 60 7a be 81 9c 1c 3f
       0.49408612 0.36644948 -0.24450867 0.61176306
000170 06 de 15 bf 15 92 1b 3e ae 68 0c 3f c9 45 10 bf
       -0.58541906 0.15192445 0.5484723 -0.56356484
000180 9a eb c7 3e 17 05 a5 be a9 7d b5 3e 17 fa df be
       0.39046937 -0.32230446 0.35447434 -0.4374549
000190 57 dd 55 3f b8 8c 43 3f 27 62 76 bd e7 69 1a 3f
       0.8354086 0.76386595 -0.0601522 0.60317844
0001a0 70 cb 33 3f 05 d3 24 be 13 d9 1d 3f 86 74 b3 be
       0.70232296 -0.16096123 0.61659354 -0.35049838
0001b0 cb 3c c3 be 9e 1b c0 be 31 8b 31 3f 2d 51 a8 3e
       -0.3813232 -0.3752107 0.69353014 0.32874432
0001c0 05 67 de bd 7e cc fc be d3 92 9c bd e7 2a 49 3f
       -0.10859493 -0.49374765 -0.07645192 0.7858109
0001d0 2d 86 aa bd ea 64 0e 3f fa e3 4b 3f bc 45 a0 3e
       -0.08326373 0.5562273 0.7964474 0.31303203
0001e0 de 76 3f 3f d6 f7 d8 3e f8 a6 83 3e 97 36 30 3f
       0.7479075 0.42376584 0.25713325 0.688333
0001f0 dc 83 4e 3e c2 aa ef 3e c0 89 f3 3d f3 5a fe 3e
       0.20167488 0.46809965 0.11891508 0.49678764

fc2.weight f4 [64, 128]
000000 89 7e df bd 2a 29 8f bd 1e 95 c2 bc ec 52 c1 bd
       -0.109128065 -0.06990273 -0.023752745 -0.09439644
000010 1e 53 40 bd ab 5c b3 3d 68 eb 17 bc 16 de 4e bd
       -0.046954267 0.087579094 -0.009272434 -0.050504766
000020 1a 56 90 bd ff c0 82 bd 78 36 cc 3c 1c b3 15 bd
       -0.070476726 -0.06384467 0.024928316 -0.036547765
000030 9f 74 9d bd 24 ee fa bd 19 4a 41 3c ba 9f e8 bb
       -0.07688259 -0.12252453 0.011797451 -0.007099119
000040 8c a5 94 bc 11 b2 65 3b 97 3e 8b 3c db 50 8a 3d
       -0.018145345 0.0035048763 0.016997619 0.06753703
000050 7a 0b da bd 35 97 c6 bd ec 25 da bb 88 8a 39 bd
       -0.1064672 -0.09696809 -0.0066573527 -0.04529813
000060 0a 02 9c bd 52 a3 20 bd be 87 65 3d d9 6b 96 bd
       -0.076175764 -0.039218254 0.056037657 -0.07344789
000070 f2 d3 d1 bc cd 63 be bd c5 67 a3 3d 27 46 70 bd
       -0.025613759 -0.09296379 0.07978777 -0.058660652
000080 b2 10 86 bd 5e 2d 81 bd a0 21 a0 3c e4 58 09 3c
       -0.06546153 -0.06307481 0.019547284 0.00838301
000090 fb 4a 0b bd 88 ac ad bd e5 68 6d bd 6b 71 b4 bd
       -0.034007054 -0.08480173 -0.057961363 -0.08810695
0000a0 11 fa 9f 3d 70 89 aa bd 2c 15 27 bd 82 57 72 3d
       0.07811368 -0.083269954 -0.040791675 0.059165485
0000b0 fb 9e 3f 3d 04 a9 2a 3d 34 c5 88 3d a3 a8 c4 bd
       0.046782475 0.041665092 0.066782385 -0.096024774
0000c0 37 fc 28 bc 97 89 91 bd 31 14 91 3d 8d 81 a7 bd
       -0.010314039 -0.07106321 0.07083929 -0.08179007
0000d0 cc 76 b9 bc 72 ad 81 bd 48 81 00 3d 0f 44 a5 3c
       -0.022639655 -0.0633191 0.031373292 0.020174054
0000e0 39 c8 fc 3c a6 d4 84 bc 4f 9f 92 bd c9 10 98 bd
       0.030857192 -0.01621468 -0.07159292 -0.074250765
0000f0 bd 2a 81 3d 3d 00 35 bd d5 1a 5e 3d 12 02 bb bd
       0.0630698 -0.04418968 0.054224808 -0.09131254
000100 c1 f3 8c 3b b4 3a b2 bd aa 5c 82 3d dd eb 26 3d
       0.0043015187 -0.08702603 0.063653305 0.04075228
000110 95 4c f1 bc b3 ba 2e bd f1 69 4a 3c 04 e8 34 3d
       -0.029455462 -0.04265852 0.01235436 0.04416658
000120 83 d2 12 bd 35 fe 90 bb b2 ba af bd 9f dd 24 bd
       -0.03584529 -0.004424835 -0.08580531 -0.040250417
000130 d0 09 da bb 8e 8a 09 3c 0c a2 d9 bd 68 fe 9b bc
       -0.006654002 0.00839485 -0.10626611 -0.019042209
000140 a7 f4 42 bd 18 91 3b 3d c7 de ae 3b e3 5d a0 3c
       -0.0475966 0.04579267 0.0053366157 0.019576019
000150 01 57 47 3b d0 9c 29 bd d3 f5 21 3d cd 7e 15 bd
       0.0030416849 -0.041409314 0.039541077 -0.03649788
000160 73 a8 56 3d 26 76 ba bc 8e 0b 7f bd ff e5 3a 3c
       0.05240674 -0.022761416 -0.06226688 0.011407374
000170 aa f8 38 bd c6 30 91 3d b7 8c 8b 3d bd b1 aa bd
       -0.04515902 0.07089381 0.068139486 -0.08334682
000180 70 e6 85 3d 12 af 62 3d 17 7a 69 3c 0e 96 91 3d
       0.06538093 0.05534274 0.0142503 0.07108699
000190 a2 d6 97 3d 79 1e ae bd 65 2b d8 bd 30 7d 41 3d
       0.07413985 -0.08501906 -0.10555152 0.04723853
0001a0 c6 55 74 3d 1f 6e 33 bd aa e6 ad bd 7c 36 9b bd
       0.059652112 -0.04380619 -0.08491261 -0.075787514
0001b0 9d 47 23 bb 78 01 3f bd 52 4d 64 bd f0 49 96 3d
       -0.002491451 -0.04663226 -0.0557378 0.07338321
0001c0 81 b3 00 3d 2b ea b0 3c 64 a8 b0 b7 21 9c 9c bd
       0.03142119 0.021596035 -2.1059248e-05 -0.07646967
0001d0 b8 d9 11 3d 8c f4 83 3b 79 95 8e bd 6e 1b 1e 3d
       0.035608023 0.004026955 -0.069621034 0.038600378
0001e0 d9 23 cc bc 68 68 86 3d 71 6a ad bd 0c 0b ec 3c
       -0.024919437 0.06562883 -0.08467568 0.028813861
0001f0 bf be 82 bd 0d d1 71 bd d5 08 39 bd a4 77 4e bd
       -0.06384038 -0.059037257 -0.04517444 -0.050407067
000200 56 51 db 3d df a6 13 bf af e0 cc bd fb ae 0d 3e
       0.10708873 -0.576765 -0.100037925 0.13836281
000210 9d 50 83 be 9b 95 5f 3c 64 8d bb 3d 65 3e 92 be
       -0.2564744 0.013646509 0.091578275 -0.28563228
000220 45 22 52 3e f6 40 7d bd 25 98 21 be 5f 18 37 be
       0.20520885 -0.06182953 -0.15780695 -0.1788039
000230 a3 0d 03 be ea 10 45 bd 41 b4 43 bf 18 34 96 3e
       -0.12798171 -0.048111834 -0.7644692 0.2933662
000240 8c 00 65 bc 4c b0 e8 be 31 d6 41 bf db 13 0d be
       -0.013977181 -0.45447004 -0.75717455 -0.13777106
000250 ff bf 85 bd ad 47 85 bd bb 32 18 be 7f 8d 76 be
       -0.06530761 -0.06507812 -0.14863102 -0.24077414
000260 02 a0 97 3e b7 fd bc be dc 34 3a be 19 87 a1 bd
       0.29614264 -0.3691232 -0.18184227 -0.07887096
000270 31 c9 39 bd 09 3d a6 be fb 36 05 bf 8e 02 d5 3c
       -0.045357887 -0.3246844 -0.5203702 0.026002195
000280 38 b4 88 be 0d 74 47 bc 8a e1 3f bd 82 db 05 bf
       -0.26699996 -0.012173665 -0.04684595 -0.5228807
000290 76 66 3f bd 76 1b 70 bc 92 ab e9 be ea c9 6c 3d
       -0.046728574 -0.014654985 -0.4563871 0.057809748
0002a0 a8 54 a7 bd 11 c1 5f bc 06 17 47 3e 7d 49 c9 be
       -0.08170444 -0.01365687 0.19442376 -0.3931388
0002b0 fc b0 0b be 9c d1 4e 3e f8 2b c9 3e 7e 3f 6d 3d
       -0.13641733 0.20197147 0.39291358 0.05792188
0002c0 48 fc b2 3d a7 b9 ea bb ba 6f 65 be f2 d1 2f bd
       0.08739525 -0.0071632448 -0.22405902 -0.04292483
0002d0 43 5a c9 3e 7f 55 47 be 2c 8c 15 3e eb 18 25 3e
       0.39326677 -0.19466208 0.14604253 0.16122787
0002e0 c1 86 29 3c 37 d3 04 bf 0f 04 1f bd 36 ab 5b 3e
       0.010347069 -0.5188479 -0.03882223 0.2145203
0002f0 31 27 09 3e ee 87 97 bd da aa 5c 3c e6 b3 47 3f
       0.13393857 -0.073989734 0.013468469 0.7800888
000300 9a d3 07 be c3 a8 88 be 4c b8 aa bc ad 0e e4 bd
       -0.13264313 -0.26691255 -0.020839833 -0.11135612
000310 e2 c7 fe 3d 31 93 17 3d 17 a5 18 be ab dd b8 3e
       0.12440468 0.037005607 -0.14906727 0.3610662
000320 f9 1f 69 be 44 38 eb be 97 01 2d 3e d2 0d 64 3f
       -0.22766103 -0.45941365 0.16895138 0.8908359
000330 2f f4 e0 3d e2 00 82 3c 87 b0 53 bf d4 0a 38 bf
       0.10984074 0.015869562 -0.82691234 -0.7189152
000340 2e 62 cf bd 77 4b 9f 3e c5 79 4f 3e 82 44 4a be
       -0.10126148 0.31112263 0.20261295 -0.19752696
000350 90 01 a6 3c 76 05 3f 3e 0f 48 89 bc 2d 00 73 be
       0.020264417 0.18654427 -0.016757993 -0.23730536
000360 80 a7 92 3d 44 0c a9 3e 5c ae c7 bd e1 15 8b 3c
       0.07160854 0.3301717 -0.09750053 0.016978206
000370 2c 37 b8 be a2 e7 37 bc cc 4b f8 3c 92 4e 85 bf
       -0.35979593 -0.011224659 0.03030958 -1.0414603
000380 09 f5 72 3c d6 f7 7a be 0a 51 43 bd 29 04 7f be
       0.014828929 -0.24508604 -0.047684707 -0.2490393
000390 69 5c 27 3e 39 fe 7f 3e 5f 99 f5 bd b9 ef db 3d
       0.16343845 0.24999322 -0.11992144 0.10739083
0003a0 eb 2d 1e 3e 03 0e e2 be 93 a5 69 3d 53 99 d3 bd
       0.15447204 -0.44151315 0.05704267 -0.10331979
0003b0 10 28 28 3c d3 8b 71 be 2c 4d 3c 3e 84 16 98 3e
       0.010263458 -0.23588495 0.18388814 0.29704678
0003c0 bf 7b a1 bd 79 15 58 be 1e 09 35 be fe 83 77 3e
       -0.07884931 -0.21101941 -0.17679259 0.24171445
0003d0 8c 0c db 3d 6e d8 18 3e 3b 41 4f 3e df 47 08 3f
       0.106957525 0.14926311 0.20239727 0.53234667
0003e0 42 9b 38 3e 21 92 0d bd 7e d8 e9 3e 3d cb 5f 3e
       0.18027976 -0.034563188 0.45672983 0.21854873
0003f0 08 48 83 3e ba 3e bd 3c 0a 7d 3d bb 36 0c c9 bc
       0.25640893 0.0231012 -0.002891364 -0.024541955

fc2.bias f4 [64]
000000 01 98 1f 3d e2 b1 c0 3e f4 55 a2 bc 02 fa 38 be
       0.03896332 0.37635714 -0.019816376 -0.1806412
000010 7c 0e ab 3e f7 52 3e bd a8 a9 ac bd 64 63 c6 3e
       0.33409488 -0.04646584 -0.08430797 0.38747704
000020 ef c0 b5 bd 56 da d7 3e c4 92 cb 3c 73 27 3d be
       -0.0887469 0.42158765 0.024850257 -0.1847208
000030 40 af 0c bb e9 34 eb bd 9a 06 f2 3e 35 f7 d2 bc
       -0.0021466762 -0.11484701 0.47270662 -0.025752643
000040 d2 9e 55 bd ac 4c 3a 3c 79 45 7b 3d dc 77 0e be
       -0.052153416 0.011370819 0.06134555 -0.1391291
000050 c4 45 8b 3e 2e 44 d0 3d d6 80 c0 3e 61 c1 0e be
       0.27201664 0.10169254 0.37598294 -0.13940956
000060 9c 60 2b be d9 b7 46 3e 4d 28 1f bc 54 48 13 3e
       -0.16736072 0.1940607 -0.009714198 0.1438306
000070 a1 a7 8c 3e a7 13 ba 3e 34 82 a4 3c 00 a3 e1 3e
       0.2747164 0.3634312 0.020081617 0.44069672
000080 41 2b d2 bd 3f ee f2 bd 31 9b 51 bd bd 71 e2 3e
       -0.10262156 -0.11861848 -0.051173393 0.442274
000090 98 d5 72 bc a9 f7 c4 3e 5a 24 6b 3e 9c 6b cc 3c
       -0.0148214325 0.384702 0.22963086 0.024953656
0000a0 c6 e7 94 3c 0d f5 5c bc 1a 19 08 be 20 07 81 bd
       0.018176924 -0.013486159 -0.13290825 -0.06300187
0000b0 78 60 e3 3e 5a 83 7d 3d c3 90 96 3e 22 12 dd 3e
       0.44409537 0.061892845 0.2940732 0.43177897
0000c0 62 89 b2 3e 9b c7 2d bd aa 2e c7 bd ff f5 b5 bd
       0.3487044 -0.042426687 -0.09725697 -0.08884811
0000d0 22 07 7b 3e cd 9c b7 bd 6f aa 93 bd 5e 2d ac bc
       0.2451444 -0.08965454 -0.07210242 -0.021017727
0000e0 b2 7b e1 3e e4 9b ed bd 55 b7 d7 3d 8f 9b 8c 3e
       0.44039685 -0.116019994 0.10533015 0.27462432
0000f0 88 56 c1 3e 3d 69 da 3d 69 e7 b9 bd 7e 48 d6 3e
       0.3776133 0.10664604 -0.09077341 0.41852182

fc3.weight f4 [4, 64]
000000 3c 33 03 3e 69 3d 86 3e 83 78 1d 3e 1d 59 87 3d
       0.12812513 0.26218727 0.15378003 0.06608794
000010 ea 4c 3a 3e 8d 39 e1 bc a4 0e b4 bd bf 87 7b 3e
       0.18193403 -0.027493263 -0.08791855 0.24563502
000020 e1 80 62 bc 97 01 1c 3f 68 5a bc 3d 94 08 ab 3c
       -0.013824672 0.60939926 0.09196931 0.020878114
000030 69 e1 5b be de 97 78 3d fa e5 ee 3e eb df 09 3d
       -0.21472706 0.060691707 0.46659833 0.03366081
000040 06 13 29 bd 0f d7 19 bd d8 cf 95 3d 11 ba 42 3d
       -0.041277908 -0.03755861 0.07315034 0.047540728
000050 d4 97 d9 3e 63 aa 62 3e 01 73 8d 3e 22 70 a9 be
       0.42498648 0.2213531 0.27626804 -0.33093363
000060 68 e3 b8 3c 1f f0 32 3f 17 81 25 bd b9 e8 06 3f
       0.022569373 0.69897646 -0.040406313 0.52698857
000070 c5 47 40 3e 71 8f 53 3f 32 5e 47 be 13 7a 11 3f
       0.18777378 0.8264075 -0.19469526 0.56826895
000080 72 9d 14 bd 2c 2d 5f bd 81 99 90 bd 98 61 b7 3e
       -0.036282964 -0.05448644 -0.070605285 0.35816646
000090 bc a9 6f bb a7 d7 3e 3f ca 4b 0b 3e 76 3d 22 bd
       -0.0036569675 0.7454781 0.1360313 -0.039609395
0000a0 04 e0 f2 3d aa ad cd bd a7 0a 80 3d 57 40 49 bd
       0.11859134 -0.100428894 0.06252032 -0.049133625
0000b0 53 b9 d7 3e 69 db 5b 3d d8 c3 93 3e 5f 55 70 3e
       0.4213358 0.053676043 0.28860354 0.23470066
0000c0 e5 23 32 3f 3a 9d d2 bc 92 09 55 3d ad 20 e7 bd
       0.6958602 -0.025709737 0.05201108 -0.11285529
0000d0 96 48 13 3e 17 0a ce bd c9 d6 3f 3e 3a 5a 9a bd
       0.14383158 -0.10060518 0.18734278 -0.075367406
0000e0 5b 67 4d 3f 91 e0 41 bd 3c d7 1f 3e d9 a9 67 3e
       0.8023583 -0.047333304 0.15609449 0.22623385
0000f0 41 56 23 3f 55 e4 1d 3e 37 55 87 bd 83 61 41 3f
       0.6380349 0.15419133 -0.0660805 0.75539416
000100 fe 47 0f 3c 4a 0b 71 3e 48 aa 28 3e 9b 13 1e 3c
       0.008745192 0.23539463 0.16471207 0.009648229
000110 95 7e 3a 3e 5e 91 e4 bd 12 6d 38 3c f7 24 5f 3e
       0.1821235 -0.11160539 0.011256473 0.21791445
000120 df 5e 06 3e 5d 4a 00 3f 81 fa 8c 3b 7b 82 28 bd
       0.13122128 0.5011347 0.0043023233 -0.04114006
000130 6d b9 58 be dc 1e ac 3d fd 6b 01 3f c2 69 05 bd
       -0.21164484 0.084043235 0.505554 -0.03257156
000140 9b ac bd 3d 4f 62 b4 3b 85 b0 c1 3d a6 17 ac bd
       0.092614375 0.0055048834 0.094574966 -0.08402948
000150 87 9e cf 3e f4 26 3c 3e ad 9f 4c 3e 68 d7 87 be
       0.40550634 0.18374234 0.19982786 -0.2653153
000160 c2 07 a4 3c b5 90 3a 3f 20 2b 8d bc 49 ea 0f 3f
       0.02002323 0.72877055 -0.017232478 0.56216866
000170 6a a3 13 3e 3f 4d 40 3f e3 ee 00 3d 26 d5 0c 3f
       0.14417806 0.7511787 0.03147782 0.5501274
000180 81 35 19 3d 53 95 d2 bd 18 8e d3 bc 7f 36 e8 3e
       0.03740454 -0.102823876 -0.025824592 0.45354077
000190 19 ab be bd 60 90 4d 3f 65 ff 2c 3e a1 d9 28 bd
       -0.09309978 0.80298424 0.168943 -0.041223172
0001a0 07 82 9c bd 16 8a c9 bd f6 c0 ef 3c ba 6b 86 bd
       -0.07641988 -0.09840791 0.029266816 -0.06563516
0001b0 18 f6 d8 3e ba 5e ca bc 3c ec 6a 3e cf a7 8f 3e
       0.42375255 -0.024703372 0.22941679 0.28057715
0001c0 62 d9 44 3f 38 2d 5c bc 39 b4 31 3d eb 18 6c bd
       0.768942 -0.013438515 0.043384764 -0.05764095
0001d0 c0 5d 34 3e f8 0e f1 bd 84 88 34 3e c8 6d e9 bd
       0.17613888 -0.11770433 0.17630202 -0.11397892
0001e0 7f b3 30 3f 20 a2 86 3c c2 68 53 3e 9b cd 2c 3e
       0.6902389 0.01643473 0.2064543 0.16875307
0001f0 ce 76 23 3f f4 34 25 3e 04 73 a8 3d 16 5f 35 3f
       0.63853157 0.16133481 0.082250625 0.70848215
000200 d8 0b 76 bd f5 b8 e4 3b c8 58 92 3d 12 1d 15 be
       -0.06006989 0.0069800564 0.0714584 -0.1456187
000210 e8 2b 41 3e 41 d7 cc bc 6a 1d ca bd 12 31 81 3e
       0.18864405 -0.025004985 -0.098688915 0.2523275
000220 55 84 da bd 14 c0 b2 3d 2a 43 ed 3d a7 83 30 be
       -0.106697716 0.08728042 0.11585076 -0.17237721
000230 f6 de 96 be fd c6 53 bb 97 d0 ae 3d 79 cd 51 bd
       -0.2946698 -0.0032314651 0.08535879 -0.051221345
000240 1e 48 43 3c 64 12 8d 3d 21 ae 2d 3e 0b a7 66 3a
       0.01191905 0.06888273 0.16960956 0.0008798695
000250 4b b5 fb 3c 47 21 5d 3e f7 23 30 3d 2e 60 db bd
       0.030726096 0.21594726 0.04300305 -0.10711704
000260 37 1f 31 3e 7c 58 b1 bc 4b ec d7 bd b6 be af be
       0.17297064 -0.021648638 -0.10543116 -0.34325188
000270 a6 2e 43 3e dc df f9 3c b0 61 b4 bd 99 a6 15 3d
       0.19060764 0.030502252 -0.08807695 0.036535833
000280 bb e3 41 bd ce d4 be 3d 4f b9 2d bd 82 ec 85 3d
       -0.04733632 0.09317933 -0.042413052 0.06539251
000290 c6 d0 27 3d ca 0e 0e 3d bc 52 d6 3d 3a b5 d3 3c
       0.040970586 0.034682073 0.10464999 0.025843251
0002a0 db dd 8e bd 7c e5 a3 bd 06 18 a7 3d 57 b2 8e bd
       -0.06975909 -0.08002755 0.08158879 -0.069676094
0002b0 3e 04 b2 3d e4 b1 6f bd 24 22 6e 3b a6 73 bd 3d
       0.086922154 -0.05851926 0.0036336267 0.09250574
0002c0 d6 0c 8a 3d 35 fb b0 bc 36 e0 c8 bd 99 b6 89 bd
       0.067407295 -0.02160416 -0.0980839 -0.06724281
0002d0 75 ec 45 3e a0 e4 e6 3b ed 13 78 3e c9 ba 52 bd
       0.19328482 0.007046297 0.24226351 -0.051447663
0002e0 1e 3f ab 3d ff 18 4a bb 49 6a ae 3c 1d ba 56 3d
       0.08361648 -0.0030837653 0.021290915 0.052423585
0002f0 b9 62 85 3d c5 36 d7 3d cc 8d 86 3d 9d 61 4b 3d
       0.065129705 0.10508493 0.06570014 0.04965364
000300 9c b2 a3 bd 28 f9 7d 3e db b6 a6 3d 3f a4 d5 3d
       -0.079930514 0.24802077 0.08140346 0.10431718
000310 e0 6b 68 3e cd 5f 7c 3d 8b f4 31 3c f0 99 6f 3e
       0.22697401 0.0616148 0.010861526 0.23398566
000320 4c 2a ea 3d 36 71 0e 3f e6 3f d9 3d 8b e1 bc bd
       0.11433849 0.55641496 0.10607891 -0.092227064
000330 4d 68 79 be 61 0c 93 bb e2 f6 c3 3e 89 65 41 3c
       -0.24356194 -0.0044875597 0.38274294 0.011803993
000340 b0 1d 26 bc c3 3d e6 3c 54 62 95 3d cb 22 0a be
       -0.010138914 0.028105622 0.07294145 -0.13489835
000350 be 86 e1 3e 22 72 38 3e f3 e5 64 3e a9 28 89 be
       0.44048113 0.18012288 0.22353344 -0.26788834
000360 07 01 28 3d 7c 26 2f 3f ee d1 46 bb ec eb 16 3f
       0.041016605 0.684181 -0.003033753 0.5895374
000370 5b 81 20 3e 60 10 4b 3f 2b d3 2f bc d2 2f 07 3f
       0.15674345 0.7932186 -0.010731499 0.52807343
000380 ee 30 1e bc fd 34 c4 bd 9d a0 a4 bc 16 8b b4 3e
       -0.00965522 -0.09580419 -0.020096118 0.35262364
000390 15 4d 5e bd 7c d5 53 3f 57 87 e4 3d 7c 5f 89 bd
       -0.05427273 0.82747626 0.111586265 -0.06707665
0003a0 0c 8d b6 3d 61 8b 18 bd 37 76 52 3d 20 4a 56 bc
       0.08913621 -0.037242297 0.05138227 -0.013079196
0003b0 c9 34 00 3f 2f 53 ad 3d fc 72 3f 3e 4e d5 83 3e
       0.50080544 0.08463132 0.18696207 0.25748676
0003c0 e2 6c 30 3f 98 72 d6 bd c7 12 bb bc 7a 57 66 bd
       0.6891614 -0.10471076 -0.022836102 -0.056235768
0003d0 9f 22 13 3e 0e 71 f2 bc 02 f5 36 3e 89 04 e2 bd
       0.14368676 -0.029594924 0.178669 -0.11036021
0003e0 90 fa 4e 3f 20 82 50 bd 34 ad 74 3e a2 07 14 3e
       0.8085108 -0.050905347 0.23894197 0.14456037
0003f0 b8 15 0b 3f 68 28 df 3d f1 ff f5 bd fb ed 2b 3f
       0.54330015 0.10896379 -0.120117076 0.67160004

fc3.bias f4 [4]
000000 a7 98 32 3e 5d 29 50 3e 7d e0 8f 3e ea 69 40 3e
       0.17441045 0.20328279 0.28100958 0.18790403
