Model/Supervised Learning/model_neural.pth (torch, 44980 bytes, 6 tensors)

fc1.weight f4 [128, 16]
-0.095502965 0.17929868 0.029529149 -0.09015971 0.09354325 -0.21240199 -0.0129157705 -0.11863455
-0.11787409 -0.07105341 -0.005627148 -0.124836296 -0.16469155 0.14208323 -0.11789174 0.1850655
-0.0068860697 0.13508841 -0.23007631 0.1302786 0.061560813 0.14536259 0.21434957 0.20273319
-0.24306485 -0.24873573 -0.22416037 0.08468629 0.09369723 0.121696055 0.21394485 0.17804228
-0.08515417 0.2741838 -0.054245096 -0.0063508516 -0.19396193 0.014461277 0.22258647 -0.1514102
-0.21305062 0.09873632 -0.050343513 -0.22699296 -0.20975651 0.12012386 -0.20391496 0.13826963
-0.22853571 0.09256368 0.2203041 0.22508125 -0.07201727 -0.08442721 -0.18199067 -0.22857907
-0.23545471 0.08693859 0.07032251 0.2421787 -0.11580277 0.08152964 0.26494238 -0.19828326
-0.14221829 -0.08254213 -0.19594291 -0.18613642 -0.09411052 -0.12638651 0.20137085 -0.16167323
-0.03895868 -0.25184572 -0.050290197 -0.10714025 0.2283503 -0.21031821 -0.08804862 0.037645116
-0.04634427 -0.09537375 -0.19007738 -0.23017292 -0.05193723 -0.11238429 0.100578725 0.046768956
-0.112405546 0.13024579 -0.24123546 0.11658989 0.21649048 0.20867398 0.18056808 0.15268265
-0.035714027 0.103985816 -0.27030298 0.03972019 -0.13742368 0.16510405 0.21961558 0.13911447
0.028595116 0.05827056 0.27672818 0.04261347 -0.028694747 -0.16093324 -0.113997765 0.23995152
-0.18075198 0.06275713 0.16266923 0.23961224 0.16762787 0.12700534 -0.021367956 -0.12001652
-0.11783998 0.04367516 -0.12640959 0.21169135 0.20068105 0.010192672 -0.15283091 0.051021636
0.18215579 0.24920242 0.20983231 -0.09625093 0.00624247 -0.14194159 -0.09591623 0.09638017
0.015977096 -0.028843734 0.10262908 -0.23965743 -0.03943812 -0.04741677 0.28534898 0.19656196
-0.039118268 0.112671174 -0.19459456 0.1654744 0.11329463 -0.03960179 0.18337916 0.06889446
-0.012875858 -0.2110147 0.16426241 0.24463223 -0.15425956 -0.05781102 -0.09814283 0.12593529
0.17266537 0.09291058 -0.001561562 -0.24827883 -0.14302917 -0.09081628 0.054237552 -0.18041272
0.11933683 0.1354198 -0.15412225 -0.16462629 0.17054184 0.08932642 0.14126988 0.21172743
0.12194267 -0.07542777 -0.19113696 -0.0016395199 -0.122131966 -0.16726452 -0.045254212 0.006337161
-0.19672653 0.23260336 -0.19456276 -0.054976255 -0.067566104 -0.21166618 -0.117089555 0.23389044
0.26224723 -0.00012727486 0.13366124 -0.13908003 -0.25082234 0.15664503 0.20577516 -0.2520383
-0.29299295 -0.032565765 -0.10086271 -0.06170679 0.03905859 0.014457756 0.16668345 -0.10308662
-0.091769576 0.07596363 0.17085037 0.30123994 0.035446268 -0.10433775 0.26659647 0.20528334
-0.2219855 -0.2197508 0.1622687 -0.031117141 0.029885536 -0.109180704 -0.20910427 0.066695474
-0.090759374 0.21847063 0.0013812777 0.14524448 -0.18909307 -0.20097941 -0.047253586 0.21216367
-0.24232963 -0.055084247 -0.00035608557 -0.023113923 0.044486407 0.18593167 -0.24183516 -0.041389823
0.1129592 -0.060400654 0.053966362 0.17115249 -0.23789726 -0.21878247 0.023216482 -0.12124764
0.119354405 0.1336234 0.09778603 0.031025605 0.15035677 0.17482378 -0.13743354 0.1588251
00000000: 0f97 c3bd 139a 373e 1de7 f13c a7a5 b8bd
00000010: 9a93 bf3d e87f 59be ab9c 53bc acf6 f2bd
00000020: f967 f1bd 7384 91bd f063 b8bb 2caa ffbd
00000030: e7a4 28be 447e 113e 3971 f1bd cf81 3d3e
00000040: 8aa4 e1bb 9e54 0a3e 2099 6bbe c167 053e
00000050: 3127 7c3d eed9 143e 747e 5b3e 4a99 4f3e
00000060: fee5 78be 94b4 7ebe 4c8a 65be 0170 ad3d
00000070: 55e4 bf3d c83b f93d 5c14 5b3e b750 363e
00000080: 4f65 aebd d261 8c3e 1b30 5ebd ce1a d0bb
00000090: f59d 46be feee 6c3c b5ed 633e 470b 1bbe
000000a0: f129 5abe 4536 ca3d 0035 4ebd d870 68be
000000b0: 69ca 56be 8003 f63d 15cf 50be 8e96 0d3e
000000c0: 4405 6abe 0792 bd3d 6697 613e b37b 663e
000000d0: ca7d 93bd 2ce8 acbd c35b 3abe a210 6abe
000000e0: 0a1b 71be dc0c b23d 4005 903d b1fd 773e
000000f0: 012a edbd 03f9 a63d 87a6 873e c40a 4bbe
00000100: aca1 11be d90b a9bd 42a5 48be 8c9a 3ebe
00000110: 04bd c0bd 776b 01be 2934 4e3e ab8d 25be
00000120: 2393 1fbd ecf1 80be 18fd 4dbd 596c dbbd
00000130: a9d4 693e a85d 57be d652 b4bd c431 1a3d
00000140: 7dd3 3dbd 5053 c3bd a5a3 42be 73b2 6bbe
00000150: 22bc 54bd bc29 e6bd 38fc cd3d ce90 3f3d
00000160: e134 e6bd 275f 053e 6e06 77be aec6 ee3d
00000170: aeaf 5d3e a2ae 553e d7e6 383e d758 1c3e
00000180: df48 12bd 84f6 d43d 2765 8abe a3b1 223d
00000190: cbb8 0cbe 0911 293e e8e2 603e 0674 0e3e
000001a0: 4e40 ea3c 1cad 6e3d 51af 8d3e 768b 2e3d
000001b0: 3f11 ebbc afcb 24be a977 e9bd dab5 753e
000001c0: 0c17 39be cf86 803d c392 263e e95c 753e
000001d0: a4a6 2b3e b00d 023e da0b afbc 39cb f5bd
000001e0: 1656 f1bd b9e4 323d 8471 01be 9ec5 583e
000001f0: 557f 4d3e 2aff 263c b57f 1cbe 10fc 503d
00000200: 0c87 3a3e eb2e 7f3e 48de 563e 351f c5bd
00000210: a28d cc3b 2359 11be ba6f c4bd f762 c53d
00000220: 66e2 823c b249 ecbc 322f d23d c268 75be
00000230: de89 21bd 1638 42bd 4319 923e 8a47 493e
00000240: 7a3a 20bd 25c0 e63d cc43 47be 1f72 293e
00000250: 0407 e83d 7d35 22bd bfc7 3b3e 8a18 8d3d
00000260: 43f5 52bc 3d14 58be 6834 283e df80 7a3e
00000270: 38f6 1dbe 40cb 6cbd 1cff c8bd 2ef5 003e
00000280: 31cf 303e e747 be3d 53ad ccba ce3c 7ebe
00000290: 3d76 12be e3fd b9bd 3228 5e3d 1dbe 38be
000002a0: de66 f43d 7dab 0a3e 39d2 1dbe cb93 28be
000002b0: 85a2 2e3e c5f0 b63d 0da9 103e 13cf 583e
000002c0: 14bd f93d e079 9abd 68b9 43be 29e5 d6ba
000002d0: 5320 fabd 6447 2bbe 7b5c 39bd f6a7 cf3b
000002e0: ae72 49be 932f 6e3e 763b 47be c82e 61bd
000002f0: 1960 8abd 05bf 58be a6cc efbd fa80 6f3e
00000300: 4545 863e 1675 05b9 7ede 083e ff6a 0ebe
00000310: c96b 80be 8e67 203e b9b6 523e 2a0b 81be
00000320: 2c03 96be ae63 05bd 1c91 cebd 42c0 7cbd
00000330: e6fb 1f3d 39e0 6c3c 11af 2a3e 141f d3bd
00000340: b0f1 bbbd d292 9b3d 66f3 2e3e 1f3c 9a3e
00000350: 1b30 113d 08af d5bd 557f 883e cc35 523e
00000360: 2b50 63be 5b06 61be c429 263e 60e9 febc
00000370: 83d2 f43c 229a dfbd 6e1f 56be a397 883d
00000380: 0de0 b9bd c4b6 5f3e fd0b b53a f8ba 143e
00000390: 9da1 41be 8ccd 4dbe fa8c 41bd 6f41 593e
000003a0: 4225 78be 05a0 61bd ffb0 bab9 6959 bdbc
000003b0: 6137 363d df64 3e3e a3a3 77be 6088 29bd
000003c0: 2757 e73d ad66 77bd d50b 5d3d 9942 2f3e
000003d0: 579b 73be 8308 60be 7e30 be3c af50 f8bd
000003e0: 1570 f43d 93d4 083e 0b44 c83d 6929 fe3c
000003f0: 20f7 193e 0105 333e 61bb 0cbe 0ca3 223e

fc1.bias f4 [128]
0.16669269 0.05741599 -0.102048956 -0.08956063 -0.2149738 0.13593343 0.22169988 0.11720467
-0.020524943 0.16987884 0.15224296 -0.015576649 -0.23889576 -0.042438664 0.21001813 0.11941144
0.036450848 0.03829482 -0.19887789 0.11627681 0.18482764 0.01483751 -0.12134748 -0.121233664
0.013833266 0.124851175 0.03725967 0.098276086 -0.21077046 -0.06427135 0.047091946 0.16009615
0.07470644 -0.034275588 0.18677379 0.19997641 -0.0126781585 -0.116637155 0.0948103 -0.15455681
0.11504315 -0.018895598 0.2150857 -0.11589408 0.1942619 0.17062195 0.2296498 0.14956148
0.061835755 -0.19472504 0.20869207 -0.2163129 -0.056812998 0.08767094 0.20419237 0.23661706
-0.0671791 -0.010270354 -0.1773949 -0.10657887 0.2689957 -0.05714458 0.2096575 0.07339732
0.14144701 -0.09919177 0.123015024 -0.11048357 -0.017027393 -0.15077749 0.16329332 -0.15281485
0.07156069 0.006944931 -0.013040006 0.09695896 -0.15319568 -0.0555583 0.187341 -0.0041897185
0.13849416 -0.09934709 0.0002826327 0.21967326 -0.17089117 0.07822143 0.26129666 0.30403295
-0.068965204 -0.26701555 -0.14521432 0.29669172 -0.12616545 -0.16025335 -0.07145402 -0.14928156
0.020442082 0.02718153 -0.114409976 -0.12994435 -0.14107859 -0.055200167 0.18086663 -0.18265153
-0.05359261 -0.18450738 0.105622716 0.13046436 -0.25794563 0.011314303 -0.1275686 -0.101287
-0.023978248 0.103532076 -0.23829241 -0.08641433 -0.031121073 0.09075527 0.22754735 0.21824789
-0.09344442 -0.10711636 0.0968392 -0.12155743 0.09117483 -0.15136026 -0.021805882 0.13708603
00000000: 7db1 2a3e 072d 6b3d 0bff d0bd 906b b7bd
00000010: 1822 5cbe 2232 0b3e 4b05 633e 0109 f03d
00000020: ed23 a8bc b8f4 2d3e 94e5 1b3e 3435 7fbc
00000030: 17a1 74be 2ad4 2dbd fe0e 573e fc8d f43d
00000040: 7c4d 153d 07db 1c3d a5a6 4bbe 8922 ee3d
00000050: 7543 3d3e 0719 733c 0785 f8bd 5b49 f8bd
00000060: eca4 623c f9b1 ff3d 999d 183d f944 c93d
00000070: 36d4 57be b3a0 83bd 7ce3 403d 3ff0 233e
00000080: b1ff 983d 8f64 0cbd a141 3f3e 9ec6 4c3e
00000090: 0db8 4fbc 76df eebd e72b c23d 2444 1ebe
000000a0: be9b eb3d f1ca 9abc 6d3f 5c3e e059 edbd
000000b0: 97ec 463e 85b7 2e3e 5129 6b3e a526 193e
000000c0: 7d47 7d3d 0066 47be 60b3 553e 2181 5dbe
000000d0: bfb4 68bd d28c b33d ce17 513e be4b 723e
000000e0: 3295 89bd fd44 28bc 02a7 35be 0646 dabd
000000f0: ceb9 893e 6f10 6abd 75b0 563e 5651 963d
00000100: 7cd7 103e 0e25 cbbd 4def fb3d 3645 e2bd
00000110: 087d 8bbc 6a65 1abe 5d36 273e 7f7b 1cbe
00000120: 698e 923d 4e92 e33b c0a5 55bc 6b92 c63d
00000130: 54df 1cbe 1a91 63bd 52d6 3f3e e849 89bb
00000140: 6ad1 0d3e 7d76 cbbd 522e 9439 07f2 603e
00000150: 18fe 2ebe 8f32 a03d adc8 853e 35aa 9b3e
00000160: a13d 8dbd 43b6 88be 10b3 14be fae7 973e
00000170: 8431 01be 7419 24be 7c56 92bd 44dd 18be
00000180: 2776 a73c cdab de3c c74f eabd 2210 05be
00000190: e876 10be 9219 62bd 1a35 393e 0109 3bbe
000001a0: ed83 5bbd 81ef 3cbe b950 d83d 7398 053e
000001b0: 7311 84be a05f 393c 58a1 02be 8f6f cfbd
000001c0: 086e c4bc a008 d43d ed02 74be fff9 b0bd
000001d0: 9ff1 febc e6dd b93d 2c02 693e 607c 5f3e
000001e0: ca5f bfbd d25f dbbd a153 c63d 1af3 f8bd
000001f0: dfb9 ba3d 2ffe 1abe 40a2 b2bc 4860 0c3e

fc2.weight f4 [64, 128]
-0.06279974 0.05095848 0.029326493 -0.02782532 -0.07040488 -0.011131046 0.059228804 0.008799202
-0.014832206 0.060707983 -0.011214906 0.022853876 -0.11302115 0.027410023 0.012325021 -0.0021940125
-0.11677595 0.0064320713 -0.040095035 -3.0589355e-05 0.07472668 -0.099864855 0.053302612 0.026858827
-0.0260107 0.10714912 -0.030096492 -0.009493939 -0.08573436 0.06943604 -0.08522366 -0.010474227
-0.10520366 -0.0005562618 0.005979704 -0.003039348 -0.008228685 0.025825292 0.103924766 -0.07505119
-0.10223956 -0.06442415 -0.023699226 0.06516739 -0.047788538 0.06484904 0.07730482 0.08181934
0.06016749 -0.03156717 -0.06898128 -0.07423497 0.022774495 -0.08676285 0.12868002 0.042367037
-0.11673926 -0.03459061 -0.07924959 -0.057065226 0.10062075 0.02143799 0.00786245 -0.044500172
-0.0966137 0.014381002 -0.019540237 -0.03286759 0.09778254 -0.017826622 -0.0906846 0.077586435
-0.018765807 -0.06996132 -0.022553101 -0.11251597 -0.08036837 -0.040334694 -0.05308332 0.1048611
0.015637266 -0.034651093 0.092841834 0.025244836 0.016696462 0.06869479 -0.04093912 0.035337575
-0.04426496 0.013812468 -0.00040122567 -0.031214667 -0.0520499 0.038265526 0.050373014 0.011200368
0.047912747 -0.058101818 0.109551825 -0.053877164 0.022337615 0.04066231 -0.010922543 -0.074165165
0.059905536 0.033375137 -0.0086083915 -0.0050682556 -0.053524658 0.08157136 -0.06243908 -0.20890899
0.1001394 0.032064892 -0.09318662 -0.018342366 -0.09177653 -0.076066226 -0.021760449 -0.06626539
0.015183909 -0.08651994 -0.02776933 -0.031912934 0.012985073 -0.07207331 -0.02852528 -0.017212944
0.022002228 0.090656206 0.06613816 -0.051895965 -0.08738356 0.054607034 0.09330255 -0.00991472
0.009930488 0.092099756 -0.011320966 -0.04164853 0.036728736 -0.021473477 0.086789474 0.045627616
-0.069650166 0.07805131 0.07346083 0.007929929 0.0410501 -0.097964995 -0.065810084 -0.04964047
0.11330019 -0.0024014348 0.011381397 -0.04035368 -0.08319655 0.09625945 0.008623036 0.0057043275
-0.026000991 -0.060249213 0.0741148 -0.0066824392 -0.049725305 -0.04753463 0.054510895 -0.059061397
-0.088617645 -0.06829272 0.06234963 0.02151738 0.054358855 0.023862755 -0.088721685 -0.0035732149
-0.09497862 0.05575228 -0.049581 -0.039498955 -0.044307895 -0.058855817 0.03744383 -0.040518727
-0.04729435 -0.06113571 0.05875568 0.045176096 -0.028200388 -0.017575452 0.1063539 -0.03550102
-0.07115356 -0.07500651 -0.05443189 0.028790051 0.08552414 -0.06068079 -0.063752346 -0.0094217835
0.054639786 -0.08360101 0.011701292 -0.07645984 0.030903608 -0.014749017 -0.04367381 0.12965555
0.026990926 0.06187034 0.0018594088 -0.011732173 0.07975539 0.06232842 0.04449784 0.022237685
-0.031042298 -0.053271953 -0.023315115 0.06089553 -0.06136527 0.014414928 -0.05175449 -0.027732491
-0.021736257 -0.0400922 0.08138709 0.036397226 0.049652122 0.04522712 0.01331498 0.009657131
-0.014551031 0.10960789 -0.021104606 -0.040953267 0.049155634 0.09751474 0.036771417 -0.15617247
0.11941305 -0.09698036 -0.009787124 -0.03401537 -0.0006037382 0.008162874 -0.051711112 0.08143522
0.015626878 0.08127763 0.020639213 -0.07517557 -0.056958318 0.055643626 -0.03147472 0.064161055
00000000: 269d 80bd d7b9 503d 1d3e f03c edf1 e3bc
00000010: 6f30 90bd fe5e 36bc e799 723d 872a 103c
00000020: c802 73bc efa8 783d babe 37bc 0d38 bb3c
00000030: a277 e7bd fc8a e03c e3ee 493c 6cc9 0fbb
00000040: 3b28 efbd 20c4 d23b b13a 24bd 124d 00b8
00000050: 4d0a 993d f285 ccbd d753 5a3d 0b07 dc3c
00000060: 6414 d5bc ff70 db3d eb8c f6bc 778c 1bbc
00000070: 7f95 afbd 7c34 8e3d be89 aebd 189c 2bbc
00000080: 0475 d7bd 19d2 11ba 65f1 c33b cc2f 47bb
00000090: 9bd1 06bc 908f d33c 82d6 d43d 70b4 99bd
000000a0: f962 d1bd cff0 83bd e124 c2bc 7b76 853d
000000b0: eabd 43bd 93cf 843d fd51 9e3d e690 a73d
000000c0: 3072 763d 944c 01bd 0f46 8dbd 8108 98bd
000000d0: 9491 ba3c b9b0 b1bd b2c4 033e 0f89 2d3d
000000e0: fe14 efbd e2ae 0dbd 9c4d a2bd 3abd 69bd
000000f0: 4012 ce3d b99e af3c 81d1 003c d045 36bd
00000100: 67dd c5bd 4b9e 6b3c d912 a0bc 2ba0 06bd
00000110: 3642 c83d 2309 92bc d9b8 b9bd a3e5 9e3d
00000120: c0ba 99bc e147 8fbd 48c1 b8bc c66e e6bd
00000130: 2c98 a4bd fe35 25bd e56d 59bd 6bc1 d63d
00000140: b919 803c 4eee 0dbd dc23 be3d 42ce ce3c
00000150: 05c7 883c dbaf 8c3d c7af 27bd 22be 103d
00000160: 2d4f 35bd b14d 623c 995b d2b9 e7b5 ffbc
00000170: 4732 55bd 50bc 1c3d ef53 4e3d c081 373c
00000180: 2840 443d 2cfc 6dbd b55c e03d 4dae 5cbd
00000190: 60fd b63c 868d 263d 77f4 32bc e8e3 97bd
000001a0: 825f 753d 5eb4 083d 360a 0dbc 9c13 a6bb
000001b0: ac3c 5bbd e30e a73d 1fc0 7fbd 3dec 55be
000001c0: e315 cd3d 7a56 033d a0d8 bebd bb42 96bc
000001d0: 55f5 bbbd 9cc8 9bbd f842 b2bc 26b6 87bd
000001e0: eec5 783c 5e31 b1bd 827c e3bc 23b7 02bd
000001f0: 58bf 543c 2c9b 93bd d9ad e9bc 2902 8dbc
00000200: 043e b43c f6a9 b93d 7273 873d dd90 54bd
00000210: 27f6 b2bd a0ab 5f3d 6815 bf3d 5a71 22bc
00000220: 7cb3 223c cc9e bc3d 937b 39bc a697 2abd
00000230: df70 163d 25e9 afbc aebe b13d 06e4 3a3d
00000240: bfa4 8ebd 5dd9 9f3d a272 963d 88ec 013c
00000250: 2624 283d dfa1 c8bd 70c7 86bd ce53 4bbd
00000260: ee09 e83d 6461 1dbb 0a79 3a3c e649 25bd
00000270: f462 aabd ad23 c53d a247 0d3c 5eeb ba3b
00000280: 0800 d5bc e1c7 76bd 80c9 973d 5df8 dabb
00000290: c3ac 4bbd acb3 42bd d146 5f3d 5dea 71bd
000002a0: 2b7d b5bd 0edd 8bbd 5362 7f3d 3745 b03c
000002b0: 64a7 5e3d d37b c33c b7b3 b5bd 992c 6abb
000002c0: 2784 c2bd 815c 643d 7215 4bbd a8c9 21bd
000002d0: 327c 35bd cc12 71bd b45e 193d f7f6 25bd
000002e0: b8b7 41bd 7069 7abd cca9 703d 920a 393d
000002f0: 8004 e7bc 65fa 8fbc 13d0 d93d 8469 11bd
00000300: f5b8 91bd 039d 99bd f9f3 5ebd 1dd9 eb3c
00000310: 4827 af3d 6c8c 78bd 9790 82bd d35d 1abc
00000320: f8cd 5f3d 0237 abbd c7b6 3f3c fa96 9cbd
00000330: 9029 fd3c dca5 71bc 4fe3 32bd 6dc4 043e
00000340: 131c dd3c c16b 7d3d 68b7 f33a 4d38 40bc
00000350: cb56 a33d 164c 7f3d 5e43 363d ce2b b63c
00000360: 6b4c febc b133 5abd 57ff bebc 976d 793d
00000370: 265a 7bbd 972c 6c3c 84fc 53bd 402f e3bc
00000380: 3c10 b2bc b837 24bd 46ae a63d 4215 153d
00000390: 0660 4b3d 1340 393d 1327 5a3c f138 1e3c
000003a0: 7367 6ebc 1a7a e03d 91e3 acbc 9dbe 27bd
000003b0: 6b57 493d cfb5 c73d a09d 163d adeb 1fbe
000003c0: d48e f43d a49d c6bd 2c5a 20bc b353 0bbd
000003d0: 2f44 1eba 93bd 053c 08cf 53bd 82c7 a63d
000003e0: f003 803c e374 a63d 9113 a93c a6f5 99bd
000003f0: 204d 69bd 92ea 633d a3eb 00bd df66 833d

fc2.bias f4 [64]
0.079175204 0.051425718 0.03236326 0.010104097 -0.0030861737 0.07196115 -0.020401366 0.004565598
-0.059374925 -0.031710178 0.048296284 0.022126865 -0.08914963 0.076450646 -0.04093883 -0.061937034
-0.077977575 0.079163305 -0.099370725 0.02871668 -0.101543345 -0.04765116 -0.07872269 0.044898383
0.0171028 -0.01783457 0.07310387 0.009844048 -0.04846748 0.041131094 -0.08566737 -0.05646558
0.05937959 0.01091773 -0.06631404 -0.036556724 0.053458683 0.04191659 -0.097598344 -0.005243265
-0.008615802 0.026947511 -0.06274268 -0.04154164 -0.018463973 -0.095614366 0.11501225 -0.061725505
-0.05630367 -0.0946549 -0.05540726 -0.013561852 -0.048183624 0.027308194 -0.019175418 -0.0068255933
0.083779834 -0.06315958 0.0018486704 -0.11011802 0.04078926 -0.06856568 0.0038375182 0.023685744
00000000: 9c26 a23d c6a3 523d 568f 043d a88b 253c
00000010: 6741 4abb 5e60 933d c420 a7bc 039b 953b
00000020: 1f33 73bd 88e2 01bd 53d2 453d 6643 b53c
00000030: 1594 b6bd 2892 9c3d 79af 27bd b0b1 7dbd
00000040: b5b2 9fbd 5f20 a23d e182 cbbd 3e3f eb3c
00000050: f5f5 cfbd dd2d 43bd 5d39 a1bd 5ee7 373d
00000060: 2c1b 8c3c ce19 92bc 7bb7 953d ee48 213c
00000070: d685 46bd 1479 283d 6072 afbd 7448 67bd
00000080: 0338 733d 47e0 323c a8cf 87bd 81bc 15bd
00000090: 7ef7 5a3d bbb0 2b3d a4e1 c7bd b2cf abbb
000000a0: 4b29 0dbc 07c1 dc3c 3c7f 80bd 9127 2abd
000000b0: c241 97bc 77d1 c3bd 8b8b eb3d e2d3 7cbd
000000c0: ad9e 66bd 6eda c1bd b9f2 62bd 8832 5ebc
000000d0: 315c 45bd 6fb5 df3c c415 9dbc 3aa9 dfbb
000000e0: c394 ab3d cf59 81bd 164f f23a 8e85 e1bd
000000f0: a412 273d 2a6c 8cbd df7e 7b3b 9b08 c23c

fc3.weight f4 [4, 64]
0.046239074 0.04910563 -0.0020879412 -0.11735715 0.028778322 -0.11440325 -0.008049956 -0.118871376
-0.09696797 -0.047055695 -0.026731748 -0.08193841 -0.11008225 0.16984814 -0.019180454 -0.12729459
0.0150350975 0.0558194 0.10835212 0.02664961 -0.05215075 0.042743657 0.075026534 0.024286319
-0.054232415 0.14167276 -0.01189509 0.09078286 0.12953131 0.08019051 -0.02833088 0.12215141
0.046190217 0.09362569 0.053441264 -0.13344152 -0.017775554 0.0013825516 0.023880132 0.0014288863
-0.0862648 0.04045227 0.10516296 0.014534202 0.048319247 0.07141327 0.048524607 -0.05404234
-0.0070904815 0.0875693 0.041332822 -0.060287848 0.017425314 0.06904584 -0.035611432 0.03689855
0.017201463 -0.050495323 -0.032773383 -0.01025273 -0.09946076 -0.067173846 -0.05218775 0.06918259
-0.058514733 0.08028603 0.002541717 -0.01426145 0.058958266 -0.103509255 -0.048922006 -0.025408203
-0.045882635 -0.11881945 0.09101221 0.08544579 -0.016093364 0.13084139 0.08645864 -0.09861666
-0.04536475 0.05870466 0.05331207 -0.07114155 0.016838305 0.07942615 0.0769718 0.0761958
-0.049028203 0.11794501 -0.0061266916 -0.0237164 -0.09080988 0.10815567 -0.087616615 -0.013378197
0.030204229 0.06702001 0.09459492 -0.0118935825 -0.056054983 -0.05172228 -0.099987306 0.000647112
0.07068401 0.025327995 0.088393986 -0.051189356 0.008823518 0.009192956 0.015848657 -0.011402493
-0.003665036 0.1180025 -0.044657335 -0.059767667 -0.027141511 -0.10374508 0.015952958 0.07125941
0.04205317 -0.0686038 -0.0640644 0.10364863 -0.11106108 -0.14997353 -0.05846277 -0.01825213
0.15554096 0.12793255 0.00304343 -0.019421982 -0.106846206 -0.11767115 0.06889042 -0.06524517
0.0174233 -0.09442201 0.11305778 -0.11025432 0.03773314 0.14573221 0.011852084 -0.11817768
-0.11722217 -0.05717153 -0.115126014 -0.020004913 0.01899001 0.035534244 -0.06173571 -0.093287736
-0.07154052 0.035073232 0.07405368 0.07091451 0.077414684 0.13567232 -0.059537526 0.05822053
-0.03904585 0.07168389 0.03672105 0.012906833 -0.096144564 0.08339374 -0.06810034 -0.10278256
-0.09641957 -0.0037950082 -0.002002979 0.0538887 0.12546168 -0.017584732 0.05106449 -0.10920755
0.112119526 -0.09431238 -0.016515806 0.07097996 -0.07216705 0.116052076 -0.07446412 0.028257197
0.08835284 0.082796134 -0.023155596 -0.07730067 -0.022813974 -0.112901665 0.0020700225 -0.050380696
0.12133953 0.07645876 0.004695803 -0.09634206 -0.089579575 0.051752895 0.0933592 -0.039051592
0.03403129 -0.09463088 0.10033284 -0.08666647 -0.11865852 0.08071467 0.030086199 -0.1121395
0.013720589 0.09863018 -0.11781901 -0.0797417 0.007820527 -0.076565705 0.12279069 0.013574498
0.09263827 0.09703452 -0.012799011 -0.09070538 0.039874483 0.12816505 0.06757302 0.07180625
0.064816855 0.10073956 0.07999288 -0.036193363 0.071468934 0.06398275 -0.040001497 -0.0061124368
0.057712246 -0.048031524 -0.10518503 -0.03912887 0.1173447 0.11031205 0.082533956 -0.080608085
0.10578491 0.11726781 -0.068450734 -0.0974991 -0.06610359 0.01751437 -0.043826334 0.10341133
0.100277245 0.04211941 0.028729226 -0.07683747 -0.077453256 -0.14275822 -0.027079072 -0.10039944
00000000: 2f65 3d3d fc22 493d d7d5 08bb f258 f0bd
00000010: 84c0 eb3c 404c eabd f6e3 03bc d672 f3bd
00000020: 2597 c6bd 79bd 40bd 8afc dabc 53cf a7bd
00000030: cd72 e1bd acec 2d3e 5420 9dbc 8359 02be
00000040: c555 763c e2a2 643d b7e7 dd3d 4850 da3c
00000050: 069c 55bd f913 2f3d 83a7 993d 1af4 c63c
00000060: cf22 5ebd aa12 113e a0e3 42bc 5dec b93d
00000070: dba3 043e ec3a a43d 2916 e8bc 852a fa3d
00000080: f431 3d3d d3be bf3d 3ae5 5a3d e5a4 08be
00000090: 0a9e 91bc bc36 b53a 44a0 c33c 7849 bb3a
000000a0: 99ab b0bd 48b1 253d ae5f d73d dd20 6e3c
000000b0: 67ea 453d 1f41 923d bdc1 463d 805b 5dbd
000000c0: 4557 e8bb 8857 b33d 9b4c 293d 64f0 76bd
000000d0: 88bf 8e3c e867 8d3d 4bdd 11bd ef22 173d
000000e0: 15ea 8c3c 2fd4 4ebd 623d 06bd 11fb 27bc
000000f0: 15b2 cbbd 7192 89bd d2c2 55bd 9aaf 8d3d
00000100: 25ad 6fbd 016d a43d ef92 263b dba8 69bc
00000110: 397e 713d a9fc d3bd 7162 48bd dd24 d0bc
00000120: 6eef 3bbd 9d57 f3bd 9c64 ba3d 34fe ae3d
00000130: 3bd6 83bc 49fb 053e 3a11 b13d 88f7 c9bd
00000140: 63d0 39bd 4c74 703d c25d 5a3d a9b2 91bd
00000150: 7cf0 893c 2daa a23d 64a3 9d3d 8b0c 9c3d
00000160: ccd1 48bd 278d f13d 6ac2 c8bb e548 c2bc
00000170: 88fa b9bd b880 dd3d 5770 b3bd 3a30 5bbc
00000180: dc6e f73c c941 893d fbba c13d 4ddd 42bc
00000190: e999 65bd beda 53bd 25c6 ccbd f4a2 293a
000001a0: c7c2 903d a87c cf3c e807 b53d eeab 51bd
000001b0: 8490 103c 0d9e 163c 0bd5 813c 86d1 3abc
000001c0: 1a31 70bb 4bab f13d 9cea 36bd f1ce 74bd
000001d0: e057 debc 4d78 d4bd c7af 823c 74f0 913d
000001e0: f23f 2c3d 2680 8cbd 3234 83bd bc45 d43d
000001f0: fe73 e3bd a992 19be a876 6fbd 7e85 95bc
00000200: 2146 1f3e c000 033e 4874 473b d91a 9fbc
00000210: 2fd2 dabd 92fd f0bd 6c16 8d3d 429f 85bd
00000220: 4fbb 8e3c 5460 c1bd d68a e73d 04cd e1bd
00000230: 118e 1a3d d33a 153e 3e2f 423c 2407 f2bd
00000240: 2d12 f0bd b22c 6abd 30c7 ebbd 58e1 a3bc
00000250: f090 9b3c 5b8c 113d 95de 7cbd a40d bfbd
00000260: d683 92bd f3a8 0f3d 75a9 973d a03b 913d
00000270: 978b 9e3d afed 0a3e 9fdd 73bd a778 6e3d
00000280: 8bee 1fbd 01cf 923d d068 163d 2e77 533c
00000290: 71e7 c4bd 56ca aa3d 3178 8bbd aa7f d2bd
000002a0: a077 c5bd acb5 78bb 6944 03bb 66ba 5c3d
000002b0: 0779 003e db0d 90bc 0029 513d 35a8 dfbd
000002c0: ec9e e53d d926 c1bd 284c 87bc f15d 913d
000002d0: 51cc 93bd b6ac ed3d a580 98bd a37b e73c
000002e0: 55f2 b43d 0591 a93d ceb0 bdbc d04f 9ebd
000002f0: 5fe4 babc fd38 e7bd 37a9 073b fd5b 4ebd
00000300: dc80 f83d 6996 9c3d 40df 993b fc4e c5bd
00000310: 7f75 b7bd d8fa 533d 1c33 bf3d 90f4 1fbd
00000320: 6564 0b3d d6cd c1bd 4e7b cd3d 317e b1bd
00000330: 3d03 f3bd bc4d a53d 5577 f63c 65a9 e5bd
00000340: 52cc 603c 9ffe c93d 184b f1bd 9e4f a3bd
00000350: ab21 003c 7bce 9cbd af79 fb3d 9267 5e3c
00000360: 22b9 bd3d 09ba c63d f1b2 51bc bec3 b9bd
00000370: 6d53 233d b33d 033e b963 8a3d 280f 933d
00000380: b3be 843d 8b50 ce3d 4fd3 a33d 7e3f 14bd
00000390: 4e5e 923d 6309 833d 9cd8 23bd d64a c8bb
000003a0: ad63 6c3d b4bc 44bd 406b d7bd 9845 20bd
000003b0: 6b52 f03d 49eb e13d 9007 a93d da15 a5bd
000003c0: c2a5 d83d 1b2a f03d e62f 8cbd 9cad c7bd
000003d0: 5261 87bd 4c7a 8f3c 3e83 33bd 52c9 d33d
000003e0: 285e cd3d 6785 2c3d 8e59 eb3c f75c 9dbd
000003f0: d09f 9ebd 362f 12be eed4 ddbc 399e cdbd

fc3.bias f4 [4]
0.08923784 0.09716791 0.06389482 -0.06439796
00000000: 54c2 b63d f8ff c63d 4adb 823d 14e3 83bd
